zeroth_policy.onnx (onnx, 809943 bytes, 10 tensors)

mlp_1/sub/ReadVariableOp:0 f4 [64]
000000 18 22 1e 3d a8 7a ab 3d fa b5 0a 3d a7 77 4b be
       0.038606733 0.08373004 0.033864953 -0.19869862
000010 d9 37 7f 3d a0 8e 84 3b b1 54 5c bd 82 ca c7 bc
       0.06230912 0.0040453225 -0.053791706 -0.024388555
000020 4f 03 6a bf 0a 23 0e 3c 50 52 9e 3b d9 2c 95 3b
       -0.914113 0.008675346 0.0048315898 0.0045524654
000030 cc ba 45 be 58 55 01 be ab cf a8 3e c4 36 a7 be
       -0.19309539 -0.12630212 0.32970938 -0.3265897
000040 10 d0 76 3d 45 aa 19 bc 18 f2 86 bd d8 25 ce 3e
       0.060257018 -0.009378974 -0.065891445 0.40263247
000050 8f 76 fe 3d eb 13 8a bc 18 b9 0a 3e 5e e9 62 3d
       0.12424957 -0.0168552 0.1354717 0.055398338
000060 65 0e 49 3e 47 de 54 3e e7 ff aa bd 56 ff 43 be
       0.19634397 0.20787917 -0.08349591 -0.19140372
000070 7d 20 3e bd 1f a3 51 bd 8e 2d be 3d cb f5 b8 bd
       -0.046417702 -0.051180955 0.092860326 -0.09031256
000080 ec 30 29 3c 8c a0 b4 bc 10 07 5c bc 70 fb 17 3e
       0.010326605 -0.022049211 -0.013429418 0.1484201
000090 cf 5b 57 3c fb 09 d4 bc cb 32 00 3e e3 67 88 3c
       0.0131444475 -0.025883665 0.12519376 0.0166511
0000a0 e5 6a e1 3d 5c 8a 99 3d 72 b6 1f 3c c9 1b 0d be
       0.11006717 0.07497093 0.009748088 -0.1378013
0000b0 89 42 4c be 1b 64 08 be 32 7c ae 3e f8 95 ad be
       -0.19947256 -0.13319437 0.34079129 -0.3390348
0000c0 ec 06 82 3d a6 54 40 bc 5b 58 8a bd b0 1c c9 3e
       0.063489765 -0.011738932 -0.06755134 0.392797
0000d0 c0 99 02 3e c2 23 cd bc 67 6e 01 3d 2d 9a 66 3d
       0.12753963 -0.025041465 0.03159943 0.056299377
0000e0 4b 91 0c 3e 14 5f 65 3e d3 f1 95 bd e2 90 ce bd
       0.137273 0.2239955 -0.07321515 -0.10086228
0000f0 b6 f8 a3 bd 99 03 e0 bd 58 54 65 3b bb 35 82 bb
       -0.08006422 -0.10938186 0.00349929 -0.0039736903

mlp_1/MLP_0_1/hidden_3_1/Cast/ReadVariableOp:0 f4 [128, 32]
000000 cb 33 0b bc f0 46 e9 bc 33 68 41 3d 8c 96 6c bd
       -0.008496235 -0.028476208 0.047218513 -0.05776076
000010 41 df 91 3d 8d ee 28 bc 1e 57 81 3c 61 98 96 3d
       0.071226604 -0.010310781 0.015788611 0.07353283
000020 91 04 a7 3c da 7b b6 3c d7 ae a7 3b 32 11 61 3c
       0.02038792 0.022275854 0.005117278 0.01373701
000030 46 96 22 3d 2d d8 21 3d 71 d9 36 bd 86 d5 43 bd
       0.039694093 0.039512802 -0.044640962 -0.047811054
000040 cc b4 63 be 61 bc 28 be 57 a9 bc bd 93 29 f5 bd
       -0.22236937 -0.16478111 -0.092119865 -0.1197082
000050 a6 49 28 be f1 ed 5d be ca c4 50 be 38 22 1e be
       -0.16434345 -0.21672799 -0.20387569 -0.15442741
000060 91 51 12 be 49 97 80 be fb 49 2e be e2 e7 67 be
       -0.14288928 -0.2511542 -0.17020409 -0.2264705
000070 d3 89 8f be e7 5d 85 be aa 9d 55 be 38 0f 50 be
       -0.2803484 -0.26048204 -0.20860925 -0.20318305
000080 00 0b 7c 3d 32 cb 27 3d e5 08 80 3d ce d0 21 3e
       0.061533928 0.040965267 0.062516965 0.15802309
000090 e0 34 b7 bc 45 e9 fe 3c 5c 27 95 3c b0 ba fa bb
       -0.02236408 0.031117091 0.018207245 -0.0076516494
0000a0 1f 34 8a 3c 29 32 1c bd b5 ce 65 3c dc 14 d8 3a
       0.016870556 -0.038133774 0.014026334 0.0016485709
0000b0 ff f7 17 bc 22 90 d0 3c 68 b2 35 bd e2 1e 83 3b
       -0.0092754355 0.025459353 -0.044359595 0.0040014843
0000c0 57 10 c2 3b 98 ad 6e bd ef 1b 79 3d 53 5f 6e be
       0.005922358 -0.05827102 0.060817655 -0.23278551
0000d0 38 1f e8 bd 4d 31 78 3d ee 72 24 be 5f 3e 0d 3c
       -0.113340795 0.060593892 -0.16059467 0.008620827
0000e0 cb 92 39 3d d5 be 30 be 58 1e c1 bd 55 55 98 bd
       0.04530601 -0.17260297 -0.09429616 -0.07438151
0000f0 68 3e 82 3d 68 95 00 3c b3 2a 26 3d 5c 9c 7b bc
       0.06359559 0.007848121 0.040568065 -0.015357103
000100 9a 6e ab 3d 23 bd b5 3c 5a be 07 3d 0d 58 27 bd
       0.08370705 0.022184914 0.033140518 -0.040855456
000110 2e 5d 97 bc 9d 3d 20 be cf ba 10 be 6c d9 88 bd
       -0.018477049 -0.15648504 -0.14133762 -0.06682095
000120 bc a9 08 be 81 e6 34 3d ee 4f 9a 3c ef b9 c1 3d
       -0.13345999 0.04416514 0.018836942 0.09459292
000130 21 c5 a1 3d 93 ef 68 bd 6a bc 9a 3d 00 df c6 3d
       0.078989275 -0.0568691 0.075554684 0.097105026
000140 79 dd 5b 3e 8f b5 5e 3e 09 70 df 3d 60 e6 9b 3e
       0.21471204 0.21748947 0.10910041 0.304492
000150 99 2f 3b 3e 9f 4f 8b 3d 99 dd e1 3e 36 8e 1f 3e
       0.18279876 0.06802296 0.44114378 0.15581593
000160 16 bf 6a 3d 1b 6f ed 3e b7 7f 7f 3e 93 19 23 3e
       0.05731114 0.4637383 0.24951063 0.15927725
000170 f9 f6 6d 3e 98 d1 9b 3e b2 4f ae 3e 0f d6 d0 3e
       0.23238744 0.30433345 0.34045178 0.40788314
000180 b9 51 a9 bd 84 33 c1 3d 9f 2c 0b be bd b4 dc bd
       -0.082675405 0.09433654 -0.1359124 -0.107766606
000190 dd 84 a6 bc dd c5 97 bc 0d d3 b5 bd d5 59 00 3d
       -0.020327026 -0.018526966 -0.08878145 0.03133567
0001a0 18 8e 55 3d c1 e1 8c bd c4 70 a0 37 65 69 55 bd
       0.052137464 -0.06878997 1.9125997e-05 -0.052102465
0001b0 fe 7c 03 bd 22 27 66 bd 9e 97 9c 3b 58 9a b6 3d
       -0.032101624 -0.056189664 0.0047788164 0.089161575
0001c0 92 8e 78 bc f0 3c 5d 3e c1 27 55 bd 45 00 76 3e
       -0.01517071 0.21605277 -0.052039865 0.2402354
0001d0 5e 4a da 3d b6 e5 8e 3d a3 a3 75 3e 5f 17 26 3e
       0.10658716 0.06977408 0.23988204 0.16219853
0001e0 70 78 87 3c 8f 0b 04 3e c5 8e 5d 3d a4 fb c2 3e
       0.016536921 0.12895034 0.054091234 0.38082612
0001f0 15 a6 df 3d 5c bd 9c 3e d8 72 5a 3e 9b 2a 2b 3e
       0.109203495 0.3061322 0.21332872 0.16715471
000200 2b 0b dd bd c3 dc f8 3d df 63 e3 3d 83 20 f0 3d
       -0.10793146 0.12151482 0.11103033 0.11724951
000210 10 a5 d9 bc 63 15 98 bd 99 27 c5 3d 5a 94 9a 3d
       -0.026567966 -0.07425954 0.09626693 0.07547827
000220 c1 b1 17 3d 28 4e 7b bc ca 19 47 3d 57 c0 93 bd
       0.037034754 -0.015338458 0.04860858 -0.0721442
000230 5c f1 02 3d 3f 44 88 3d 26 5f 01 3e 41 49 12 3d
       0.03196846 0.06653642 0.12633952 0.03571439
000240 eb a5 6d 3d 3b 79 ad bd 26 bb 08 bc e5 df 9e be
       0.05801956 -0.084703885 -0.008345401 -0.31030193
000250 f0 8e 99 3d 67 ae 4d 3e 62 a5 11 3e ac 91 e4 bc
       0.07497966 0.2008606 0.14223245 -0.027901493
000260 71 ab 94 3e 14 77 b0 bb 14 6a 07 3e 85 fd 8c 3e
       0.2903705 -0.005385289 0.1322406 0.2753717
000270 5a f9 51 3d 9c 6a 27 3e 3b a8 ab bc ac cd 17 be
       0.05126319 0.16349262 -0.020954242 -0.14824551
000280 4d 77 5a bd 39 29 e0 bb 5c 96 38 3d 9a c0 3e bd
       -0.05333643 -0.0068408516 0.04506527 -0.046570398
000290 18 92 1c 3a 66 99 67 bc c1 27 fe bc 75 4d d0 3c
       0.00059726974 -0.014135694 -0.031024816 0.02542756
0002a0 43 9b 0f 3d a5 b6 88 bd 64 2d 86 3d e0 50 f8 3d
       0.03506018 -0.06675462 0.06551626 0.12124801
0002b0 59 74 55 3d d3 38 86 3c e1 cd 71 3c fd 49 f6 3b
       0.05211291 0.016384518 0.014758558 0.0075161443
0002c0 90 89 fd 3d c0 2f 2b 3e 64 f7 0c 3e 52 1a 3f 3e
       0.123797536 0.16717434 0.13766247 0.18662384
0002d0 70 22 d5 3d 44 8a ca 3d 0f c9 26 3e 97 35 19 3e
       0.10406959 0.09889653 0.16287635 0.14961849
0002e0 5f cf 3c 3e 1c 7a 5a 3e 3d 7f 3f 3e 72 b2 43 3e
       0.18438481 0.21335644 0.18700881 0.1911104
0002f0 e9 60 6b 3e b5 f5 33 3e 1b 7c 31 3e 43 a4 19 3e
       0.22986187 0.17574199 0.17332499 0.15004067
000300 92 6b dc 3c 89 72 da 3c 9d fe a9 bd 72 2b a1 3b
       0.026906762 0.026665943 -0.08300517 0.004918509
000310 6d 30 e4 3b 88 37 88 3c b0 c5 d7 3c 44 79 62 bd
       0.0069637806 0.016628042 0.026339382 -0.05529143
000320 ba 17 37 bd 6c 84 97 bc 81 3e c5 3b 0d f4 ef 3a
       -0.04470036 -0.01849576 0.006019414 0.0018306986
000330 14 e5 fd bc aa f3 27 bd cc 24 3e 3d ec 1b 9d bb
       -0.030993022 -0.04100386 0.04642181 -0.0047945883
000340 9a 8d 57 3e 6b 3a 59 3e 87 f8 f6 3d 80 57 68 3e
       0.2105011 0.21213691 0.120591216 0.22689629
000350 48 c3 1f 3e 19 42 86 3e 42 6a 11 bf 42 99 1e bb
       0.15601838 0.26222304 -0.5680276 -0.0024200235
000360 21 58 1a 3e ad bb 3b be 88 ba 4c 3d 65 92 0f bf
       0.15072681 -0.18333311 0.049982578 -0.56082755
000370 65 bc 67 bd 44 a0 85 3d 14 b7 a5 3d f9 09 1b be
       -0.05657615 0.06524709 0.0809156 -0.15140523
000380 af 7c 4c 3e 7e a9 cd bd ed e7 36 be 1b e3 05 3e
       0.19969438 -0.10042094 -0.1786191 0.13074915
000390 f6 64 f5 bd f3 8f 33 3d a0 a1 5e bc ab e4 39 be
       -0.119821474 0.043838453 -0.013588339 -0.18153636
0003a0 46 d5 d2 3c b1 ec cf bd db c7 15 be ab 5b bc bd
       0.025736462 -0.10152567 -0.1462702 -0.09197172
0003b0 79 21 d7 bb d8 c4 c3 bd 25 71 65 3c c3 49 8d 3d
       -0.0065652695 -0.09559029 0.014004027 0.068988346
0003c0 c1 13 05 3d 40 91 83 3e 4a e2 83 3e 4a 7a 6e 3e
       0.032489542 0.25696754 0.25758582 0.23288837
0003d0 5c 02 1f 3e a2 a8 33 3c 0a ff 3d 3d 6b bf 3f bc
       0.15528244 0.010965498 0.046385802 -0.011703352
0003e0 6a db 6c 3e 6e 23 11 3e 33 3d 38 3e dc b6 63 3e
       0.23130575 0.14173672 0.17992096 0.22237724
0003f0 e0 e6 26 3b 6c c1 53 3e 5f a4 d0 3d 69 02 e2 3d
       0.0025467202 0.20679253 0.10187601 0.11035616

mlp_1/MLP_0_1/hidden_3_1/BiasAdd/ReadVariableOp:0 f4 [32]
000000 3f fd a7 bd 52 fb a2 bc bf 28 ff 3d 2a 58 20 be
       -0.082026 -0.01989523 0.124589436 -0.15658632
000010 e9 23 c3 3c 20 85 e8 3a da 3a 8f 3c 25 85 b5 3d
       0.023820834 0.001773987 0.017484117 0.08863286
000020 31 82 8f 3d 02 bd 9e 3d 51 4a 7d bd 73 03 ee bc
       0.07007254 0.07750894 -0.06183845 -0.02905438
000030 05 2a 51 bc 6d 92 d7 3d 98 a2 5a bc f1 35 87 bb
       -0.012766366 0.105259754 -0.013344429 -0.0041263034
000040 24 5c 79 bd 25 64 d9 ba ae 28 6e bd 1b 5d 02 bd
       -0.060878888 -0.0016585632 -0.058144264 -0.031827074
000050 d5 75 97 3b 80 cd 58 3d a0 75 df bd 71 a7 d2 bd
       0.004622201 0.052930355 -0.10911107 -0.10285843
000060 07 ea cc 3b eb 79 05 be da 4f 80 bd 2e 64 c5 bd
       0.006253484 -0.1303479 -0.062652305 -0.096382484
000070 cc c1 8d bd 0b fb 67 bd a1 46 21 bd 55 8c 76 bc
       -0.069217294 -0.056635898 -0.039373998 -0.015048106

mlp_1/MLP_0_1/hidden_2_1/Cast/ReadVariableOp:0 f4 [256, 128]
000000 4b 85 d0 bc de 7c a4 bd c9 7c 2a 3c c7 d4 f5 bd
       -0.025454184 -0.08031629 0.010405728 -0.12003475
000010 66 a6 8e 3d 76 e2 c0 3c 21 fc 05 3d 49 e5 b7 3d
       0.06965332 0.023545485 0.032711152 0.089792795
000020 65 35 90 3c a9 91 dd 3d 21 83 a3 bd 8b 6f 49 bd
       0.017603585 0.10818798 -0.07983995 -0.04917864
000030 36 4e cd bd b3 91 aa bb 6d 4b 5c be 07 ef 33 3d
       -0.10024683 -0.005205357 -0.21513148 0.043929126
000040 19 84 50 bd fb 47 48 be 56 76 70 be 5b 77 5e 3d
       -0.05090723 -0.19558708 -0.23482642 0.054313045
000050 4c 76 0e 3e 5f f3 47 be 12 3b c6 bd f7 77 32 bd
       0.13912314 -0.19526432 -0.096792355 -0.04357144
000060 e9 5d 21 bd 46 bf 8f 3d 60 02 66 bd af 16 88 be
       -0.0393962 0.070189044 -0.05615461 -0.26579806
000070 fd e9 a0 3c b5 03 98 be ad e7 28 be 53 1c e8 3c
       0.019642824 -0.29690328 -0.16494627 0.028333819
000080 68 db aa 3d 82 4a 91 be 29 eb 0e 3d 0b 58 6b bd
       0.0834263 -0.28377157 0.034892235 -0.05745701
000090 09 cd 83 be 2e 4c 54 3d e8 b4 50 be 14 65 e5 bd
       -0.25742367 0.051830463 -0.2038151 -0.1120092
0000a0 a3 d8 93 3d c4 65 1d be 0a ab 81 be 59 e6 e2 3d
       0.072190545 -0.15370852 -0.25325805 0.110790916
0000b0 8c cb a9 bd 45 ab 3e 3d 1b 45 a7 bd 4f 58 7d 3a
       -0.082907766 0.046550054 -0.08167478 0.0009664343
0000c0 68 d8 e5 3d 24 37 5c 3d 9f 94 ca bc bf 65 10 3d
       0.11222917 0.053763524 -0.024729071 0.035253283
0000d0 f0 0b 2b be 34 94 04 be 40 c2 06 be 51 2f 83 bd
       -0.16703773 -0.1294716 -0.13160038 -0.06405509
0000e0 01 ad 86 bd 74 fb e4 bd 81 ec ae bc 95 23 47 be
       -0.065759666 -0.111807734 -0.021353008 -0.19447167
0000f0 ff 4f b0 ba 59 7a 6d 3c 30 3c 76 3d e4 f7 11 be
       -0.0013451575 0.014494502 0.060115993 -0.14254719
000100 7c df 0f 3e 01 7f 3c bc 20 50 ba bd 1e b1 08 be
       0.14050096 -0.0115048895 -0.09097314 -0.13348815
000110 1f 32 c9 be 28 45 0e be 2b 3d 03 3e 8c 26 23 be
       -0.39296052 -0.13893569 0.12816302 -0.15932673
000120 f3 e2 83 bd 6a ff 6c bd 17 ba 30 bd 39 c3 49 bd
       -0.064397715 -0.05786077 -0.04314622 -0.049258444
000130 1d 20 14 3e d4 a3 95 bc 7a 50 fe bd 6f 81 bb 3d
       0.14465375 -0.018266596 -0.124176934 0.09155547
000140 49 00 1b be f9 96 44 3d 81 c5 fe bd e3 18 7f 3d
       -0.15136828 0.04799554 -0.12440015 0.062279593
000150 7a 0c 79 3d d0 4b 34 bd b5 18 3e 3a fe 57 8c 3d
       0.060802914 -0.044017613 0.00072516064 0.06852721
000160 6e e6 0b 3e 26 46 1b 3d b6 c1 54 bd 9c de 43 bc
       0.1366212 0.037908696 -0.05194255 -0.01195493
000170 c6 89 23 be f0 3d 2f 3d 6e 6e 46 be 2b 29 37 be
       -0.15970525 0.042783678 -0.19378063 -0.17886798
000180 7c b9 0f be e8 0e a0 3d 64 a8 18 3d 81 02 6a 3b
       -0.140356 0.07815343 0.037269965 0.003570706
000190 c1 cb 5e bd aa f8 89 3d ec 12 0d 3e 7d 95 6e be
       -0.054393534 0.06736882 0.1377675 -0.23299213
0001a0 a3 55 d9 3d 77 d4 9c bd 67 14 88 3d 43 01 6c 3d
       0.10612037 -0.07657712 0.066445164 0.05761839
0001b0 8b dd da bc 37 2e b0 3d aa 04 97 bd 86 b1 a6 3c
       -0.026716968 0.08602565 -0.073739365 0.020348322
0001c0 5c 86 62 bd f3 e5 a0 bd 46 a3 01 be c7 02 d5 3c
       -0.055303916 -0.07856359 -0.1265994 0.0260023
0001d0 92 8a de 3c 9e 30 cc bd 50 7b fe bd 21 38 4c 3d
       0.027165685 -0.099702105 -0.12425864 0.049858216
0001e0 50 13 ff 3c 2a b7 22 be c2 a1 71 bd 80 8a 19 3c
       0.031137139 -0.15890184 -0.058992155 0.0093714
0001f0 1f 61 74 3d 1a 5c f6 bd 37 55 31 3d 43 5e 3a be
       0.059662934 -0.12029286 0.043294158 -0.1820002
000200 cc f9 cf bc 44 e1 64 bd 8c 86 c5 bc 06 67 9b 3d
       -0.025387667 -0.055878893 -0.024112009 0.075880095
000210 7a a7 f8 3c ea 40 e3 bb 88 8f 8a be d4 a8 ab be
       0.030353297 -0.0069352286 -0.2706263 -0.33527243
000220 26 3f 84 3c 3d eb 5d bd 49 8a 30 be e4 fe 32 be
       0.016143393 -0.05417942 -0.17240252 -0.17480046
000230 fe a7 6c be 75 62 12 3e 73 1a b9 bc 20 df 40 be
       -0.23110959 0.14295371 -0.02259562 -0.18835115
000240 ec f4 44 bd 63 ee ab bd 43 8c 03 3e 23 eb 28 3d
       -0.04808514 -0.08395078 0.12846474 0.04123987
000250 7e a8 e3 3c 20 98 0e be 1f d6 41 bd ca 51 5d bd
       0.027790304 -0.13925219 -0.047323342 -0.05403308
000260 21 cf 0f bd a7 6a f6 3c 89 1a 0a be 55 09 21 be
       -0.035109643 0.030080153 -0.13486685 -0.15726216
000270 6a 01 63 bd 6a 12 2f 3d fb ae 40 be 31 a4 63 be
       -0.05542127 0.04274217 -0.1881675 -0.22230603
000280 35 f4 52 be b0 a1 c6 3d 46 a7 57 3d 0e 4f c6 bd
       -0.2060097 0.09698808 0.05264976 -0.09683047
000290 1a 9b 2b 3b a9 ef 70 be 1c 5b 63 bd 48 a5 19 3e
       0.0026184977 -0.23528923 -0.05550681 0.15004456
0002a0 44 ad 5d be f3 98 ba bd ff 0a d8 bd 4d 47 28 bc
       -0.21648127 -0.09111204 -0.10548972 -0.010270906
0002b0 5b 46 17 3e df 40 54 3d 73 fd c4 3d 2e c9 aa bd
       0.14772932 0.05181968 0.09618654 -0.08339153
0002c0 49 67 ca 3d 6b b8 3f 3d 6a e3 61 3e 13 e1 80 3d
       0.09882981 0.046806734 0.22059408 0.062929295
0002d0 d5 26 4f be bf e4 0e 3e bc d4 f6 bd 79 0b d4 3d
       -0.20229657 0.13954447 -0.120522946 0.10353751
0002e0 26 18 b2 bd 2b aa 44 3d b6 e6 d8 bd 4f 59 a6 bd
       -0.08696012 0.048013847 -0.105908796 -0.08122503
0002f0 b0 af d9 bd 18 12 c4 bd ad 27 3d be ff 8e 83 3e
       -0.10629213 -0.095737636 -0.18472166 0.25695035
000300 b0 58 54 bd c4 f8 29 be 39 45 e5 bd 7a 22 07 3e
       -0.05184239 -0.16598803 -0.11194844 0.13196746
000310 40 ac c3 bd ec 33 c9 be 23 57 b0 3d 91 bc 0f 3c
       -0.095543385 -0.39297426 0.0861037 0.008772985
000320 c5 73 be bd f4 4b af 3d 22 be 0f be b4 8b 98 3c
       -0.09299425 0.08559409 -0.14037374 0.018621303
000330 30 50 f8 bd 59 9f 4b bd 33 0d 41 bd 4d 21 3d be
       -0.121246696 -0.049712513 -0.04713173 -0.18469734
000340 a1 e0 6b bc 42 43 3b be 35 4d aa bd c7 75 0d be
       -0.014396817 -0.18287376 -0.08315507 -0.1381446
000350 c0 ca b0 3c ef d5 03 be ed 16 a8 3d b8 de a5 3d
       0.021581054 -0.12874578 0.08207498 0.08099121
000360 bb 41 dd 3c fe 9f 37 be a5 02 31 be 6d 68 03 3e
       0.027008882 -0.17932126 -0.17286165 0.12832804
000370 29 8b 32 3c 99 88 bd bc c2 43 43 3d 66 0a 9f be
       0.010897436 -0.023136424 0.04767204 -0.3106262
000380 3a bc 1b 3d 4e 3b eb bc d5 23 e9 bc 0b f8 c7 3d
       0.038021304 -0.028714802 -0.028459469 0.09764107
000390 5d 80 8f be 68 f4 77 bd 2f c7 c3 bd 65 72 47 3d
       -0.2802762 -0.06053582 -0.09559476 0.04869308
0003a0 ac 13 fb bc 4e 69 4d 3d f2 4d 0e be 60 4c 06 bd
       -0.030649029 0.050149255 -0.13896921 -0.03278768
0003b0 cd 40 9a 3d 08 0f 8d bd 3c 68 03 bc 5a aa 59 bd
       0.07531891 -0.068876326 -0.008020457 -0.053140976
0003c0 57 13 9a be 10 97 8e be 18 ec 1e 3e 0d 79 0c be
       -0.3009288 -0.27849627 0.1551975 -0.13718052
0003d0 57 77 82 be d7 2c 6e 3c 62 3a 0a 3e e1 9a 8e 3d
       -0.25481674 0.014537058 0.13498834 0.069631346
0003e0 a5 ff e5 3d a4 21 8b bd 1e 63 4c 3e dc 4e bd be
       0.11230401 -0.06793526 0.19959685 -0.36974227
0003f0 7c 6e c1 3c 36 65 0a be 0b e4 f6 3c bb cc ec bd
       0.023612253 -0.13515171 0.030138036 -0.11562487

mlp_1/MLP_0_1/hidden_2_1/BiasAdd/ReadVariableOp:0 f4 [128]
000000 09 90 a2 bc 8f a1 72 bd 07 3d 06 be 23 f1 23 be
       -0.019844072 -0.059236106 -0.13109218 -0.16009955
000010 b6 cf b3 bd db 71 83 bc 07 08 a9 bd d9 88 e0 bd
       -0.08779852 -0.016045501 -0.08253484 -0.109636016
000020 1f 0f 3e be f5 b5 a0 bd 7f ae e3 bd 2c d9 57 bd
       -0.18560456 -0.078472055 -0.11117267 -0.052697346
000030 75 80 dd bd 21 20 cf bd 79 9a e8 bc 5a e5 15 be
       -0.10815517 -0.1011355 -0.02839397 -0.14638272
000040 85 f7 2e bd 1a 52 c8 bd a3 e6 3f be 67 c9 53 be
       -0.04271652 -0.09781285 -0.18740325 -0.20682298
000050 32 93 3a be a8 9f fc bd 93 d8 fa bd 46 dc ef bd
       -0.18220213 -0.123351395 -0.122483395 -0.11711936
000060 64 10 1b bd 7c b6 69 bc 10 49 0c be 1c aa d3 bd
       -0.03785743 -0.014264699 -0.13699746 -0.1033518
000070 89 8b b4 bd 2d be 2a be 01 11 2f be 67 0b 1c be
       -0.08815677 -0.16674109 -0.1709633 -0.15238725
000080 15 1a 68 bd 58 6f e2 bc cb 15 4c be 03 b5 30 be
       -0.0566655 -0.027640983 -0.19930188 -0.1725655
000090 8e f8 c9 bd 9a c1 80 bd dc e5 d7 bd 6c 14 05 be
       -0.09861861 -0.062869266 -0.10541889 -0.12996072
0000a0 61 96 ee 3c 32 e2 00 be 45 ba 2a be 67 39 65 bd
       0.02912444 -0.12586287 -0.16672619 -0.055962946
0000b0 73 61 ce bc 2d 8c 53 bc 01 63 3d be e9 c6 3d be
       -0.025192952 -0.0129118385 -0.18494798 -0.1853291
0000c0 8f 48 6a bd c5 fa 80 bd 6a ef ce bd cf 54 43 be
       -0.057198104 -0.062978305 -0.10104258 -0.1907532
0000d0 e1 82 30 bd 69 10 13 be d1 a1 61 be 35 05 21 be
       -0.043093566 -0.14361729 -0.22034384 -0.15724643
0000e0 ec 1b b7 bd b8 78 2e bd ea 5e 16 be 0e 56 57 be
       -0.089408726 -0.042595595 -0.14684644 -0.21028921
0000f0 2a a3 24 be 4f ac ea bd 76 85 26 be 7a cc 38 be
       -0.16077867 -0.114586465 -0.16261849 -0.18046752
000100 1f 0c 06 be 35 78 4d bc 80 bd e5 bd 3b 95 5a be
       -0.13090561 -0.012540867 -0.11217785 -0.2134599
000110 f3 77 87 bd a7 06 9c bd 0a 1f 0f be fd 9d e7 bd
       -0.066146754 -0.07618456 -0.13976684 -0.11309431
000120 53 c1 cc bd 16 54 3e be 37 c4 84 be 4f b4 30 be
       -0.09997811 -0.18586764 -0.2593095 -0.17256282
000130 08 1c 11 be bd 39 b7 bd 58 c1 d2 bd 9c 20 11 be
       -0.1417085 -0.089465596 -0.10290784 -0.14172596
000140 ac 33 de bd be b9 16 3c ac 8f 06 be ca 7d 23 be
       -0.108496994 0.009199558 -0.13140744 -0.15965953
000150 f7 a9 e2 bd b7 34 24 be 48 4d f7 bd ae 63 ea bc
       -0.110675745 -0.16035734 -0.12075287 -0.028611984
000160 fc f6 ce 3c 8d 31 94 bd f7 4e cc bd b5 7b 1e be
       0.025264256 -0.072360136 -0.09975999 -0.15476878
000170 2f d1 4e be 8f 2a bc bd 98 a1 1a be 64 ae a7 bd
       -0.20196985 -0.09187805 -0.15100706 -0.08187559
000180 46 ff 9f 3d 29 4c 26 be 32 f2 30 be d0 ca d9 bd
       0.078123614 -0.1623999 -0.1727989 -0.106343865
000190 38 af 6f bd 9b 1c 27 be cb 8e 11 be a1 de 09 be
       -0.05851671 -0.16319506 -0.14214627 -0.13463832
0001a0 1a bb eb bd 0c 99 c2 bd e4 db aa bd f7 57 c9 bd
       -0.11510296 -0.095018476 -0.08342722 -0.09831231
0001b0 22 9b c0 bd 0e 43 72 bd 1b 72 08 be f9 44 96 bd
       -0.09404589 -0.05914598 -0.13324778 -0.07337374
0001c0 73 9c 09 be 7f 6c 07 be 58 f4 5c be 3b 61 cd ba
       -0.13438587 -0.13224982 -0.21577585 -0.0015669236
0001d0 70 b2 2f be e8 87 82 be 33 de 1a be 47 d7 fb bd
       -0.17157912 -0.25494313 -0.15123825 -0.1229692
0001e0 d4 e3 15 be 7b 2e 6b bd 30 23 3a bd b0 12 62 be
       -0.14637691 -0.057417374 -0.045443714 -0.22077441
0001f0 66 2c 2a be a0 3c 02 bd 9d 7a 87 bd f6 67 ed bd
       -0.16618499 -0.031796098 -0.066151835 -0.115920946

mlp_1/MLP_0_1/hidden_1_1/Cast/ReadVariableOp:0 f4 [512, 256]
000000 9b ec 98 3d 35 3b 29 be 11 3c 2d 3e 17 ca 02 be
       0.07467004 -0.16526492 0.16917445 -0.12772404
000010 c4 79 a3 bc 5f 8d f7 3d 85 11 93 3a e9 88 51 be
       -0.019955523 0.12087511 0.0011220431 -0.20462383
000020 4b 94 35 3d e9 aa bf 3d 66 cf 0b be e5 6f 47 be
       0.044330876 0.093587704 -0.13653335 -0.19476278
000030 dc 18 c3 3d fb d1 fc 3d f0 bb 1d 3d f4 26 27 be
       0.09526226 0.12344738 0.03850931 -0.16323453
000040 a0 b0 62 be d9 a6 be 3c 4b a8 92 bd f1 93 ac 3d
       -0.2213769 0.023272919 -0.071610056 0.08426655
000050 cf 09 37 3e ef 7b e2 3c 5f d8 eb 3d 2d 4e 6e bd
       0.17874835 0.027646987 0.11515879 -0.058180023
000060 5d 5b 04 3c b8 fa 77 3d d1 ab 00 be 39 5b 47 bc
       0.008078423 0.06054184 -0.12565543 -0.012167745
000070 c7 72 eb bd 84 2f 9d bd c5 0d 5b 3d cb c5 22 be
       -0.114965014 -0.076750785 0.05347993 -0.15895765
000080 6b 57 cf bd d3 3c ce bd 27 25 41 3e 68 65 83 bc
       -0.101240955 -0.10070195 0.18861829 -0.016039565
000090 eb 73 92 bd 0f 48 e7 3d 12 ee 0e 3d f4 99 7f 3d
       -0.07151016 0.11293041 0.03489501 0.06240268
0000a0 13 23 fd bd 0a f2 cd ba 9b 1a 0e be 1f 57 b6 3d
       -0.123602055 -0.0015712392 -0.13877337 0.08903336
0000b0 fb 95 12 be ec 41 34 3d 82 b6 bb bd 0c 12 e9 bd
       -0.14315026 0.04400818 -0.0916567 -0.11380395
0000c0 95 53 3b be 27 e6 01 3e 82 96 94 bd 8d 1b 87 3d
       -0.18293603 0.12685452 -0.072552696 0.06597052
0000d0 17 ac 3b 3e 07 57 1a be e1 f5 4a be 43 eb 63 3e
       0.18327366 -0.15072261 -0.19820358 0.22257714
0000e0 ca 1f 4e bd 47 b7 3b bd 53 9c 2b be 37 b7 d0 3d
       -0.050323285 -0.045829084 -0.16758852 0.101911955
0000f0 10 16 1c 3e 54 1e 68 ba ff 29 36 bd 11 a2 61 bd
       0.15242791 -0.0008854617 -0.044473644 -0.0550862
000100 c8 08 3a 3e 1e 2c 3d bd 8d 13 9c be 28 8f 46 be
       0.18167412 -0.04618465 -0.30483666 -0.19390547
000110 5f fa 9a bd f4 cd 8c 3c 64 e5 6b 3d d5 96 a7 ba
       -0.07567286 0.01718805 0.05759181 -0.001278604
000120 1f be b9 3d c8 a5 83 3d 92 29 5c be fe ff 92 bd
       0.09069466 0.06428105 -0.21500233 -0.07177733
000130 49 d0 14 be 5b e3 ca 3c 9b 18 78 3d 57 b1 d2 3d
       -0.1453258 0.024766615 0.06057034 0.10287731
000140 e4 3d 64 3d a2 f8 d3 bb 72 25 c7 3d 99 95 37 3e
       0.055723086 -0.0064688483 0.09723939 0.1792816
000150 e7 52 d4 3d 38 4f c3 be 31 d3 95 3d aa 9e 19 bd
       0.10367375 -0.38146377 0.07315672 -0.03750483
000160 c5 b8 5b bd 62 ac 1f bd b9 dc cf bd 33 50 05 be
       -0.053643007 -0.038982756 -0.101495214 -0.13018875
000170 6d ce c9 3c 4f 5b 44 3d b0 46 49 3e 34 1c 78 3e
       0.024634564 0.04793864 0.19655871 0.24229509
000180 34 2b c3 bc a7 80 e9 bb 17 ec 08 3d b6 70 fe bd
       -0.023824312 -0.0071259323 0.033428278 -0.12423842
000190 83 85 43 be fc bb a8 3d eb f2 e4 bd 9c 64 a3 3d
       -0.190939 0.0823898 -0.111791454 0.07978174
0001a0 4f 40 28 3d e3 fe ae 3d 93 de 61 bc 92 8c 46 bd
       0.041076954 0.085447095 -0.013785976 -0.048473902
0001b0 78 9d d2 3d 65 63 ca 3d dd e0 5b bd 46 0c 08 3d
       0.10283941 0.09882239 -0.053681243 0.03321483
0001c0 7d df f0 3d 82 bb a0 bd f1 de d2 bd dc d0 e1 3c
       0.11761377 -0.07848264 -0.10296429 0.027565412
0001d0 5f d0 94 bd b5 c3 24 3c 00 0f 08 3e 2f f0 e6 3d
       -0.07266306 0.010056426 0.13286972 0.1127628
0001e0 d9 17 5d be e6 c4 03 3e c0 08 02 be 88 e0 45 3e
       -0.21591128 0.1286808 -0.1269865 0.19323933
0001f0 82 65 8d be 1a 70 70 bc 99 cb ea bc 34 55 93 be
       -0.27616507 -0.014675165 -0.028661536 -0.28775942
000200 45 b0 d6 3d 4d cb 5f 3e 69 2b 51 3e 47 49 03 3d
       0.104828395 0.21854897 0.20426716 0.032052305
000210 47 b2 28 be af da 70 3d e8 cc cd 3c ea aa 9b 3d
       -0.16474257 0.058802303 0.025122121 0.07600959
000220 7f a4 23 be 4b 9c 0f be 4b 63 13 bd 87 70 df 3c
       -0.15980719 -0.14024465 -0.035983365 0.027275337
000230 19 3f d0 bd 1c 8f 66 3d 86 9e 3f bd f0 89 c5 3d
       -0.10168285 0.056288823 -0.04678204 0.0964545
000240 c9 21 08 3e a5 83 20 bd d2 89 85 bd 6c 2f 7a 3d
       0.13294138 -0.039188046 -0.06520428 0.06108038
000250 a1 04 06 bd 15 4c 0b be 05 0b 43 3d 40 6e 1a bd
       -0.03271926 -0.13603242 0.04761793 -0.0377028
000260 8d 82 5a bd 82 2f ac bd 52 8e 2a 3d 91 94 b0 be
       -0.05334716 -0.08407499 0.041639633 -0.34488347
000270 1c 03 0c 38 4f b7 95 bd 30 0f 22 3e f2 14 39 bd
       3.3381497e-05 -0.07310354 0.15826106 -0.04518599
000280 fb ba 64 3d c4 bd 3d 3d fa cf c8 bd 67 17 dd bc
       0.05584238 0.046323553 -0.098052934 -0.026988698
000290 aa cc 77 3d 38 80 1c be 7c e1 f9 3d 71 2e 1c bd
       0.060497917 -0.15283287 0.12201211 -0.038130227
0002a0 ee 1e 40 3e 58 b6 21 be 50 62 17 be 32 6e 44 be
       0.18761799 -0.15792215 -0.14783597 -0.19182661
0002b0 c7 d4 92 3d 60 0b c5 3d 2b 38 27 be 5c ce 23 3e
       0.0716949 0.0962131 -0.1633002 0.15996689
0002c0 11 04 6f be 41 4f ea 3c 5a 6a 17 bc d4 89 5e 3d
       -0.23341395 0.028602244 -0.009241665 0.054330662
0002d0 14 b0 d6 3d f6 4e d3 bd 26 b0 76 3d ae 9f d9 bd
       0.10482803 -0.10317795 0.060226582 -0.106261596
0002e0 92 75 c2 3d 7b 52 d9 3c 89 b3 ed bd 26 2b b2 3d
       0.09495081 0.026528588 -0.11606509 0.08699636
0002f0 3a e1 2a 3d 29 9f bf bd fb 09 a6 3c d6 c7 ae 3d
       0.0417187 -0.09356529 0.020268431 0.085342094
000300 12 fc b2 3d 77 10 9c be d1 5c 02 bc c0 d8 c9 3d
       0.08739485 -0.30481312 -0.0079566995 0.09855795
000310 c3 d3 dd be 19 77 72 be 17 9c c9 bb df 5e 24 bd
       -0.43325624 -0.23678245 -0.0061526406 -0.04012954
000320 d7 47 b6 3d 68 60 8f 3c 25 27 07 bf 1c 2c bf bd
       0.08900421 0.017502025 -0.52794105 -0.09334585
000330 96 75 01 be 1c fb 12 bd 9a 6f a3 3d e0 06 aa 3b
       -0.12642512 -0.035884008 0.07980271 0.005188808
000340 0e ba 12 3e cc cb f7 3c b7 d2 42 bb ac 01 cd bd
       0.14328787 0.030248545 -0.0029727647 -0.100100845
000350 b3 c0 ea bd da 1c 08 3c c8 e9 c0 3d 75 a6 38 be
       -0.11462536 0.00830766 0.0941959 -0.18032248
000360 2f f0 13 3e e4 0d 1a 3e 8d bd 9a bd c7 93 5a 3d
       0.14447092 0.15044361 -0.07555685 0.053363588
000370 09 52 9c bd 06 93 ca bd fd 6d a2 bd 12 6b 07 3c
       -0.076328345 -0.09891324 -0.07931135 0.008265274
000380 29 e5 d9 bd b8 f1 51 bd 1c e7 57 3e c7 c3 89 bc
       -0.10639412 -0.05125591 0.21084255 -0.016816987
000390 fb 81 89 be 95 52 bb 3c 3e 2a c3 bd bd dd 89 be
       -0.2685698 0.022866527 -0.095295414 -0.26926985
0003a0 06 25 df bd 1e cf 6b 3e 0d 5d 8a be 30 60 fb 3d
       -0.108957335 0.23028228 -0.27024117 0.12274206
0003b0 71 68 07 3c 84 f6 0b 3e 06 fd c7 3d d7 5a 87 be
       0.008264647 0.13668257 0.09765057 -0.26436493
0003c0 c2 8d 18 3e 69 05 03 be f1 7e d1 bd 4f 89 3a 3e
       0.14897826 -0.12795033 -0.1022929 0.18216442
0003d0 7e 19 7d 3d 57 a9 4f be 1a 7f 96 be 35 12 17 bd
       0.06179189 -0.20279442 -0.29393846 -0.036882598
0003e0 05 d4 89 bd ae b8 12 be e5 78 12 be fc b0 da 3d
       -0.06729893 -0.14328262 -0.1430393 0.10678288
0003f0 51 40 89 3a 88 e1 95 bd 3d 17 0e be c3 77 10 3e
       0.0010471438 -0.07318407 -0.13876052 0.14108185

mlp_1/MLP_0_1/hidden_1_1/BiasAdd/ReadVariableOp:0 f4 [256]
000000 42 80 2f bd 2c 46 9b be 2e 36 88 bd 1b c8 9a bd
       -0.042846926 -0.30326974 -0.06650959 -0.07557698
000010 3f bc c4 be f8 4b 09 be b2 2f 47 bd 49 71 00 be
       -0.3842487 -0.13407886 -0.04862947 -0.12543215
000020 2a 31 6a bd ae c4 39 3d 52 b1 ee 3c 73 51 7d bb
       -0.057175793 0.045353584 0.029137287 -0.0038653284
000030 9b 73 6a be 2f 40 07 be 33 a2 d0 bd df 37 f4 bd
       -0.22895662 -0.13208078 -0.10187187 -0.11924719
000040 c0 f3 aa bd 74 87 39 be c8 70 03 bc 7c ed 35 be
       -0.08347273 -0.18118078 -0.008022495 -0.17766374
000050 07 e9 4c 3d ba 2d 4e be f8 8f f9 bd a9 07 cd bd
       0.05002692 -0.20134631 -0.12185663 -0.10011227
000060 a4 a9 3b bd c8 ec c4 3b 76 b4 1e be 53 44 c8 bd
       -0.04581608 0.006009672 -0.15498528 -0.09778657
000070 36 a1 6a bd 86 20 6a bd 10 e2 db bd 78 1a 83 bc
       -0.05728265 -0.057159923 -0.107364774 -0.016003832
000080 39 05 c4 bd fe b5 b5 bd a4 e8 e2 bc ab 27 4d be
       -0.09571309 -0.08872603 -0.027698822 -0.20034663
000090 e8 f8 0e be 8f b1 b2 bd b9 9d 6e bd 27 ad ce bd
       -0.13962138 -0.08725273 -0.058255885 -0.1009162
0000a0 78 99 08 be 42 33 21 be 15 9e a8 be c5 2b 46 bd
       -0.13339794 -0.1574221 -0.32933107 -0.048381586
0000b0 a3 58 1a be 28 52 06 be 20 81 2d bd 5c 36 2a bd
       -0.15072875 -0.13117278 -0.04235947 -0.041555747
0000c0 25 24 60 bd 28 e5 a7 bd 72 90 03 be c4 dc f2 bd
       -0.05472197 -0.08198005 -0.1284807 -0.11858514
0000d0 db 5b 60 bd 5c 4a e8 bd 12 f2 13 be 5e 2e 9d bd
       -0.0547751 -0.11342308 -0.14447811 -0.076748595
0000e0 91 60 5f be d5 a8 9e bd ec 69 b2 3b ec d6 1d bd
       -0.21814181 -0.07747046 0.005444756 -0.038535044
0000f0 01 a1 49 3c b1 20 d0 bd c4 63 97 3c e8 c5 bb bd
       0.012306453 -0.101624854 0.01848019 -0.09168607
000100 fd be d4 bd b5 7f e0 bd b7 87 de bd c2 ca c1 bd
       -0.103879906 -0.10961858 -0.10865729 -0.09462501
000110 37 9d 0e be bb a8 32 be 34 8e 26 be c6 c3 7a bd
       -0.1392716 -0.17447178 -0.16265184 -0.06122186
000120 38 4e 09 be 15 37 95 bd c5 8e ce bd 61 5a a2 bd
       -0.13408744 -0.07285897 -0.10085825 -0.07927395
000130 1b bf 2b be a8 37 05 be ef 14 f7 bd 28 a5 40 bd
       -0.1677212 -0.13009512 -0.1206454 -0.047032505
000140 d8 60 31 bd e3 ac e3 bd f3 61 3f bd a4 9d 8e bc
       -0.043305248 -0.1111696 -0.04672427 -0.017409153
000150 20 3d 87 be ff 2a 17 be 3a d1 c2 bd c3 58 0a bd
       -0.26413822 -0.14762495 -0.09512563 -0.033776056
000160 e8 f5 14 be 89 c1 6e 3d d6 6f 86 bc dd 4f 24 bd
       -0.14546931 0.05829004 -0.01641075 -0.040115226
000170 08 65 2e bc 49 1e ae 3b 58 ab 8f bc 6a b5 27 be
       -0.010644205 0.005313669 -0.017537758 -0.16377798
000180 10 e4 2a be 0b 6b ec bc 34 cb fe bd e2 0d 6b bc
       -0.16688561 -0.028859636 -0.12441102 -0.014346572
000190 0d 82 a5 bd c1 f1 14 be 2c e1 0b be ae 0e 2e bd
       -0.08081446 -0.14545347 -0.13660115 -0.04249447
0001a0 f0 5e 12 be ad 19 50 bc eb 11 16 be ab 51 ed bd
       -0.14294028 -0.012701434 -0.14655273 -0.115878426
0001b0 ee b0 8e bd a2 b0 d7 bd ff 88 14 be 91 38 48 bd
       -0.069673404 -0.10531737 -0.14505385 -0.04888207
0001c0 a4 32 e1 bd 62 5a 17 be d1 a5 3e 3b 33 58 1d be
       -0.10995987 -0.14780572 0.0029090533 -0.15365677
0001d0 1c 1c ae bd 49 07 2b 3e c3 8d bd bd e2 7c 2d be
       -0.08501455 0.16701998 -0.092555545 -0.1694217
0001e0 0d 42 6e bd ad bf 1c be f2 b7 e7 bd 3c 2c a6 bd
       -0.05816846 -0.15307494 -0.11314382 -0.08113906
0001f0 4a 89 02 be 6d 15 29 be 4c 9e 98 bd 53 13 30 be
       -0.12747684 -0.1651208 -0.07452068 -0.17194872
000200 72 f3 75 bd 61 a5 cb bd 4a a1 5a bd 5a f1 99 3d
       -0.06004662 -0.09943653 -0.053376473 0.07516737
000210 c9 eb ff bd ec 90 1f be ce 3a cf bc 5f 35 02 be
       -0.12496144 -0.15582627 -0.025296595 -0.12715672
000220 8e 5d a7 bd 7a b5 00 be a5 19 5d 3d 37 9c 09 be
       -0.08172141 -0.12569228 0.053979535 -0.13438497
000230 cf e3 46 be 65 b4 f4 bd 1d da a3 bd cc 57 fd bd
       -0.1942284 -0.1194847 -0.08000586 -0.123702615
000240 a0 98 26 be 7d 1b ae bd 85 c8 8e 3b af 27 9c bd
       -0.1626916 -0.08501337 0.0043574 -0.076247565
000250 c0 b4 ec bd b7 38 31 be a7 66 f6 bc 79 dd 64 bc
       -0.11557913 -0.17306791 -0.030078245 -0.013968819
000260 77 49 42 be dd 94 e5 bd f6 f1 82 bd 2e fb e4 bd
       -0.18973337 -0.11210034 -0.06393807 -0.11180721
000270 62 7f 94 3d c0 d3 ad bd 29 89 83 bd 0a a6 db bc
       0.07250859 -0.08487654 -0.064226456 -0.026812572
000280 29 52 63 bd 9f 91 26 be 1d 06 c5 bd a4 b1 90 bd
       -0.055498276 -0.16266488 -0.09620307 -0.07065132
000290 1a 8a 87 bd d0 d2 b9 bd 07 ff 28 be 14 ed a5 bd
       -0.06618138 -0.090734124 -0.16503535 -0.0810186
0002a0 d7 51 a2 bd 99 d2 99 bd b0 3b 9d bd e1 19 0b be
       -0.07925766 -0.075108714 -0.076774 -0.13584091
0002b0 b7 bc bb bd 6e 35 59 be 18 60 b8 bc ea 41 0b bd
       -0.09166854 -0.21211788 -0.022506759 -0.033998407
0002c0 f5 fd 9d bd b5 59 05 be 7d 06 a4 3c 8b 51 d1 bd
       -0.07714454 -0.13022502 0.020022625 -0.10220631
0002d0 4e 1a d9 bd 19 08 21 be 54 b9 07 be 56 0c eb bd
       -0.1060072 -0.15725745 -0.13254291 -0.11476962
0002e0 14 9d a0 bd b7 3e 56 3e a5 38 0a be bd c2 a6 bd
       -0.0784246 0.20922361 -0.1349817 -0.08142612
0002f0 93 c0 0a be 33 46 56 be ba 96 44 be 55 34 f5 bd
       -0.13550024 -0.20925216 -0.19198123 -0.11972872
000300 80 51 8b bd 43 8e bc bd 33 e8 1e be 6a 7c 8a be
       -0.06802654 -0.09206822 -0.15518264 -0.27048045
000310 f6 dc 06 be 6c 5c e9 bd ec 26 1d be 45 77 a8 bd
       -0.13170227 -0.11394581 -0.15346879 -0.08225874
000320 26 b6 3e be 93 8e fb bd 27 49 07 be 02 c5 ec bd
       -0.18624172 -0.12283053 -0.13211499 -0.11561014
000330 7a bd 75 be e1 b0 45 bd 1a d0 c5 bd 88 f9 0b be
       -0.23998061 -0.048264388 -0.09658833 -0.13669407
000340 a1 89 9a bd 6c 03 ae bd 8c d8 c5 bd 3a 37 c7 be
       -0.07545782 -0.084967464 -0.09660444 -0.38909322
000350 17 b7 cc bd 4b 6c 36 bc 4e 61 be bd 11 f7 c0 bd
       -0.09995859 -0.0111342175 -0.09295903 -0.09422124
000360 8c d2 9e bd 4f fe a4 bd 0e 78 fa bd f1 ab 59 3b
       -0.077550024 -0.08056318 -0.1222993 0.0033214057
000370 bf e7 8c bd 16 2f 0c be b4 ea 6c bd cf 75 4b bd
       -0.068801396 -0.13689837 -0.057841018 -0.049672898
000380 32 bd 74 be f9 ec 3e be 3a 40 ae bd c4 d3 12 bd
       -0.23900297 -0.18645085 -0.08508344 -0.035846487
000390 6e f5 35 39 26 fb ac bd 32 7f 03 be 39 ba d8 bc
       0.00017352935 -0.0844634 -0.1284149 -0.026455985
0003a0 a6 96 2c be ce d9 56 bd e6 8b 8b bd 29 1b 03 be
       -0.16854343 -0.05245381 -0.06813793 -0.1280333
0003b0 74 ec 5b be fa d8 28 be f4 a5 08 be 93 95 1c be
       -0.21476918 -0.1648902 -0.13344556 -0.15291433
0003c0 e2 a5 a9 bd 53 91 d3 bd c3 ad fa bd df 5f e9 bd
       -0.08283593 -0.10330453 -0.12240174 -0.11395239
0003d0 bc dd ed bd 9a 0f 6f bd 72 69 30 bd 43 55 ef bd
       -0.11614558 -0.05836449 -0.04306931 -0.11686184
0003e0 bc 70 3c be db 30 10 be 8c 2b d7 bd 5c 1c 66 bd
       -0.1840238 -0.14081137 -0.10506353 -0.05617939
0003f0 e0 9e 07 be 9a 30 c1 bd 0e 2e 13 bd 23 8d cb bd
       -0.132442 -0.09433098 -0.035932593 -0.09939029

mlp_1/MLP_0_1/hidden_0_1/Cast/ReadVariableOp:0 f4 [64, 512]
000000 9f 10 47 be af 94 44 3e 93 45 80 be aa ac 1e 3e
       -0.19439934 0.19197343 -0.2505308 0.15495554
000010 4b 3a cd 3d ee 5a f2 bd 71 c3 9f be 9f 46 95 be
       0.10020884 -0.1183375 -0.31203797 -0.29155442
000020 34 b9 82 be 35 54 31 3f 86 6e 52 bd 24 f2 03 3d
       -0.25531924 0.69269115 -0.051374935 0.032213345
000030 e2 74 98 3e af 25 9b bd ba 2a d5 be 8c 8b 1a bd
       0.29776675 -0.07575547 -0.4163416 -0.03773074
000040 8b 06 45 be 31 17 35 bd 4e 1c 9a 3d 83 89 91 be
       -0.19240777 -0.04421157 0.0752493 -0.28425226
000050 ac 4a 9f be aa e8 db be c3 a1 b3 3d fb 29 13 be
       -0.31111658 -0.42950946 0.08771088 -0.14371483
000060 de 3d b8 be 8e 20 7d 3e ce a4 bc bd af 81 e2 be
       -0.359847 0.2471945 -0.092111215 -0.44239566
000070 bb 52 75 3e 15 2a 83 be 81 c2 4a be 27 07 38 bd
       0.2395734 -0.25618044 -0.1980076 -0.044928696
000080 58 f6 b8 3d 90 5e 82 3e 5c 18 5d 3e 32 56 63 be
       0.09031361 0.2546277 0.21591324 -0.2220085
000090 bb 28 f3 3e ea 70 77 3e 31 f6 c0 3e 72 da 85 3e
       0.47492012 0.24164167 0.3768783 0.26143223
0000a0 a1 ff 25 3e 5e 54 80 bc 0c 76 b5 3c b8 8b 3b be
       0.16210796 -0.01566523 0.022151016 -0.18315017
0000b0 74 e0 de 3d 29 a3 14 bd 3f d4 4d be 5a de cc 3e
       0.10882655 -0.036288414 -0.20100497 0.4001339
0000c0 9d be 69 be 66 5b ea 3e 7d f5 07 3f 7e 1f 89 bb
       -0.2282662 0.45772856 0.5310896 -0.0041846624
0000d0 c7 76 7a bd 62 b5 fd bc 7c f0 c8 3e ce 37 4c bd
       -0.06114843 -0.03097028 0.39245975 -0.049857907
0000e0 a9 81 e1 3e 66 b4 c4 3d d8 41 a8 3a d5 70 2b 3e
       0.44044235 0.09604721 0.0012837006 0.16742261
0000f0 45 56 08 3f 45 4a a3 3d 87 fe a2 bd ce cb cb 3c
       0.53256637 0.0797315 -0.079587035 0.024877455
000100 c1 3a 92 3d 93 c5 1c be 5b 4a c6 3b 30 d7 a8 3e
       0.07140113 -0.15309744 0.0060513443 0.32976675
000110 7d 24 10 be a4 c7 5f 3c bc 3b 91 be 70 71 29 3e
       -0.14076419 0.013658438 -0.28365886 0.16547179
000120 2e 0e d9 be 76 26 3c bf c6 94 3d be f4 1e a5 be
       -0.4239363 -0.73496187 -0.18513784 -0.32250178
000130 0b 45 74 3e 16 eb 13 be d2 30 b4 3e 34 2f 3a 3d
       0.23854463 -0.14445147 0.35193497 0.045455173
000140 c5 e0 05 3e 2a 9e c1 3e 04 a9 5f 3d 97 1c 05 3e
       0.13074024 0.37815982 0.054604545 0.12999187
000150 4c c8 88 3e 05 06 eb 3d c2 20 73 3b e2 7e 07 3d
       0.26715314 0.114757575 0.0037098383 0.03307999
000160 a9 49 ed bd 21 82 cf bd 89 17 1f 3e de 01 12 be
       -0.11586315 -0.10132242 0.15536322 -0.14258525
000170 29 82 7b 3d a2 fe ca bd 0e 3e 3b be 84 10 b7 3e
       0.061403427 -0.099118486 -0.1828539 0.35754788
000180 a9 08 3f 3e 1b 0d 24 be 8d c3 4b 3d 86 43 1d 3e
       0.18655647 -0.16020624 0.04974704 0.1535779
000190 ee af 82 be 1f cf 7f 3e 2b d5 41 bd f0 74 2c bc
       -0.2552485 0.24981354 -0.047322433 -0.010525927
0001a0 81 ad df bd 0f 6c a1 3d 41 9f a5 3e 0e e4 ba be
       -0.10921765 0.07881939 0.32348064 -0.36502117
0001b0 f6 a7 e1 3d 34 b3 7a 3e b7 d2 b8 3c 9d 66 55 3e
       0.11018364 0.24482423 0.022561414 0.20839925
0001c0 2b 27 89 bd 46 4d d2 3d 07 57 82 3e 4c 1a 68 3e
       -0.06696924 0.10268645 0.25457022 0.22666281
0001d0 9a 03 50 bd ff be a8 be 90 22 23 3e 10 70 05 be
       -0.050784685 -0.32958218 0.15931153 -0.1303103
0001e0 2c 3a 15 3e 9c 8c 1e be 5d 73 91 3d 9a ed 8b 3e
       0.14572972 -0.15483326 0.07102082 0.27329713
0001f0 48 8f d1 bd ca 03 b3 bd 89 18 d5 3d 0d c3 ae bc
       -0.10232407 -0.08740957 0.1040507 -0.021333242
000200 f1 54 0c be b1 61 ab 3d e7 fa e2 3d 3f 4b 01 be
       -0.13704278 0.083682425 0.11083012 -0.1262636
000210 69 05 5d be 86 8b 65 bd 17 02 45 3e b6 7f 4d be
       -0.21584095 -0.056041263 0.19239078 -0.20068249
000220 a9 a1 a3 be 5a ba e7 3d 36 88 1c 3f 53 b2 7f be
       -0.31959274 0.113148406 0.6114534 -0.24970369
000230 ad 71 01 3e cc ca 18 3f b4 a0 25 3e 5c 69 7b 3e
       0.1264102 0.59684443 0.16174585 0.2455191
000240 d9 51 a4 3d 48 7f 36 3d 0e 2e a8 be 5d 19 99 3e
       0.08023424 0.04455498 -0.32847637 0.29902163
000250 93 be 1e 3e 22 17 d2 be 2a e3 9d 3d 30 bd 17 be
       0.15502386 -0.41033274 0.07709344 -0.14818263
000260 df 82 8e be d0 8c 0c 3e f1 9f 71 bd 8c 77 98 3d
       -0.27834222 0.1372559 -0.058990423 0.07444677
000270 c1 5d 8d 3d 2b 8d 74 bd 6b a0 a4 be 8d 82 82 3e
       0.06902648 -0.05970494 -0.3215364 0.25490227
000280 4c 86 90 3e 39 de 6b be a3 a7 ab 3e 72 91 2e 3f
       0.2822746 -0.2303399 0.33526334 0.6819068
000290 e6 6e 9a bd c3 6a 2f bd 52 0d 28 3e fe 3e bf 3d
       -0.075406834 -0.042826425 0.16411331 0.09338187
0002a0 3b 2c 1d 3d 73 26 8b 3c 7e dd f7 3e 75 5e 37 3d
       0.03837226 0.016986107 0.48411173 0.044767816
0002b0 03 96 c1 3e 31 8a c1 be 9b fd a9 3e b1 e2 0a 3f
       0.37809762 -0.37800744 0.33201298 0.54252154
0002c0 be 59 22 3d 06 c4 88 bd c0 a3 3f bc fb c6 14 3e
       0.039636366 -0.066780135 -0.011696756 0.1452903
0002d0 3a ce 95 be e0 5a 84 3e 9c 2a 51 3e 69 7e 4f be
       -0.292589 0.25850582 0.2042641 -0.20263065
0002e0 ae dc 04 3b 61 8f d0 3e e9 aa a0 3e 3d 64 43 be
       0.0020273137 0.4073439 0.31380394 -0.19081207
0002f0 57 5e 08 bd bc 8e 8f bd e9 b8 03 3f cf 1a 8a be
       -0.033293094 -0.07009646 0.51454026 -0.26973578
000300 79 98 8b 3e 73 32 b3 be 8a a3 2f be ca 4c b3 3d
       0.27264765 -0.34999427 -0.17152229 0.08754881
000310 71 73 29 3e 1a 7d f8 3c 24 a0 02 3f 34 f2 5f be
       0.16547944 0.03033309 0.51025605 -0.21869737
000320 fd 18 7e bb ec 57 9b 3e ab 6a cd 3c 63 25 bb 3e
       -0.0038772218 0.30340517 0.025075277 0.3655196
000330 47 c3 15 be 76 db f3 3d da 63 ed 3e 91 35 14 3f
       -0.14625274 0.11907093 0.46365243 0.57894236
000340 5a 12 1a 3e 47 a2 1c 3b dd 18 c1 3e e2 47 42 be
       0.15046063 0.0023900436 0.37714282 -0.18972734
000350 09 ac 88 3d 80 61 12 3e 61 a4 74 be ff 67 b9 be
       0.06673438 0.14295006 -0.2389083 -0.36212155
000360 d4 43 c8 3e d8 84 94 3e 92 be 42 3e 6c ad a4 be
       0.3911425 0.29007602 0.1901801 -0.3216356
000370 a6 93 62 3e b8 a8 b4 3d af fa 66 3d 45 48 16 3e
       0.22126636 0.08821243 0.056391414 0.14676006
000380 aa 54 b7 bd 18 35 d8 3e 74 dd 0e be 63 42 c4 be
       -0.08951695 0.42228007 -0.13951665 -0.383319
000390 1d 30 8d 3e 86 f8 81 3c f0 76 0f 3d 5c a1 90 be
       0.2757577 0.015865576 0.035025537 -0.28248107
0003a0 c8 84 4f 3e 87 a7 3d 3c 31 52 ea 3e 07 ec 8d 3e
       0.20265496 0.011575586 0.45765832 0.27719137
0003b0 67 ee df be 7e a5 e8 3d ad b6 45 be 7b 83 0a 3f
       -0.43736574 0.1135969 -0.19307967 0.54106873
0003c0 68 67 83 3e 0f 77 41 bd 7a ab a2 3e 18 00 89 3e
       0.2566483 -0.047232684 0.3177145 0.26757884
0003d0 b1 8a 19 be dd 59 b0 bc 76 1a b4 be 2d 95 a9 3d
       -0.14994313 -0.021527225 -0.35176438 0.08280406
0003e0 fa b0 18 be e3 ad 5f 3e 22 45 6a be 68 21 08 bf
       -0.14911261 0.21843676 -0.22877935 -0.53175974
0003f0 a7 e6 a0 3e cb 73 cd bd 9c 44 2e 3c 72 37 1c 3e
       0.31425974 -0.100318514 0.010636475 0.15255526

mlp_1/MLP_0_1/hidden_0_1/BiasAdd/ReadVariableOp:0 f4 [512]
000000 40 08 2c be 43 57 ba be 1e 2c 7c be 37 b9 c7 be
       -0.16800022 -0.363947 -0.24626204 -0.39008495
000010 d5 64 8d be 26 96 6e be fe c7 cf bd 8f e2 a8 be
       -0.2761599 -0.23299465 -0.10145567 -0.3298535
000020 9d 16 6d be 73 11 dc be cc 5e 8b be ed 63 1b be
       -0.23153158 -0.42982063 -0.27220762 -0.15174837
000030 ec fc 27 be 9a ff 50 be a6 66 53 be a1 ae 33 be
       -0.16405076 -0.20410004 -0.20644626 -0.17547084
000040 67 34 17 be 41 bd 82 be dc 64 93 be 5b 8b 5f be
       -0.14766084 -0.25535014 -0.28787887 -0.21830504
000050 73 50 10 be 61 c6 d9 be 0a 49 05 be 1a 17 ff bd
       -0.14093189 -0.42534164 -0.13016143 -0.12455578
000060 55 2e 9e be f9 39 8f be 8b 7b 7b be 7e c6 7c be
       -0.30894724 -0.27973917 -0.24558847 -0.24685094
000070 a9 08 48 be 67 65 78 be 82 0e b7 be e2 b4 a7 be
       -0.19534554 -0.24257432 -0.35753256 -0.3275519
000080 c5 36 f8 3d c2 59 3e be 05 c4 97 be 33 74 24 be
       0.121198215 -0.18588927 -0.2964174 -0.16059951
000090 0e f7 93 be 56 32 90 be 3c eb 8f be 41 d6 07 be
       -0.28899425 -0.28163403 -0.28109157 -0.13265325
0000a0 d3 0d b2 bd ad 7e 8f be d0 4f fe bd 06 4d 3d be
       -0.08694043 -0.28026333 -0.12417567 -0.18486413
0000b0 da 9f bd be 5d 95 ee bd 10 c2 91 be 95 b7 4c be
       -0.3703602 -0.116495825 -0.2846837 -0.19991906
0000c0 2d 2b 01 be c6 c9 93 be fb 40 42 be 31 20 28 be
       -0.12614127 -0.28864878 -0.189701 -0.1641853
0000d0 23 08 9d bd 09 d5 b6 be a1 4c 97 bd ff 94 66 be
       -0.076675676 -0.35709408 -0.07387663 -0.22517775
0000e0 10 a4 89 be e7 3e bc bd d1 39 c5 bd 5d 1f 7d be
       -0.26882982 -0.09191685 -0.09630168 -0.24718995
0000f0 88 1f 69 be c7 3b 8d be 7f 49 33 be 58 a5 8f be
       -0.22765934 -0.2758467 -0.17508505 -0.28055835
000100 8a dd 38 be 70 72 ef be eb be 95 be fa d9 a8 be
       -0.1805326 -0.46766996 -0.2924722 -0.32978803
000110 be cb aa be bc 21 9e be df ed 6a be 85 da bb be
       -0.33358568 -0.30885112 -0.22942303 -0.36690155
000120 e0 8f 80 be 07 b9 94 be 9a ff 89 be 4e 16 2f be
       -0.25109768 -0.29047415 -0.2695282 -0.17098352
000130 cd 69 56 be 9f 6e 9d bc 67 b3 fb be e2 02 8d be
       -0.20938797 -0.019217787 -0.4916031 -0.27541262
000140 25 6b 4c be a4 4c 75 be e0 d0 67 bd 71 cd 29 3d
       -0.19962747 -0.23955017 -0.056595683 0.04145569
000150 7d 58 b9 be ea 31 30 be 77 8d e6 bd c3 bf 98 bd
       -0.36200324 -0.1720654 -0.11257451 -0.07458451
000160 3a 6c 52 be d4 c9 15 be c0 fa 28 be 09 5d ab be
       -0.20549098 -0.14627773 -0.16501904 -0.33469418
000170 a5 db 33 be e9 8b 29 be 2f db be be 44 71 a3 be
       -0.17564256 -0.16557278 -0.372766 -0.31922352
000180 88 80 6b be a5 2f 7e be 32 b9 b6 be c7 aa 8d be
       -0.2299825 -0.24822862 -0.35688168 -0.27669355
000190 3e a7 10 be 24 9f 95 be f6 1c 0a be 11 3f af be
       -0.14126298 -0.29222977 -0.1348761 -0.34227803
0001a0 94 6d a6 be 44 5c 5d be da df 09 3d ca 5a 89 bc
       -0.32505476 -0.21617228 0.033660747 -0.016766924
0001b0 0e 8a 71 be c9 0f 9a be 2a 4b 27 be f1 08 8e be
       -0.2358782 -0.30090168 -0.16337267 -0.27741197
0001c0 9c f8 bc be b0 bf 8d be 4c 81 58 be 95 1e 3c be
       -0.36908424 -0.27685308 -0.21143073 -0.18371041
0001d0 13 18 52 be 10 1b 64 be f8 0d 3b be e4 87 37 be
       -0.20516996 -0.22275949 -0.18267047 -0.17922932
0001e0 20 d4 72 be 61 f9 d5 be 2e 75 5c be dd 0e c6 be
       -0.23713732 -0.41791824 -0.21529076 -0.38683215
0001f0 ab 9a a6 bd 90 ac 94 be d1 70 2e be b6 11 8c be
       -0.08134969 -0.29037905 -0.17035224 -0.27357262
000200 98 92 d6 bd cb e9 b2 be 8e c5 79 be d1 b3 ee bd
       -0.10477179 -0.34943995 -0.24391767 -0.11655391
000210 38 69 16 be 97 b4 60 be b1 b5 96 be 73 c9 4f be
       -0.14688575 -0.2194389 -0.29435495 -0.2029169
000220 b4 41 bc be c4 72 24 be ba a2 b6 be 55 c3 ec bd
       -0.36768878 -0.16059405 -0.35671026 -0.11560694
000230 1a 9a 98 be cb ef b2 be 62 79 98 bd 86 04 8a be
       -0.2980507 -0.34948573 -0.07445027 -0.26956576
000240 0b fe 5a be 33 a3 0d be 37 a6 99 be d9 51 90 be
       -0.21385972 -0.13831787 -0.30009624 -0.28187445
000250 50 e9 ab be 20 d2 b1 be b9 d7 65 be 4f f5 4a be
       -0.3357644 -0.34730625 -0.22445573 -0.1982014
000260 0a 06 d2 bd d1 2d 27 be 6c aa 8a be 3c bf 7b be
       -0.10255058 -0.16326071 -0.27083147 -0.24584669
000270 db 47 52 be a8 17 bf be c6 32 9c be ee 54 9b be
       -0.20535223 -0.37322736 -0.30507487 -0.30338234
000280 d0 00 2d be dd 3b ab be 54 19 13 be e5 32 72 bd
       -0.16894841 -0.3344411 -0.1436513 -0.059130568
000290 e3 12 b1 be 1d 5c 86 be 3f 55 89 be e5 61 94 bd
       -0.34584722 -0.26242152 -0.2682285 -0.072452344
0002a0 bf ea a0 be 8a d1 af be fa ca 8b be 4e 69 42 be
       -0.31429097 -0.34339553 -0.27303296 -0.18985483
0002b0 19 fc bb be a3 64 98 bc 1b f1 0d bf a5 d4 9e be
       -0.36715773 -0.018602675 -0.5544602 -0.3102161
0002c0 74 10 ae 3c b5 1e 9b be 5c 6a 58 be 24 15 a3 be
       0.02124808 -0.30296865 -0.21134323 -0.31852067
0002d0 55 cf d0 be 5b e9 b9 be 79 82 8f be 80 2d 9c be
       -0.40783182 -0.3631085 -0.2802923 -0.30503464
0002e0 fe 3c 5d be 9c 34 38 be c2 82 71 be 64 a9 58 be
       -0.21605298 -0.17988819 -0.23585036 -0.21158367
0002f0 ae 64 92 be 8c f3 f9 bd 78 08 5c be 55 26 6c be
       -0.28592438 -0.12204656 -0.21487606 -0.23061498
000300 05 fd 77 be aa 67 db be b6 ca 4a be d2 99 5d be
       -0.24217613 -0.42852527 -0.1980389 -0.21640709
000310 5b f9 8d be a5 4d 9f be fa fb 16 bf e1 5d 6c bc
       -0.27729306 -0.31113926 -0.58978236 -0.014426679
000320 75 28 fd be 4c b5 c8 be 77 60 6c be 94 fd 65 be
       -0.4944493 -0.3920082 -0.23083673 -0.22460014
000330 01 fc 94 be 82 68 9b be c4 04 8d be b5 3a 94 be
       -0.29098514 -0.3035317 -0.27542698 -0.2895104
000340 4d 6f ae bd f5 ae 5e be 9c 45 d4 bc ee 9c 57 be
       -0.08517323 -0.21746428 -0.025912099 -0.21055958
000350 17 da 87 be c4 bc cb be d5 ad 06 be a9 ce 3e be
       -0.26533577 -0.39792454 -0.13152249 -0.18633522
000360 7f 58 64 be 2e 86 e0 be 53 4a 5d be 5d f7 0c be
       -0.22299384 -0.4385237 -0.21610384 -0.13766237
000370 25 3d 7e be d3 e9 b1 be f2 0b ac be aa e1 c8 be
       -0.24828012 -0.34748706 -0.33602864 -0.39234668
000380 0b b1 a5 be e0 4a 42 be 74 67 8e be c2 f2 e1 bd
       -0.32361636 -0.18973875 -0.27813303 -0.110326305
000390 2a 21 44 be fa 49 d4 bd 7a 03 0a bf e6 e7 90 be
       -0.19153276 -0.103656724 -0.53911555 -0.28301924
0003a0 b6 49 d5 bd a6 65 8b be 04 d0 5a be ac 28 85 be
       -0.1041445 -0.2722599 -0.21368414 -0.26007593
0003b0 8a c3 a2 be 1b 0e 4a be e2 68 8a be 8c d8 a9 be
       -0.3178981 -0.19731943 -0.27033144 -0.33173025
0003c0 21 94 48 be 1a 87 59 be d9 e3 6d bd d7 03 c7 be
       -0.19587757 -0.21242943 -0.05807862 -0.38870117
0003d0 15 af 65 be 5e 06 98 be 73 2c 60 be 7f 1f 28 be
       -0.2243007 -0.29692358 -0.21891956 -0.16418265
0003e0 97 f7 8f be 62 e0 4b bd 91 6c 0a be 08 8a bb be
       -0.28118584 -0.049774535 -0.13517977 -0.36628747
0003f0 49 d5 b6 be 12 af 8e be 0c 55 2d be ad 4c 90 be
       -0.357096 -0.27867943 -0.16926974 -0.281835

ConstantFolding/mlp_1/truediv_recip:0 f4 [64]
000000 c1 c1 6a 40 a6 a4 dd 3f 62 5d b8 40 1c 24 fd 3e
       3.6680758 1.7315872 5.7613993 0.49441612
000010 e6 39 96 3f d0 ef 6a 3f 43 d7 d5 40 33 02 45 40
       1.1736419 0.91772175 6.682527 3.0782592
000020 f9 e3 a9 40 98 61 e9 3f 9f eb 11 40 7a 49 e7 3f
       5.3090787 1.8232908 2.2800062 1.8069298
000030 22 90 a4 40 ca d1 f5 40 c1 7f 6a 40 80 ac 68 40
       5.1425943 7.681859 3.6640475 3.6355286
000040 7b d3 0e 41 3d 8f 18 41 fc b2 0f 41 57 a2 58 40
       8.926631 9.53497 8.981197 3.3849084
000050 8f 96 c5 40 8b e5 42 41 6a 51 e5 40 cf c0 0b 41
       6.1746287 12.181041 7.1661882 8.734572
000060 77 b2 f4 40 53 81 bc 40 3c 98 04 41 77 38 dd 40
       7.6467853 5.8907866 8.287167 6.9131427
000070 5e fc 0c 3f 9e eb 0b 3f 17 bc 0c 3f 3d 98 0b 3f
       0.5507258 0.546564 0.549745 0.5452917
000080 5f 1b 0d 3f d8 1e 0c 3f 2b 3d 3f 3f fe 26 55 3f
       0.5511989 0.54734564 0.7470271 0.8326262
000090 0f 96 3e 3f 40 30 41 3f e1 66 34 3f 3e 73 40 3f
       0.7444772 0.7546425 0.7046948 0.75175846
0000a0 34 dc 53 3f 34 07 3f 3f 46 79 3e 3f 6e 6d 33 3f
       0.8275788 0.74620366 0.744038 0.7008885
0000b0 ea 27 14 40 29 57 19 40 41 d4 07 40 36 ac 05 40
       2.3149362 2.3959448 2.12233 2.088636
0000c0 04 9f 1d 40 f7 0d 1c 40 8e b7 1a 40 97 fe ff 3f
       2.4628305 2.4383523 2.4174533 1.999957
0000d0 2a 0b 14 40 41 1d 1f 40 34 6e 1d 40 0f 20 1b 40
       2.3131814 2.4861605 2.4598513 2.4238317
0000e0 de 32 16 40 e8 74 14 40 af c1 18 40 43 88 18 40
       2.3468547 2.3196354 2.3868215 2.3833168
0000f0 53 dc ac 3f 29 be ad 3f ab d2 bf 3f de d2 bf 3f
       1.3504738 1.3573657 1.4986166 1.4986227
