zeroth_policy.onnx (onnx, 809943 bytes, 10 tensors)

mlp_1/sub/ReadVariableOp:0 f4 [64]
0.06819416 0.077078424 -0.112902075 -0.2630977 0.040533423 -0.0059805717 -0.027862512 0.02288792
-0.9079015 0.0010380129 0.00093155814 0.0005842295 0.0015402648 0.00881123 0.0055988543 -0.01708524
-0.010502262 0.008016109 -0.047222547 0.09863859 -0.030119702 0.11461916 0.246884 0.061981436
0.19825703 -0.030441798 -0.11532435 -0.22799385 0.05149219 0.024664866 0.043527495 -0.12081429
0.021031946 -0.0026944238 -0.077987075 0.19203055 -0.049067806 -0.08947275 0.29835773 0.13671611
0.4508999 0.032282073 0.05693594 -0.2455638 -0.0021854239 -0.020942016 0.019959427 -0.019439394
0.027676204 0.00041266848 -0.08986712 0.063300855 -0.0022897432 -0.04334485 0.02905396 0.1182098
-0.16695221 -0.058991745 0.036146924 -0.008004723 -0.041579545 -0.084696986 0.0033066492 -0.0039399182
00000000: 61a9 8b3d 4bdb 9d3d 3439 e7bd beb4 86be
00000010: 6006 263d acf8 c3bb ec3f e4bc 727f bb3c
00000020: 3c6c 68bf ef0d 883a cf33 743a fa26 193a
00000030: b6e2 c93a fa5c 103c 9876 b73b 58f6 8bbc
00000040: ae11 2cbc ff55 033c 6e6c 41bd 0703 ca3d
00000050: 98bd f6bc 73bd ea3d 29cf 7c3e 3fe0 7d3d
00000060: e403 4b3e 1461 f9bc 2c2f ecbd 3877 69be
00000070: 7ae9 523d f90d ca3c e349 323d 7c6d f7bd
00000080: 304b ac3c ee94 30bb b0b7 9fbd a8a3 443e
00000090: 53fb 48bd 7d3d b7bd 58c2 983e 4fff 0b3e
000000a0: 5adc e63e 353a 043d a935 693d 1475 7bbe
000000b0: 5439 0fbb 978e abbc f481 a33c 5d3f 9fbc
000000c0: 35b9 e23c 6d5b d839 410c b8bd e1a3 813d
000000d0: 840f 16bb 5f8a 31bd 9202 ee3c fb17 f23d
000000e0: 85f5 2abe 54a1 71bd cc0e 143d 3e26 03bc
000000f0: 504f 2abd 9d75 adbd 5eb4 583b 6e1a 81bb

mlp_1/MLP_0_1/hidden_3_1/Cast/ReadVariableOp:0 f4 [128, 32]
0.12237153 0.053677432 0.03420816 -0.08604335 0.0714919 0.005645161 -0.022173615 0.13219406
0.04717203 0.16738422 -0.0047511053 0.09223217 -0.01224537 0.019644631 -0.15030473 -0.036061805
-0.1493288 -0.073020875 -0.01877059 0.037218973 -0.12328564 -0.2211254 0.09327704 -0.123010986
0.011137297 -0.009376049 -0.031563602 -0.055009436 0.030002298 -0.007524723 -0.08164618 -0.070590615
-0.057381116 -0.0394679 0.06337915 0.13023172 -0.044013064 -0.051630218 0.13986741 0.009231435
0.13983048 -0.0383935 0.08561872 -0.117009506 0.078836955 0.17184734 -0.15438306 -0.03555877
0.08394305 0.021457698 -0.07546966 -0.006327261 0.02875968 0.04638845 0.08896943 -0.074032225
-0.027169326 0.05837638 -0.0006904877 0.020740157 -0.10645349 0.06072895 0.08330861 0.16035977
0.16826995 -0.019569116 0.080623835 0.014302066 -0.09325051 -0.06262543 -0.036042158 -0.04342392
-0.16553748 0.09025038 0.09586801 0.20723808 0.03139798 -0.113896206 0.07201853 0.05898746
0.0033221503 0.019385314 -0.021145595 -0.04974395 -0.010781487 -0.009981887 0.07622131 -0.002279885
0.013434951 0.059757248 0.010336882 0.061803047 0.0128713455 0.07736409 0.086385526 -0.018479012
-0.17031202 0.08825946 -0.11242156 -0.20633826 -0.08391238 0.10746081 -0.06327064 -0.058970984
-0.069891505 -0.055383313 -0.114471234 0.021570137 -0.12606479 -0.13370623 0.101593696 0.08974996
-0.09307543 0.06382022 -0.0937543 0.06691875 0.015166784 -0.046121903 0.0043494357 -0.071820796
-0.045148246 -0.058761574 -0.07949893 0.06822326 -0.13508838 0.012705654 -0.037970748 0.13466632
-0.015487839 0.18073751 0.078463234 -0.0022726685 0.007888859 -0.07404577 0.19946793 0.10038739
0.073907115 -0.15159747 0.08143889 0.005742013 0.1029481 -0.0072211334 0.051883277 0.1305611
0.060404584 -0.037645094 0.023734435 -0.039256122 -0.050689984 0.019281834 0.011764291 -0.06299625
-0.0027794873 0.013130638 0.012689464 -0.0065704347 0.006739393 0.07652803 0.059424162 -0.06393525
-0.00031630357 -0.04860983 -0.06588725 0.0993359 -0.05261396 0.025946677 0.07694495 -0.17141996
-0.011683906 -0.031814836 -0.12074722 0.11988137 0.12191014 0.17898126 -0.12493598 -0.016098715
0.020782877 -0.07048566 0.13365866 0.10531372 0.13172635 0.09054241 0.09438524 0.009775218
0.07513821 0.043829136 0.23188896 -0.002304137 0.11308331 0.11444345 0.17863116 0.10090358
0.046759162 0.10699988 0.09045816 0.0030145857 0.035224482 0.041797135 0.15141653 0.03878149
0.08948469 0.079212114 -0.023556856 0.09985024 -0.00055717846 -0.07196459 0.17812149 -0.21061811
-0.022505034 -0.009536261 -0.060525823 -0.028335175 -0.0074038976 -0.014237009 -0.12149311 -0.068557635
-0.01690123 -0.10971183 -0.1111407 0.0009348546 -0.09529355 -0.1077148 -0.060201697 -0.011537883
0.030581461 -0.06610914 -0.040701736 0.075447984 -0.12115808 0.11667022 -0.10580302 -0.18724702
-0.03718627 -0.051736526 -0.05026088 -0.30033922 -0.02299906 -0.03362078 -0.13173774 0.11134095
-0.055574536 0.01232379 0.036511995 0.0260483 -0.026815182 0.015148627 -0.09504105 -0.07829645
-0.17173874 -0.11094014 -0.08088561 -0.0034141797 -0.11221924 -0.08085797 -0.062413055 -0.063589945
00000000: ed9d fa3d dedc 5b3d db1d 0c3d 7f37 b0bd
00000010: 586a 923d 0bfb b83b 71a5 b5bc e15d 073e
00000020: 7537 413d c566 2b3e 29af 9bbb 38e4 bc3d
00000030: cea0 48bc c7ed a03c 7ce9 19be 8bb5 13bd
00000040: a6e9 18be f88b 95bd c8c4 99bc ec72 183d
00000050: 2e7d fcbd b26e 62be 0808 bf3d 2fed fbbd
00000060: 3679 363c 009e 19bc d648 01bd 9351 61bd
00000070: 61c7 f53c f491 f6bb 1d36 a7bd d091 90bd
00000080: 7608 6bbd 18a9 21bd eecc 813d 775b 053e
00000090: 0b47 34bd 357a 53bd 6739 0f3e 723f 173c
000000a0: b92f 0f3e 8142 1dbd de58 af3d aea2 efbd
000000b0: 4575 a13d c0f8 2f3e 9816 1ebe 13a6 11bd
000000c0: 55ea ab3d 0ec8 af3c d68f 9abd ea54 cfbb
000000d0: 6c99 eb3c d101 3e3d 9b35 b63d 359e 97bd
000000e0: 3592 debc 121c 6f3d d801 35ba 43e7 a93c
000000f0: 4a04 dabd ebbe 783d b49d aa3d 5a35 243e
00000100: f54e 2c3e 694f a0bc 1c1e a53d 3653 6a3c
00000110: 20fa bebd c341 80bd f1a0 13bd 48dd 31bd
00000120: a882 29be 31d5 b83d 7256 c43d 3836 543e
00000130: 2b9b 003d 6a42 e9bd 737e 933d d69c 713d
00000140: 6fb8 593b f3cd 9e3c 8739 adbc 50c0 4bbd
00000150: d6a4 30bc 128b 23bc eb19 9c3d 206a 15bb
00000160: 451e 5c3c 04c4 743d 075c 293c 3125 7d3d
00000170: 56e2 523c 1071 9e3d e5ea b03d 4c61 97bc
00000180: 4666 2ebe 60c1 b43d 463d e6bd 564a 53be
00000190: 41da abbd 6a14 dc3d 0a94 81bd 8f8b 71bd
000001a0: 4723 8fbd 9dd9 62bd e56f eabd dbb3 b03c
000001b0: 2117 01be 49ea 08be 5b10 d03d d4ce b73d
000001c0: 559e bebd 2db4 823d 4102 c0bd b30c 893d
000001d0: 1a7e 783c 52ea 3cbd b685 8e3b c816 93bd
000001e0: 5eed 38bd faaf 70bd 56d0 a2bd a3b8 8b3d
000001f0: 9c54 0abe 602b 503c 3787 1bbd f8e5 093e
00000200: b4c0 7dbc 4113 393e 55b1 a03d 0df1 14bb
00000210: 4640 013c 4fa5 97bd 5241 4c3e e797 cd3d
00000220: 9d5c 973d 5e3c 1bbe 6fc9 a63d 7f27 bc3b
00000230: 74d6 d23d 429f ecbb 8f83 543d cfb1 053e
00000240: cc6a 773d be31 1abd b86e c23c 07cb 20bd
00000250: 4da0 4fbd f0f4 9d3c 03bf 403c 2e04 81bd
00000260: 0f28 36bb e321 573c 78e7 4f3c cd4c d7bb
00000270: 20d6 dc3b baba 9c3d c066 733d 7cf0 82bd
00000280: 8cd5 a5b9 1a1b 47bd e5ef 86bd 9f70 cb3d
00000290: bc81 57bd 208e d43c 5095 9d3d b788 2fbe
000002a0: db6d 3fbc 4650 02bd 524a f7bd 5d84 f53d
000002b0: 06ac f93d dd46 373e 6fde ffbd 74e1 83bc
000002c0: da40 aa3c c95a 90bd d1dd 083e b8ae d73d
000002d0: 46e3 063e 4d6e b93d 0c4d c13d 3c28 203c
000002e0: 10e2 993d 2e86 333d 4d74 6d3e 0101 17bb
000002f0: 3998 e73d 5461 ea3d 16eb 363e 89a6 ce3d
00000300: 8986 3f3d c122 db3d 2142 b93d 5b90 453b
00000310: 8c47 103d 7933 2b3d ef0c 1b3e 57d9 1e3d
00000320: c043 b73d f639 a23d 4ffa c0bc 487e cc3d
00000330: 9d0f 12ba 2c62 93bd 7b65 363e 46ac 57be
00000340: 7a5c b8bc fa3d 1cbc ede9 77bd 2b1f e8bc
00000350: 659c f2bb 5842 69bc 61d1 f8bd f267 8cbd
00000360: 7374 8abc 99b0 e0bd bc9d e3bd 0811 753a
00000370: 4429 c3bd 9499 dcbd 0e96 76bd 6409 3dbc
00000380: f985 fa3c 3b64 87bd ddb6 26bd 7984 9a3d
00000390: ba21 f8bd ccf0 ee3d 41af d8bd afbd 3fbe
000003a0: a150 18bd aee9 53bd 5ade 4dbd 10c6 99be
000003b0: 8668 bcbc f1b5 09bd 42e6 06be b906 e43d
000003c0: 20a2 63bd b9e9 493c 9a8d 153d 3f63 d53c
000003d0: 83ab dbbc f231 783c e2a4 c2bd e459 a0bd
000003e0: 48dc 2fbe 9634 e3bd 5ba7 a5bd 6ec0 5fbb
000003f0: 33d3 e5bd dd98 a5bd d5a4 7fbd 723b 82bd

mlp_1/MLP_0_1/hidden_3_1/BiasAdd/ReadVariableOp:0 f4 [32]
0.016846271 0.020391652 -0.034064222 -0.03591593 0.05514587 -0.033903494 0.002003314 0.018557802
0.010367358 -0.0037600216 -0.016738502 -0.0113765765 -0.12103456 -0.03353483 0.017478159 -0.02133862
-0.0537953 -0.051984146 -0.052417845 -0.07483053 -0.10607022 -0.03449784 -0.20745982 -0.17630193
-0.18078968 -0.17491528 -0.13788028 -0.20506607 -0.20313065 -0.1933341 -0.109401405 -0.071641
00000000: 3101 8a3c 650c a73c ed86 0bbd 951c 13bd
00000010: a3e0 613d 64de 0abd 084a 033b 8806 983c
00000020: dadb 293c b26a 76bb 2f1f 89bc d264 3abc
00000030: f8e0 f7bd d15b 09bd 5b2e 8f3c 54ce aebc
00000040: 7658 5cbd 54ed 54bd 18b4 56bd c040 99bd
00000050: 583b d9bd 9b4d 0dbd 5970 54be 7e88 34be
00000060: ee20 39be fe1c 33be 7d30 0dbe d7fc 51be
00000070: 7b01 50be 60f9 45be d80d e0bd 84b8 92bd

mlp_1/MLP_0_1/hidden_2_1/Cast/ReadVariableOp:0 f4 [256, 128]
-0.100191206 -0.08165703 0.017889496 -0.051125903 -0.024220029 -0.004975886 0.027478235 0.19688185
0.09262978 0.08048958 -0.04139707 0.095821925 -0.086402595 -0.12734061 -0.028107496 -0.0332834
-0.09958747 -0.02966448 -0.120819665 0.09165967 -0.03575838 -0.044969283 -0.10239125 0.04657655
-0.05505784 -0.08505037 -0.122077934 -0.0760749 0.07457949 -0.0734102 -0.14994933 0.010294994
-0.019800982 -0.15805312 0.07816935 -0.0060554813 -0.2020271 0.0018743471 -0.06700213 -0.080040276
0.06616245 -0.04819036 -0.027848871 0.074688606 0.016694207 0.110276274 -0.043084726 -0.07333673
0.04398609 -0.05430867 -0.20600156 -0.045633845 0.03021647 -0.13292183 -0.05950632 -0.021250721
-0.029522046 -0.10903387 0.066310026 -0.11788822 0.14215854 -0.027121324 -0.026734507 0.0026751165
-0.0077845966 0.050743196 -0.17468165 0.019612065 -0.03233731 -0.09174954 0.06294378 0.017569318
0.08550972 -0.05419775 -0.15538906 -0.06292106 0.038796082 0.105934694 0.05825386 0.10145647
0.09180356 -0.07765141 -0.031835202 0.038561273 0.13206688 0.15430337 -0.11426587 0.072353765
0.031922918 0.005590714 -0.06080302 0.05665299 -0.08809436 -0.056967176 -0.037925757 -0.0140000805
-0.10747397 -0.006965356 0.11791276 -0.16994864 0.048584066 0.06860561 6.870745e-06 -0.20996591
0.13614936 -0.090353005 -0.02871625 -0.015551141 -0.21764375 -0.02089806 -0.10728209 0.025374267
0.017671827 -0.02594184 -0.10069999 0.10779617 -0.14986455 0.038794123 -0.10731654 -0.10749946
0.14930302 -0.044418506 -0.11325837 -0.24435201 -0.13205568 0.027051864 -0.072481014 -0.1571514
-0.07523097 -0.047835078 -0.036772527 0.1261346 0.07402964 0.10106272 0.09079735 -0.08294677
-0.024643602 -0.1043129 0.055544697 -0.09215857 0.098410815 0.05151054 0.025621338 -0.24964243
-0.016385503 -0.020125749 0.10486004 0.033087138 -0.07604534 -0.12237539 -0.04121069 -0.047690973
0.03802616 -0.12147505 0.008330664 -0.09620382 0.038369816 0.10394787 -0.14122139 0.08618391
-0.07388705 0.10319069 0.0015749396 -0.014799501 0.01582464 -0.035298385 -0.11100978 0.0740556
-0.14188685 0.03251203 0.10549524 -0.0020239984 0.021191768 0.09082986 -0.08255028 -0.09074204
-0.010061068 0.15250908 0.113574095 -0.08953173 -0.0004383247 -0.022618728 -0.124183156 0.024016222
-0.013197138 -0.032671988 0.13774884 -0.06398177 0.0058883526 -0.06912793 0.017995471 0.0368736
-0.043016993 -0.15956885 -0.0035976032 0.1531671 -0.035952445 -0.12922022 0.0061901067 0.0781247
-0.0053006965 0.107631326 -0.07874462 0.03399506 0.074456185 -0.07333641 -0.0274998 -0.16678172
-0.030555097 0.034633584 0.014754077 0.102499194 -0.13436995 -0.12524678 0.08155021 -0.017637352
-0.0017399476 -0.110841654 -0.021745829 0.02397612 0.062855504 -0.06545785 -0.07788806 -0.005048369
-0.018492833 -0.015499121 -0.14923203 0.07321325 -0.024579326 -0.03047989 0.033854753 0.027298898
-0.08758258 0.094404206 -0.058110073 -0.15967658 -0.0056691654 -0.04751705 0.012270095 -0.12684596
0.047078 0.1846287 0.048532825 0.11748296 0.063354775 0.12356327 0.08214472 0.04871412
-0.011627613 0.0063915667 0.11632189 -0.020480532 0.074189 0.051464655 0.080726594 0.015354378
00000000: 0c31 cdbd cd3b a7bd fe8c 923c 6569 51bd
00000010: 1569 c6bc c20c a3bb 091a e13c 659b 493e
00000020: afb4 bd3d b9d7 a43d f98f 29bd 493e c43d
00000030: d8f3 b0bd 9465 02be b141 e6bc 2d54 08bd
00000040: 84f4 cbbd ec02 f3bc 4d70 f7bd 11b8 bb3d
00000050: 6177 12bd b631 38bd 81b2 d1bd 0dc7 3e3d
00000060: 5484 61bd e32e aebd ff03 fabd 28cd 9bbd
00000070: 22bd 983d 1658 96bd 518c 19be 56ac 283c
00000080: ab35 a2bc add8 21be 4117 a03d 0f6d c6bb
00000090: 31e0 4ebe a7ac f53a 6a38 89bd 28ec a3bd
000000a0: 2e80 873d 4163 45bd 5123 e4bc 57f6 983d
000000b0: 4ac2 883c 87d8 e13d 9c79 30bd 9131 96bd
000000c0: c22a 343d c572 5ebd 13f2 52be 8eea 3abd
000000d0: 8888 f73c a91c 08be e6bc 73bd fe15 aebc
000000e0: 38d8 f1bc 264d dfbd 8dcd 873d 616f f1bd
000000f0: 0292 113e 8a2d debc 5302 dbbc 0251 2f3b
00000100: ee15 ffbb 19d8 4f3d bfdf 32be 7ba9 a03c
00000110: 2174 04bd 2fe7 bbbd abe8 803d 88ed 8f3c
00000120: b81f af3d 76fe 5dbd 4f1e 1fbe c2dc 80bd
00000130: a4e8 1e3d 4af4 d83d 999b 6e3d 69c8 cf3d
00000140: 8103 bc3d b407 9fbd a165 02bd 6df2 1d3d
00000150: 8a3c 073e b401 1e3e 3904 eabd 362e 943d
00000160: 9bc1 023d 4f32 b73b 960c 79bd f70c 683d
00000170: d16a b4bd 6a56 69bd 0a58 1bbd 9860 65bc
00000180: 501b dcbd a43d e4bb 3f7c f13d 0407 2ebe
00000190: 1600 473d 1981 8c3d 408b e636 4e01 57be
000001a0: bd6a 0b3e ff0a b9bd 573e ebbc 37ca 7ebc
000001b0: 01de 5ebe 6932 abbc b6b6 dbbd b2dd cf3c
000001c0: 82c4 903c fb83 d4bc cc3b cebd 3dc4 dc3d
000001d0: 1876 19be 96e6 1e3d c6c8 dbbd ad28 dcbd
000001e0: e4e2 183e 2ef0 35bd 01f4 e7bd 6a37 7abe
000001f0: 9b39 07be df9b dd3c ed70 94bd 4cec 20be
00000200: b212 9abd b7ee 43bd ca9e 16bd 6e29 013e
00000210: da9c 973d f9f9 ce3d f6f3 b93d ffdf a9bd
00000220: 61e1 c9bc 00a2 d5bd d682 633d a2bd bcbd
00000230: 9c8b c93d b7fc 523d d7e3 d13c 44a2 7fbe
00000240: e43a 86bc c1de a4bc dcc0 d63d 6186 073d
00000250: a9bd 9bbd f39f fabd 8acc 28bd 9c57 43bd
00000260: 52c1 1b3d e9c7 f8bd 567d 083c 8206 c5bd
00000270: ab29 1d3d 9fe2 d43d 579c 10be 3181 b03d
00000280: 1852 97bd a455 d33d 346e ce3a 9b79 72bc
00000290: ada2 813c 0a95 10bd 1859 e3bd 76aa 973d
000002a0: c94a 11be 562b 053d e30d d83d 0fa5 04bb
000002b0: 5c9a ad3c 0105 ba3d 1f10 a9bd f6d6 b9bd
000002c0: 2ed7 24bc 572b 1c3e 8999 e83d 695c b7bd
000002d0: f2ce e5b9 e94a b9bc bd53 febd abbd c43c
000002e0: cf38 58bc 10d3 05bd 080e 0d3e e008 83bd
000002f0: 15f3 c03b f292 8dbd 3d6b 933c c608 173d
00000300: 9632 30bd 0466 23be c4c5 6bbb d6d7 1c3e
00000310: df42 13bd 4e52 04be 61d6 ca3b d8ff 9f3d
00000320: 77b1 adbb d06d dc3d dc44 a1bd 673e 0b3d
00000330: 7c7c 983d 6631 96bd 4347 e1bc d4c8 2abe
00000340: af4e fabc f2db 0d3d 16bb 713c 19eb d13d
00000350: 4798 09be b140 00be cc03 a73d 357c 90bc
00000360: f40e e4ba f300 e3bd 4f24 b2bc 9169 c43c
00000370: 63ba 803d c40e 86bd c683 9fbd ca6c a5bb
00000380: 487e 97bc 06f0 7dbc 48d0 18be d4f0 953d
00000390: 955a c9bc f6b0 f9bc 48ab 0a3d f0a1 df3c
000003a0: 7f5e b3bd fe56 c13d d404 6ebd 4282 23be
000003b0: 68c4 b9bb 3da1 42bd 8208 493c e8e3 01be
000003c0: dcd4 403d 4e0f 3d3e 5bca 463d e89a f03d
000003d0: 26c0 813d bd0e fd3d 7e3b a83d 7588 473d
000003e0: be81 3ebc 5970 d13b 2c3a ee3d cac6 a7bc
000003f0: 67f0 973d 9acc 523d fc53 a53d ee90 7b3c

mlp_1/MLP_0_1/hidden_2_1/BiasAdd/ReadVariableOp:0 f4 [128]
0.019378431 -0.090958774 -0.12110352 0.039142583 -0.10816078 -0.13090882 0.089163825 0.09231891
-0.016396992 -0.030801717 -0.036577914 -0.06685585 -0.07970385 -0.045770455 -0.06765743 0.014467333
0.01048047 -0.0010647629 0.011203512 0.085710675 -0.15385173 -0.01669109 0.043498285 -0.009261707
-0.008279925 -0.088808194 -0.04664918 -0.067997366 0.06961009 0.072854124 -0.023744768 -0.058249854
0.032802474 0.020087061 -0.07722018 -0.13181254 -0.03507769 -0.117864944 -0.034572635 -0.06616828
-0.10494243 -0.02271133 0.008488564 -0.05694565 0.029371908 -0.04937068 0.016875867 -0.02588754
-0.12829767 0.015642371 -0.022976806 -0.048691247 0.048962396 -0.15156974 -0.04970156 -0.08462723
0.00068837096 0.00499022 -0.12930386 -0.03442355 -0.006276221 -0.06698168 -0.20034227 -0.11722793
-0.25410965 -0.0047984 -0.11536217 0.03365889 -0.049740307 -0.15676887 0.0174883 -0.05943911
-0.14198656 -0.06356636 -0.08122721 -0.082177415 -0.09300011 -0.14125046 0.008064273 0.014885969
-0.041396525 0.017643977 0.06869081 -0.2234367 0.017329663 -0.060409322 0.012302498 -0.15191352
-0.25123385 0.072167695 -0.087225944 -0.13426346 0.006246585 -0.013681422 -0.05079909 -0.020593
-0.08729281 -0.023265513 -0.13355869 -0.006565614 0.018759372 -0.049610503 -0.0720923 -0.053595103
0.02539291 0.027019646 0.03353016 -0.007654191 0.096070714 0.07920775 -0.027267508 -0.076472044
0.051107183 0.024557061 -0.01614879 -0.02502704 -0.028662473 -0.092064805 0.108859345 0.02177513
0.023289148 -0.10087158 -0.10702491 -0.009004572 -0.011327332 0.02004419 0.0029395334 0.024704529
00000000: 84bf 9e3c 9848 babd 1f05 f8bd f953 203d
00000010: 6683 ddbd f60c 06be 869b b63d b211 bd3d
00000020: fc52 86bc e253 fcbc b9d2 15bd b8eb 88bd
00000030: c63b a3bd cd79 3bbd fb8f 8abd 6508 6d3c
00000040: 47b6 2b3c 848f 8bba ef8e 373c 1489 af3d
00000050: 4f8b 1dbe c1bb 88bc 422b 323d 6abe 17bc
00000060: 86a8 07bc 12e1 b5bd 3613 3fbd 3442 8bbd
00000070: bc8f 8e3d 8b34 953d 6384 c2bc 6697 6ebd
00000080: e35b 063d 9f8d a43c 9d25 9ebd def9 06be
00000090: a0ad 0fbd 2d63 f1bd 099c 0dbd 3c83 87bd
000000a0: 0fec d6bd 1c0d babc 9e13 0b3c d83f 69bd
000000b0: 5b9d f03c e938 4abd 423f 8a3c 1b12 d4bc
000000c0: 7760 03be 6e24 803c db39 bcbc 7970 47bd
000000d0: cb8c 483d 1935 1bbe dd93 4bbd 0b51 adbd
000000e0: cb73 343a 0085 a33b 3b68 04be b5ff 0cbd
000000f0: c2a8 cdbb b12d 89bd 8626 4dbe 3215 f0bd
00000100: a91a 82be e63b 9dbb 0043 ecbd e7dd 093d
00000110: 7ebc 4bbd 0588 20be a043 8f3c 6d76 73bd
00000120: ed64 11be 142f 82bd 745a a6bd a24c a8bd
00000130: d776 bebd f6a3 10be 0320 043c 48e4 733c
00000140: 678f 29bd 1a8a 903c c4ad 8c3d 97cc 64be
00000150: f0f6 8d3c c46f 77bd 6b90 493c 388f 1bbe
00000160: b9a1 80be a8cc 933d 84a3 b2bd 5c7c 09be
00000170: 27b0 cc3b 0b28 60bc b512 50bd a7b2 a8bc
00000180: 93c6 b2bd 5197 bebc 9cc3 08be 5d24 d7bb
00000190: 41ad 993c 6234 4bbd 21a5 93bd 8a86 5bbd
000001a0: cb04 d03c 4e58 dd3c ec56 093d 02d0 fabb
000001b0: b9c0 c43d ac37 a23d 1c60 dfbc 609d 9cbd
000001c0: c455 513d e42b c93c 784a 84bc 8205 cdbc
000001d0: 90cd eabc 798c bcbd a6f1 de3d c261 b23c
000001e0: e2c8 be3c c295 cebd e02f dbbd ea87 13bc
000001f0: 4696 39bc b733 a43c 30a5 403b 2761 ca3c

mlp_1/MLP_0_1/hidden_1_1/Cast/ReadVariableOp:0 f4 [512, 256]
0.09031751 -0.020401653 -0.06803376 0.082596876 -0.10083275 0.005748508 0.061017822 -0.026849814
-0.0053694877 0.095966525 -0.012666696 0.02271422 -0.053301077 -0.17492504 0.059904855 0.0032732093
0.010083422 0.035620436 0.08991115 -0.09901138 -0.09926722 -0.012537886 0.03073525 -0.06310264
-0.048883494 0.021452278 -0.089377336 -0.010202891 0.031144846 -0.09857587 0.035212148 -0.039050706
-0.08767562 -0.004270969 0.010572806 0.030117517 0.073021516 -0.06752663 0.023750093 0.020659912
0.007171121 -0.08677155 -0.013343597 -0.14572233 -0.04142544 -0.056489006 -0.12073899 -0.025926063
-0.11837327 0.007859385 -0.12532507 0.03926769 -0.11034488 -0.12078328 -0.076908104 0.14972231
0.052497867 0.029635867 -0.05143944 -0.061822988 0.075584404 -0.032997508 -0.09018775 -0.112642124
-0.13005184 0.010617376 0.010579555 -0.09944605 -0.12127056 0.019014088 0.07098669 0.03513244
-0.031006461 0.016788702 -0.12718637 -0.019429008 -0.09986957 0.07527368 -0.13215116 0.0074908216
-0.116134405 -0.14665875 -0.016018244 -0.03280997 0.020659562 -0.033223238 -0.050677814 -0.12551568
0.03745405 0.07133948 0.012811091 -0.03595221 0.02179347 -0.1093795 -0.07465117 0.02348551
0.017768867 -0.12676285 0.0016847141 0.007418113 -0.15557012 0.0040831957 -0.11390952 0.08667304
-0.016322035 -0.035206165 -0.10215876 -0.13287988 0.08008351 -0.047875814 0.04864613 -0.30101147
-0.0047387164 -0.12532833 -0.048784204 0.025876867 0.02879336 -0.027410915 0.11491889 0.087345526
-0.062996194 -0.05350014 0.10802615 0.017899472 -0.026935156 -0.0049423296 0.07800628 -0.14700468
-0.014396386 -0.028139556 0.039042175 0.018120337 0.06708784 -0.2365938 0.0060136435 0.033642214
-0.06959349 -0.03003137 0.004382043 0.052376945 6.721236e-05 -0.0507231 -0.04136006 -0.21749397
0.049520105 -0.08619083 -0.031185701 0.0662746 -0.036702707 -0.053949118 0.10508832 -0.08334467
0.06735133 0.033931613 0.062812015 -0.07875335 -0.0012741794 -0.03245086 -0.06003839 -0.026297372
-0.10208506 -0.017205993 -0.11284802 0.06400531 0.15934345 -0.018077679 -0.13202749 -0.104643755
0.12789764 0.025681408 -0.06710865 -0.20249303 0.0032387031 -0.02221202 -0.09860419 0.04618678
-0.0039399797 -0.10403057 -0.06693781 0.05447258 -0.090904 0.039937466 -0.0064136824 -0.030936358
-0.050883524 -0.005560031 0.023501398 -0.07425248 -0.08000333 -0.17392124 0.09878332 -0.06836016
0.13000673 0.077098854 -0.0657216 0.07647833 -0.15637991 0.04496749 0.1396045 -0.09670504
-0.005209708 0.036337893 -0.17835815 0.0362783 0.06287896 -0.08072593 0.10100497 0.06295412
0.0022531084 0.008337666 0.07217877 -0.037221953 -0.10571699 -0.0063565727 0.04451582 -0.06552956
-0.123976685 -0.22427051 -0.04090084 0.0549024 -0.034294955 -0.12163407 -0.08593614 -0.10892189
-0.02909727 -0.06016823 0.036334313 0.0745805 -0.037132703 0.020296596 0.021537634 -0.027749987
0.11756349 0.033367686 -0.10140031 0.085899934 0.12242339 -0.06674305 -0.13361126 -0.037081808
0.065803885 0.083577804 -0.08366226 -0.045939952 -0.023754211 0.036062192 -0.05272319 -0.058389865
0.10416996 0.007737498 -0.006216582 -0.041258812 0.10203126 0.008889287 -0.1751108 -0.050186563
00000000: 63f8 b83d 5e21 a7bc 4955 8bbd 8d28 a93d
00000010: 6781 cebd fb5d bc3b d3ed 793d 24f4 dbbc
00000020: 87f2 afbb 198a c43d f987 4fbc 2c13 ba3c
00000030: 3b52 5abd 8d1f 33be cb5e 753d 5783 563b
00000040: f034 253c bce6 113d 5623 b83d 7ac6 cabd
00000050: 9d4c cbbd b56b 4dbc 7ec8 fb3c f53b 81bd
00000060: 0f3a 48bd b0bc af3c 770b b7bd 072a 27bc
00000070: 7a23 ff3c 25e2 c9bd 9d3a 103d a2f3 1fbd
00000080: 478f b3bd 7cf3 8bbb 9039 2d3c 03b9 f63c
00000090: 4e8c 953d 674b 8abd 8e8f c23c fa3e a93c
000000a0: b9fb ea3b 48b5 b1bd 1a9f 5abc 3c38 15be
000000b0: b9ad 29bd 0461 67bd 0146 f7bd e562 d4bc
000000c0: af6d f2bd a6c4 003c 3755 00be 28d7 203d
000000d0: 7ffc e1bd 395d f7bd ff81 9dbd ce50 193e
000000e0: 0108 573d ebc6 f23c 2ab2 52bd 1a3a 7dbd
000000f0: ffcb 9a3d 6528 07bd 5bb4 b8bd eab0 e6bd
00000100: 4f2c 05be 81f4 2d3c df55 2d3c 5faa cbbd
00000110: b35c f8bd 6fc3 9b3c 7861 913d 09e7 0f3d
00000120: 4301 febc 7688 893c 253d 02be 9529 9fbc
00000130: 6b88 ccbd 1629 9a3d a252 07be 9175 f53b
00000140: e0d7 edbd b62d 16be b138 83bc bf63 06bd
00000150: 3e3e a93c 1715 08bd 8a93 4fbd 2f87 00be
00000160: 6b69 193d 6f1a 923d 9ce5 513c a042 13bd
00000170: 3888 b23c 5c02 e0bd b6e2 98bd af64 c03c
00000180: 0490 913c 1fce 01be a0d1 dc3a a413 f33b
00000190: c64d 1fbe 54cc 853b 6549 e9bd a381 b13d
000001a0: cab5 85bc 5734 10bd 9d38 d1bd aa11 08be
000001b0: d302 a43d 6e19 44bd 2a41 473d 2d1e 9abe
000001c0: 3c47 9bbb 1256 00be f2d1 47bd b9fb d33c
000001d0: 0de0 eb3c db8c e0bc 985a eb3d 36e2 b23d
000001e0: 2604 81bd f622 5bbd d03c dd3d eaa1 923c
000001f0: 1ea7 dcbc 44f3 a1bb c2c1 9f3d 6588 16be
00000200: d2de 6bbc ed84 e6bc b0ea 1f3d 1a71 943c
00000210: 5965 893d a545 72be 190e c53b 6bcc 093d
00000220: 0887 8ebd 5904 f6bc 3e97 8f3b 3589 563d
00000230: 5cf4 8c38 06c3 4fbd 2b69 29bd bdb6 5ebe
00000240: 98d5 4a3d d184 b0bd 2879 ffbc faba 873d
00000250: 9455 16bd c0f9 5cbd 8c38 d73d 9cb0 aabd
00000260: 7eef 893d e0fb 0a3d 96a3 803d 7049 a1bd
00000270: 5e02 a7ba 31eb 04bd d1ea 75bd 966d d7bc
00000280: f911 d1bd 95f3 8cbc dd1c e7bd 3715 833d
00000290: ee2a 233e a417 94bc 3732 07be 774f d6bd
000002a0: 99f7 023e d161 d23c 4370 89bd 555a 4fbe
000002b0: 6c40 543b fbf5 b5bc fef0 c9bd 592e 3d3d
000002c0: f21a 81bb fb0d d5bd b116 89bd a41e 5f3d
000002d0: e02b babd 7895 233d de29 d2bb 3f6e fdbc
000002e0: 3e6b 50bd ec30 b6bb 0186 c03c af11 98bd
000002f0: c9d8 a3bd 6918 32be e94e ca3d 6900 8cbd
00000300: 7c20 053e 01e6 9d3d 0c99 86bd aca0 9c3d
00000310: 0e22 20be d52f 383d 7bf4 0e3e 4b0d c6bd
00000320: 33b6 aabb 0bd7 143d 85a3 36be 8e98 143d
00000330: afc6 803d a353 a5bd b2db ce3d 17ee 803d
00000340: e3a8 133b b59a 083c 77d2 933d 0c76 18bd
00000350: 2682 d8bd cc4a d0bb 3856 363d 5d34 86bd
00000360: 7de7 fdbd 2ba7 65be a487 27bd 57e1 603d
00000370: de78 0cbd 491b f9bd 49ff afbd 7112 dfbd
00000380: 665d eebc f672 76bd 4ad3 143d a9bd 983d
00000390: 7618 18bd 0c45 a63c b16f b03c f153 e3bc
000003a0: 21c5 f03d 8eac 083d f7aa cfbd 4eec af3d
000003b0: 1db9 fa3d 95b0 88bd 64d1 08be 18e3 17bd
000003c0: 30c4 863d d72a ab3d 1e57 abbd 882b 3cbd
000003d0: 3198 c2bc f3b5 133d 46f4 57bd 362a 6fbd
000003e0: 0f57 d53d d68a fd3b 78b4 cbbb 00ff 28bd
000003f0: c4f5 d03d 5fa4 113c 3f50 33be 6d90 4dbd

mlp_1/MLP_0_1/hidden_1_1/BiasAdd/ReadVariableOp:0 f4 [256]
-0.072568595 -0.0071237986 -0.013476796 -0.0926399 -0.004316867 -0.052951325 0.08733464 -0.055918913
-0.10469709 -0.081440516 0.07172996 -0.012621178 -0.06536838 -0.036189172 -0.05407899 -0.04678676
-0.010341841 -0.16281223 0.052061476 0.010697399 -0.018604022 -0.14299327 -0.010292591 -0.0141306035
0.038716543 -0.039688494 -0.071055405 0.012899682 -0.012831173 -0.0054212445 -0.025388667 -0.07382986
-0.021586193 -0.019988734 -0.03744975 -0.037930474 -0.032298304 -0.0472764 -0.04879763 -0.05370155
-0.10658956 0.03036045 -0.04044568 0.0026101188 -0.07759628 0.016800936 0.0319686 -0.055724766
-0.057295248 0.028095465 -0.07089933 0.027374191 -0.003713627 -0.1279311 -0.065379836 -0.015977506
-0.076699935 0.00074094214 0.033828694 -0.14474715 -0.037564456 0.048540592 -0.122609444 -0.00911399
-0.004982125 -0.013444407 -0.13837959 0.013856866 -0.08471913 -0.019852934 0.0016164156 -0.07835915
-0.02793956 -0.050220102 -0.05308147 -0.057853986 -0.03207516 0.03394711 -0.06720514 -0.11171453
-0.012425498 -0.118323706 -0.119574964 -0.00095510547 -0.008608375 -0.0016927638 -0.06411301 -0.0106024025
-0.14710602 -0.06489591 -0.03775831 -0.01102519 -0.17412207 0.0026689859 0.00086536433 -0.04210772
-0.03095432 -0.07963922 -0.08463226 -0.08162993 -0.06546937 -0.06444874 -0.24515373 -0.05578909
-0.049281985 -0.021615602 -0.08102963 -0.07835107 0.022527767 0.013735638 -0.09722112 -0.16879374
-0.010352341 0.013899283 -0.05288632 0.025600526 -0.14309078 -0.0740238 -0.004687968 -0.1105119
-0.19312249 -0.16385739 -0.05055457 -0.010911861 -0.10945902 -0.122687675 -0.13526073 -0.11644034
-0.11407352 0.047120485 0.017295301 -0.05462739 0.03232958 -0.11808634 -0.15259719 -0.14941132
-0.13511327 -0.07295163 0.042749826 -0.052664515 -0.10279494 -0.09999698 -0.0009756896 -0.060083196
-0.0044136904 -0.0007426265 -0.08141921 0.03904128 -0.11270784 -0.080470555 0.00083388947 -0.03819969
-0.041424666 -0.023713415 -0.1361949 -0.09938472 -0.010968243 -0.008113655 0.019181753 -0.11362383
-0.09087986 0.043415867 -0.02484869 -0.052055378 -0.0737133 0.006236971 -0.14563711 -0.039119672
-0.022469454 -0.038897157 -0.062118717 -0.035888962 -0.117304094 -0.15060164 -0.03714076 0.012753348
0.01769923 0.02437427 -0.074791156 -0.13542631 -0.030743191 0.037999034 -0.047002066 -0.009343965
-0.07637023 -0.14579554 -0.079374656 -0.015161531 -0.025106048 0.00029937984 0.029209275 -0.12498388
-0.02609444 -0.06669742 -0.13401598 -0.034602854 -0.013043739 0.0030920126 -0.03212186 -0.103641935
-0.088557124 -0.08610906 0.0319243 0.04772019 -0.035792295 -0.051833186 -0.026072625 -0.1167986
-0.11475936 -0.053999234 -0.015144288 -0.078840055 -0.14393881 0.0037269935 -0.038769394 -0.07767933
-0.09933967 -0.08509017 -0.09634429 -0.15202662 -0.018010205 -0.13073641 -0.06424388 -0.07371322
-0.019717425 -0.0013250192 -0.07889157 -0.0049791117 -0.013849424 -0.07704408 -0.06948352 0.022090446
-0.11510133 -0.031201296 -0.044402804 -0.06473015 -0.062546074 0.031711206 -0.09864625 0.02149038
-0.022949232 -0.1557302 -0.04063876 0.05891586 -0.07641266 -0.11959008 -0.036432933 -0.028098624
-0.08581112 -0.07855669 -0.005362719 -0.05523732 0.012596725 0.035935532 -0.09577774 -0.061341546
00000000: d89e 94bd c16e e9bb c8cd 5cbc fdb9 bdbd
00000010: 8174 8dbb 7de3 58bd 81dc b23d 3b0b 65bd
00000020: 6e6b d6bd 49ca a6bd 28e7 923d 0fc9 4ebc
00000030: dbdf 85bd 193b 14bd ee81 5dbd 79a3 3fbd
00000040: d370 29bc 40b8 26be 6a3e 553d 2544 2f3c
00000050: 7667 98bc d46c 12be 41a2 28bc 0c84 67bc
00000060: 3d95 1e3d 6790 22bd 7f85 91bd 3059 533c
00000070: d739 52bc b2a4 b1bb e5fb cfbc 1c34 97bd
00000080: 87d5 b0bc 6abf a3bc e964 19bd fc5c 1bbd
00000090: 3a4b 04bd e6a4 41bd 06e0 47bd 28f6 5bbd
000000a0: a14b dabd 7ab6 f83c 5faa 25bd 870e 2b3b
000000b0: ccea 9ebd 1ea2 893c 82f1 023d a73f 64bd
000000c0: 6cae 6abd 7628 e63c ab33 91bd d73f e03c
000000d0: 5360 73bb 5f00 03be dde5 85bd 42e3 82bc
000000e0: db14 9dbd c93b 423a f58f 0a3d 9938 14be
000000f0: 30dd 19bd 80d2 463d a91a fbbd d852 15bc
00000100: 1841 a3bb ee45 5cbc 61b3 0dbe e907 633c
00000110: 3981 adbd 9fa2 a2bc e8dd d33a c37a a0bd
00000120: 81e1 e4bc 98b3 4dbd f56b 59bd 4df8 6cbd
00000130: 3e61 03bd 200c 0b3d d9a2 89bd 96ca e4bd
00000140: 5194 4bbc b353 f2bd b8e3 f4bd 0b60 7aba
00000150: 240a 0dbc badf ddba af4d 83bd b3b5 2dbc
00000160: f6a2 16be 26e8 84bd 75a8 1abd 00a3 34bc
00000170: 0e4d 32be 27ea 2e3b 9ed9 623a 2579 2cbd
00000180: ea93 fdbc e319 a3bd ae53 adbd 982d a7bd
00000190: ce14 86bd b3fd 83bd 9409 7bbe 1a83 64bd
000001a0: e8db 49bd 3413 b1bc ddf2 a5bd 8776 a0bd
000001b0: 278c b83c 710b 613c de1b c7bd 44d8 2cbe
000001c0: de9c 29bc d1b9 633c 539f 58bd 32b8 d13c
000001d0: 6486 12be ca99 97bd 879d 99bb 1054 e2bd
000001e0: e7c1 45be 3bca 27be 4f12 4fbd aac7 32bc
000001f0: 0d2c e0bd ad43 fbbd ca81 0abe 4678 eebd
00000200: 619f e9bd 6901 413d e0ae 8d3c f8c0 5fbd
00000210: 066c 043d 40d7 f1bd 7042 1cbe 48ff 18be
00000220: 225b 0abe aa67 95bd 711a 2f3d bfb6 57bd
00000230: 2786 d2bd 37cb ccbd 6cc5 7fba cc19 76bd
00000240: b8a0 90bb d2ac 42ba 1dbf a6bd c0e9 1f3d
00000250: 5ed3 e6bd bfcd a4bd 6099 5a3a 4777 1cbd
00000260: e9ac 29bd a342 c2bc ad76 0bbe 378a cbbd
00000270: 25b4 33bc 23ef 04bc 0d23 9d3c 9cb3 e8bd
00000280: 381f babd d6d4 313d 7b8f cbbc 0538 55bd
00000290: 00f7 96bd 815f cc3b e521 15be f33b 20bd
000002a0: dc11 b8bc a052 1fbd 3270 7ebd 4e00 13bd
000002b0: 213d f0bd 5137 1abe e920 18bd 6bf3 503c
000002c0: fafd 903c 8dac c73c 1b2c 99bd 32ad 0abe
000002d0: 25d9 fbbc e0a4 1b3d 3d85 40bd 6e17 19bc
000002e0: ff67 9cbd 6d4b 15be 2e8f a2bd 1268 78bc
000002f0: 33ab cdbc 15f6 9c39 4a48 ef3c 8cf7 ffbd
00000300: 02c4 d5bc a898 88bd 7c3b 09be b9bb 0dbd
00000310: 68b5 55bc 5da3 4a3b 3692 03bd 3942 d4bd
00000320: 705d b5bd f259 b0bd 0ec3 023d 3f76 433d
00000330: f19a 12bd 094f 54bd 4296 d5bc 1b34 efbd
00000340: f506 ebbd 4d2e 5dbd bf1f 78bc e576 a1bd
00000350: b264 13be 9340 743b a8cc 1ebd 5716 9fbd
00000360: 9972 cbbd c143 aebd 2850 c5bd deac 1bbe
00000370: 238a 93bc c4df 05be 4c92 83bd f5f6 96bd
00000380: 7086 a1bc 44ac adba e791 a1bd d127 a3bb
00000390: b2e8 62bc 49c9 9dbd 604d 8ebd 06f7 b43c
000003a0: 3fba ebbd dc99 ffbc b7df 35bd 3e91 84bd
000003b0: 2818 80bd 9ce3 013d 0c07 cabd 980c b03c
000003c0: 0700 bcbc bd77 1fbe d474 26bd c251 713d
000003d0: 3e7e 9cbd a5eb f4bd b33a 15bd 162f e6bc
000003e0: bebd afbd 54e2 a0bd bfb9 afbb 8740 62bd
000003f0: 7e62 4e3c 2331 133d 1f27 c4bd 4641 7bbd

mlp_1/MLP_0_1/hidden_0_1/Cast/ReadVariableOp:0 f4 [64, 512]
-0.27872962 0.29000372 0.16436826 0.5845452 0.08829431 0.14091857 0.09955496 -0.28761762
-0.031621747 0.3407057 -0.15234524 -0.3610401 -0.11796118 -0.13435656 -0.4061531 0.24038391
-0.20015824 -0.15476939 0.25253922 -0.23584129 -0.38207975 -0.25989774 0.04220025 -0.29463556
-0.52492255 0.19169769 -0.2811459 -0.514205 0.36398616 -0.37980554 0.021429773 -0.2940309
-0.016650872 -0.15819229 0.29861146 -0.5326535 0.3040061 0.1976084 0.16992278 0.6881021
0.27301618 -0.12460255 -0.123775996 -0.30847386 0.2847212 0.07723658 -0.1608784 0.5968064
-0.20307969 0.24174765 0.1866478 -0.085091464 -0.07153095 0.08983851 0.49188492 0.22053069
0.23163739 -0.5464165 0.14847735 0.09117309 0.5130276 0.23631512 -0.035644762 0.21472833
0.20858043 0.19715917 0.27724147 0.13920501 0.22299382 0.001991758 -0.25377905 0.3939957
-0.23280144 -0.19668202 -0.57067776 -0.16836081 0.2005073 0.06465896 0.56009364 -0.10010978
-0.0010280424 0.6500683 -0.36297348 0.3549683 0.17511655 0.30558538 0.012649038 0.09441231
-0.06393214 -0.23815301 0.08796065 0.597624 -0.08519231 -0.18900226 -0.14958172 0.16642348
0.1476447 -0.34695324 0.29373357 0.77270454 -0.41657117 0.02517004 -0.006622869 -0.1720469
-0.063365944 -0.17004888 0.34397018 -0.023462899 0.0057509467 0.23449248 -0.014637108 0.35493624
0.033987287 0.059046026 0.19335154 0.44522887 0.06720894 -0.28572235 0.17858346 -0.08427179
-0.4081194 -0.18778306 0.19935961 0.17499141 -0.23168693 -0.32689968 0.05839799 0.02359619
-0.19712178 0.012274086 -0.5116394 -0.28134835 -0.39217702 -0.18543382 0.40432635 0.19167912
-0.10121319 0.46002322 0.48674104 0.24503295 -0.035669185 0.25802293 0.25967383 -0.25808284
0.26900548 -0.10535631 -0.35168976 0.23767442 -0.06645283 -0.47194856 0.16267528 0.15695392
-0.25115624 0.24016511 0.08249697 -0.019730592 -0.053482097 -0.21376303 -0.5200067 0.34563303
0.1511855 -0.05012881 0.5100722 0.15774004 -0.27712825 -0.23576455 0.56693393 0.4301249
0.08357486 -0.2752787 -0.07175166 0.04651491 0.31203678 -0.2229814 -0.12366615 0.22945899
0.2947602 -0.08185833 -0.122110635 -0.092215605 -0.29933968 0.11070353 0.32365716 -0.20469698
-0.011338149 0.5523514 0.2047778 -0.56428075 -0.020045642 0.17682353 0.38284627 -0.25911972
0.2214979 0.12893085 -0.28911555 0.27054885 -0.028479816 0.1578786 0.31048676 -0.3493795
0.36374354 -0.13286655 -0.16494939 0.6044215 -0.043990854 -0.19744748 0.19705948 0.21575712
0.28497908 -0.339301 0.15693985 0.10900977 0.18942028 0.15513657 -0.1624094 -0.16038719
0.37491158 -0.08583769 0.1464531 -0.31528184 0.2866484 0.23895615 -0.009265342 0.10761482
0.5475101 0.15424904 -0.27601168 -0.20335056 0.45191666 -0.14491376 0.22086994 -0.3227472
-0.27594495 0.111383535 0.22327526 0.44271544 -0.13678758 -0.26274914 0.10172033 0.17378831
0.41923496 0.10407826 0.37593052 0.073518276 -0.3326602 0.39195457 -0.3230766 0.1058583
-0.2719465 0.17690459 -0.22300488 -0.3394124 0.262614 -0.35922703 -0.37452218 -0.1972373
00000000: a6b5 8ebe 5e7b 943e 2750 283e c1a4 153f
00000010: a6d3 b43d f54c 103e 79e3 cb3d 9e42 93be
00000020: ce85 01bd fa70 ae3e 6400 1cbe 3fda b8be
00000030: a295 f1bd c494 09be 4df3 cfbe 3327 763e
00000040: 48f6 4cbe de7b 1ebe d24c 813e 6180 71be
00000050: f59f c3be 5111 85be 2bda 2c3d 79da 96be
00000060: 5361 06bf 664c 443e 5bf2 8fbe f0a2 03bf
00000070: 655c ba3e df75 c2be 7e8d af3c 388b 96be
00000080: 6967 88bc 29fd 21be 9ae3 983e fb5b 08bf
00000090: b0a6 9b3e db59 4a3e 3d00 2e3e 7627 303f
000000a0: c7c8 8b3e 9f2f ffbd 457e fdbd 49f0 9dbe
000000b0: fac6 913e 362e 9e3d 4fbd 24be 4ec8 183f
000000c0: 1ff4 4fbe b28c 773e 9a20 3f3e 6f44 aebd
000000d0: d27e 92bd 41fd b73d 57d8 fb3e ccd2 613e
000000e0: 5a32 6d3e f4e1 0bbf 720a 183e f5b8 ba3d
000000f0: c755 033f 97fc 713e 3e00 12bd bee1 5b3e
00000100: 1c96 553e 18e4 493e 98f2 8d3e c28b 0e3e
00000110: 7e58 643e 2788 023b 54ef 81be ceb9 c93e
00000120: 8063 6ebe 0367 49be f017 12bf c766 2cbe
00000130: c951 4d3e eb6b 843d 4c62 0f3f 5b06 cdbd
00000140: 61bf 86ba e06a 263f a9d7 b9be 68be b53e
00000150: c151 333e b075 9c3e e93d 4f3c 3e5b c13d
00000160: dbee 82bd 62de 73be b724 b43d e3fd 183f
00000170: 4e79 aebd cf89 41be f32b 19be eb6a 2a3e
00000180: 2c30 173e dba3 b1be 3f64 963e f7cf 453f
00000190: d148 d5be 6631 ce3c a704 d9bb 102d 30be
000001a0: 01c6 81bd 4b21 2ebe dc1c b03e 4435 c0bc
000001b0: 7072 bc3b cc1e 703e 7bd0 6fbc 34ba b53e
000001c0: 4136 0b3d 3fda 713d f2fd 453e 0af5 e33e
000001d0: d7a4 893d 334a 92be 95de 363e b096 acbd
000001e0: 07f5 d0be 344a 40be ed24 4c3e f330 333e
000001f0: 573f 6dbe 655f a7be bb32 6f3d cc4c c13c
00000200: 4bda 49be 3f19 493c cdfa 02bf e40c 90be
00000210: 6dcb c8be 5de2 3dbe dd03 cf3e 8847 443e
00000220: dc48 cfbd 2a88 eb3e 1f36 f93e ebe9 7a3e
00000230: da19 12bd 951b 843e f8f3 843e 6f23 84be
00000240: 16bb 893e 0dc5 d7bd ae10 b4be ec60 733e
00000250: 6c18 88bd 3ea3 f1be 5994 263e 87b8 203e
00000260: 8d97 80be d8ed 753e 2cf4 a83d 0da2 a1bc
00000270: 0b10 5bbd b2e4 5abe 291f 05bf d0f6 b03e
00000280: 5fd0 1a3e de53 4dbd 1794 023f 9b86 213e
00000290: c1e3 8dbe 436c 71be 9522 113f 5539 dc3e
000002a0: 4c29 ab3d 54f1 8cbe 89f2 92bd 6b86 3e3d
000002b0: 49c3 9f3e 3c55 64be ae44 fdbd 4cf7 6a3e
000002c0: cfea 963e 57a5 a7bd 2415 fabd 89db bcbd
000002d0: 0d43 99be 88b8 e23d 64b6 a53e 169c 51be
000002e0: a5c3 39bc e766 0d3f 46b1 513e b474 10bf
000002f0: c236 a4bc 3a11 353e 6d04 c43e 57ab 84be
00000300: 58d0 623e 7306 043e f406 94be 6185 8a3e
00000310: 814e e9bc edaa 213e 1ff8 9e3e dfe1 b2be
00000320: 983c ba3e 2b0e 08be 7ee8 28be 5ebb 1a3f
00000330: c12f 34bd ac2f 4abe f6c9 493e 6fef 5c3e
00000340: c7e8 913e dcb8 adbe d7b4 203e 8440 df3d
00000350: 64f7 413e 1fdc 1e3e a64e 26be 8a3c 24be
00000360: 69f4 bf3e accb afbd cdf7 153e 9f6c a1be
00000370: 94c3 923e ecb0 743e a9cd 17bc 2965 dc3d
00000380: 9f29 0c3f 76f3 1d3e 6751 8dbe 213b 50be
00000390: 9f61 e73e 4664 14be bb2b 623e 1f3f a5be
000003a0: a848 8dbe 0d1d e43d 45a2 643e 99ab e23e
000003b0: 0b12 0cbe 0e87 86be c052 d03d 90f5 313e
000003c0: f7a5 d63e fc26 d53d f779 c03e c090 963d
000003d0: 7052 aabe 45ae c83e 4c6a a5be 3dcc d83d
000003e0: 923c 8bbe 7a26 353e 645b 64be 76c7 adbe
000003f0: 5875 863e 9bec b7be 5fc1 bfbe 93f8 49be

mlp_1/MLP_0_1/hidden_0_1/BiasAdd/ReadVariableOp:0 f4 [512]
-0.13377497 0.049705714 -0.09465702 0.06593767 -0.038707025 -0.15490274 -0.14335747 -0.19374712
-0.08123084 -0.04326188 -0.12170479 -0.006104637 -0.057066374 -0.15120189 -0.06057212 -0.055124428
-0.05247213 -0.087407626 -0.17692941 -0.05748577 -0.065657966 -0.09021202 -0.019650392 -0.121848345
-0.15116271 -0.04240088 -0.12554462 -0.16569889 0.073161185 -0.0056204633 -0.103407204 -0.123373546
-0.16063064 -0.1657635 -0.034937736 -0.031797912 0.059207052 -0.07422972 -0.03668221 0.026044115
-0.052139875 -0.12817691 -0.11002553 -0.078859925 -0.09832717 0.0026944464 -0.042629313 -0.023240723
-0.03811576 -0.04855887 -0.07856847 -0.10383026 -0.052992005 -0.10263918 -0.012530498 0.016379526
0.048163187 -0.027618809 -0.059677802 -0.16151075 -0.029285042 -0.10127019 -0.0011451612 -0.0033270188
-0.09679982 0.009277312 -0.07727043 -0.20068622 -0.13723451 -0.2478041 -0.103958525 -0.08739215
-0.10849993 -0.026674282 -0.15932812 -0.005599405 -0.015843794 0.023475908 -0.10595084 -0.089100264
-0.13123533 0.049386296 -0.12112911 0.08802784 -0.05397838 0.0038641817 0.02789346 -0.07565982
-0.08189172 0.018044533 -0.084419206 -0.01060827 -0.05183282 -0.15706529 -0.17425251 -0.18292464
-0.25714034 -0.1567612 -0.0370622 -0.0013073402 -0.12456396 -0.08116982 -0.1002473 -0.14153308
-0.08829977 -0.001877151 -0.030319026 -0.023418082 -0.10683226 -0.0050900974 -0.12979476 -0.16995573
0.0029817973 -0.121178836 -0.04060095 -0.050781664 -0.16288145 -0.042659007 -0.016954541 0.035208594
-0.074519046 -0.093854465 -0.124313086 -0.25643876 -0.067243725 -0.17241013 0.011660689 -0.1744396
-0.15383224 -0.026601924 -0.10071255 -0.16347851 0.02657939 -0.15510373 -0.15788662 -0.070464395
-0.07077248 0.04534361 -0.0805108 0.014336992 -0.094114795 -0.045903023 0.029954765 -0.18395919
-0.06071928 -0.041932188 -0.12239741 -0.059871364 -0.18787028 -0.1298088 0.053109683 -0.13687544
0.006852459 -0.018215355 -0.045915127 -0.20069946 -0.1747491 -0.018774565 -0.15405379 0.072970346
-0.055634752 -0.15540475 0.041264646 -0.043037347 -0.17640814 -0.049401283 0.10031217 0.031126585
0.0062364074 -0.12792961 -0.026084667 -0.12863809 -0.21082443 0.037381083 -0.0777898 -0.11859784
0.070541345 -0.122693814 -0.06529821 -0.119034894 -0.13867094 -0.058929123 -0.0794342 -0.17658496
-0.090007424 0.023036871 -0.19157217 -0.16350792 -0.0044639385 -0.069684364 -0.015660193 -0.16044284
-0.000769899 0.021089394 -0.04120758 -0.09808267 -0.1615092 -0.19584541 0.04927756 -0.06578942
0.06529892 -0.12861235 -0.12374091 -0.05579971 -0.115567826 -0.05475993 -0.21342139 -0.108483896
0.0034464658 0.019721482 -0.016531987 -0.016212702 0.018245097 -0.19991247 0.030361293 -0.07531757
0.11754508 -0.14571606 -0.054260224 -0.11961142 0.0059701344 -0.0012321043 -0.1552171 -0.10297481
-0.0389377 -0.11347833 -0.13423868 -0.004131147 -0.09631513 -0.15997657 -0.116348974 -0.1162677
0.010003159 -0.14595754 -0.02887125 -0.16889375 0.07352994 -0.08984274 -0.0056579276 -0.07118528
0.01623571 -0.0964668 0.06581468 -0.03990224 -0.06145715 -0.09408557 0.007095007 -0.03423316
-0.11173158 -0.006157267 -0.21966986 -0.19922951 -0.07779477 -0.07141755 -0.19022201 -0.06499316
00000000: 4efc 08be 3898 4b3d 8adb c1bd 540a 873d
00000010: 428b 1ebd d39e 1ebe 4dcc 12be a565 46be
00000020: 5b5c a6bd 5e33 31bd 5c40 f9bd 6809 c8bb
00000030: 6ebe 69bd abd4 1abe 791a 78bd 27ca 61bd
00000040: 04ed 56bd c502 b3bd fc2c 35be 3376 6bbd
00000050: af77 86bd 14c1 b8bd dcf9 a0bc a08b f9bd
00000060: 66ca 1abe 8cac 2dbd c58e 00be f8ac 29be
00000070: 88d5 953d dd2b b8bb 28c7 d3bd 45ab fcbd
00000080: 5c7c 24be e8bd 29be df1a 0fbd 873e 02bd
00000090: 1883 723d c005 98bd 1640 16bd 785a d53c
000000a0: 9f90 55bd cf40 03be 1155 e1bd 5081 a1bd
000000b0: c15f c9bd 4f95 303b 139c 2ebd 5463 bebc
000000c0: 451f 1cbd aae5 46bd 82e8 a0bd f6a4 d4bd
000000d0: 250e 59bd 7e34 d2bd b84c 4dbc 5b2e 863c
000000e0: c346 453d d740 e2bc b670 74bd 1363 25be
000000f0: 2fe7 efbc bf66 cfbd 3c19 96ba 1d0a 5abb
00000100: fc3e c6bd deff 173c f63f 9ebd b080 4dbe
00000110: 3487 0cbe 5cc0 7dbe 35e8 d4bd a8fa b2bd
00000120: 3635 debd 0684 dabc e926 23be 377b b7bb
00000130: d8ca 81bc 8c50 c03c c1fc d8bd 337a b6bd
00000140: 8e62 06be 4949 4a3d 8a12 f8bd f147 b43d
00000150: 6f18 5dbd 363e 7d3b d380 e43c 89f3 9abd
00000160: d9b6 a7bd 21d2 933c fae3 acbd 4fce 2dbc
00000170: a74e 54bd b9d5 20be 406f 32be 9950 3bbe
00000180: e6a7 83be 0286 20be 89ce 17bd 0f5b abba
00000190: 641b ffbd 5d3c a6bd 754e cdbd 0cee 10be
000001a0: 83d6 b4bd bc0a f6ba 9b5f f8bc 47d7 bfbc
000001b0: dfca dabd d5ca a6bb ebe8 04be e008 2ebe
000001c0: 426a 433b 9c2c f8bd 2f4d 26bd 6f00 50bd
000001d0: 65ca 26be 36bb 2ebd 40e4 8abc e336 103d
000001e0: 719d 98bd c536 c0bd dc97 febd f14b 83be
000001f0: 14b7 89bd 488c 30be 790c 3f3c 4ba0 32be
00000200: 3386 1dbe 47ec d9bc 6242 cebd e966 27be
00000210: 05bd d93c 83d3 1ebe 08ad 21be a34f 90bd
00000220: 29f1 90bd 39ba 393d d9e2 a4bd b4e5 6a3c
00000230: 42bf c0bd cf04 3cbd b263 f53c cc5f 3cbe
00000240: c8b4 78bd 16c1 2bbd 7eab fabd ad3b 75bd
00000250: 1161 40be 99ec 04be 8a89 593d 1329 0cbe
00000260: 988a e03b 5e38 95bc 8011 3cbd 2984 4dbe
00000270: 6ef1 32be 1ecd 99bc 47c0 1dbe 7a71 953d
00000280: 44e1 63bd 6c22 1fbe 1e05 293d ee47 30bd
00000290: 56a4 34be 0059 4abd 7870 cd3d 2efd fe3c
000002a0: c75a cc3b fbff 02be 83af d5bc b4b9 03be
000002b0: 5ce2 57be e81c 193d 4250 9fbd 6de3 f2bd
000002c0: fb77 903d e546 fbbd 11bb 85bd 91c8 f3bd
000002d0: c1ff 0dbe aa5f 71bd 66ae a2bd b0d2 34be
000002e0: d055 b8bd d2b7 bc3c 7f2b 44be 9f6e 27be
000002f0: 3b46 92bb adb6 8ebd ce49 80bc 214b 24be
00000300: 0cd3 49ba aac3 ac3c 48c9 28bd 91df c8bd
00000310: ab62 25be b38b 48be 44d7 493d 9abc 86bd
00000320: 71bb 853d f5b2 03be e06b fdbd 3d8e 64bd
00000330: d3ae ecbd f34b 60bd 238b 5abe ce2c debd
00000340: 1ade 613b f28e a13c 176e 87bc 80d0 84bc
00000350: be76 953c dbb5 4cbe 3fb8 f83c 1940 9abd
00000360: 7abb f03d 9736 15be f83f 5ebd d5f6 f4bd
00000370: 1ea1 c33b 8f7e a1ba 3bf1 1ebe 75e4 d2bd
00000380: 237d 1fbd 5467 e8bd dd75 09be 935e 87bb
00000390: de40 c5bd e6d0 23be 5f48 eebd c31d eebd
000003a0: 4ae4 233c e575 15be 6683 ecbc 7cf2 2cbe
000003b0: dd96 963d 78ff b7bd 2366 b9bb 97c9 91bd
000003c0: c000 853c 6390 c5bd d9c9 863d 8870 23bd
000003d0: 7eba 7bbd efaf c0bd 3c7d e83b 1238 0cbd
000003e0: 87d3 e4bd e6c2 c9bb 23f1 60be d202 4cbe
000003f0: dd52 9fbd 5d43 92bd 8fc9 42be 221b 85bd

ConstantFolding/mlp_1/truediv_recip:0 f4 [64]
1.7857023 1.5702927 2.87018 0.333278 0.55183965 0.7874906 3.6228945 3.9496427
5.4057164 1.7498893 2.1937797 3.5778673 3.6798418 8.206215 10.530803 3.6108184
8.935239 10.9253025 1.9829297 5.4586325 6.0023656 2.3448212 4.097877 2.3260715
3.9283824 7.241559 2.5914989 4.3294845 0.41050494 0.5898212 0.6347204 0.41714776
0.6239208 0.63468224 0.47927737 0.9082077 0.6682869 0.39999282 0.49207532 0.5486389
0.9077203 0.6466379 0.3731218 0.44661343 1.7353975 1.9043144 1.9639207 1.7051437
1.898006 1.9521216 1.6001496 1.656302 2.0120647 1.6229404 1.7340212 1.6469209
2.050235 2.0413656 1.5412631 1.7259494 1.3600143 1.3669149 1.4782578 1.4782654
00000000: e591 e43f 5aff c83f 07b1 3740 6aa3 aa3e
00000010: 5d45 0d3f fc98 493f 81dd 6740 f2c6 7c40
00000020: a1fb ac40 5ffc df3f e366 0c40 c7fb 6440
00000030: 8782 6b40 a84c 0341 2b7e 2841 a617 6740
00000040: bdf6 0e41 0ace 2e41 a4d0 fd3f 1ead ae40
00000050: 6113 c040 8d11 1640 cf21 8340 5bde 1440
00000060: 9e6a 7b40 daba e740 1edb 2540 238b 8a40
00000070: b42d d23e 86fe 163f 097d 223f 6494 d53e
00000080: 46b9 1f3f 897a 223f d863 f53e 4d80 683f
00000090: da14 2b3f dccb cc3e 4cf1 fb3e 9973 0c3f
000000a0: 5c60 683f 108a 253f d209 bf3e 84aa e43e
000000b0: 8121 de3f 93c0 f33f c161 fb3f 2642 da3f
000000c0: dcf1 f23f 1fdf f93f b4d1 cc3f b401 d43f
000000d0: abc5 0040 83bc cf3f 68f4 dd3f 4ece d23f
000000e0: 0d37 0340 bca5 0240 1c48 c53f e9eb dc3f
000000f0: f314 ae3f 11f7 ae3f 8d37 bd3f cd37 bd3f
