mujoco_playground/experimental/zeroth_policy.onnx (onnx, 809943 bytes, 10 tensors)

mlp_1/sub/ReadVariableOp:0 f4 [64]
0.031620525 0.08390886 0.0067290324 -0.22004104 -0.0004332583 0.019041194 0.0009206843 0.002056111
-0.9307101 -0.0040605753 0.0030144984 0.0010667238 -0.013097905 -0.014215615 0.0073346496 -0.034768607
0.0059318948 -0.017013136 0.022796724 0.022215849 -0.010827133 0.011119686 0.1319005 -0.03953693
0.0045115314 0.01823639 -0.002267138 -0.14032894 0.0092776045 -0.060484536 -0.05175305 -0.06380564
-0.019506628 -0.025897117 -0.0025340607 0.14803648 0.018183075 0.031443708 0.18012011 -0.0111727
0.15863955 0.08041731 0.015547222 -0.21377769 -0.010750068 -0.023973968 0.010562492 -0.032968562
0.010981612 -0.014714032 0.015527434 -0.16037203 -0.0059283925 0.008080669 -0.09055233 -0.027263224
-0.29052985 0.024302512 0.0041160076 0.07281922 -0.08413577 -0.11159097 0.0035128058 -0.004033069
00000000: 8684 013d 69d8 ab3d 377f dc3b 7052 61be
00000010: f226 e3b9 47fc 9b3c 145a 713a d2bf 063b
00000020: 0443 6ebf 930e 85bb e48e 453b 50d1 8b3a
00000030: 9898 56bc 9ce8 68bc 8057 f03b 8769 0ebd
00000040: 5760 c23b 225f 8bbc 32c0 ba3c 03fe b53c
00000050: 4a64 31bc 582f 363c ed10 073e 7af1 21bd
00000060: 78d5 933b 7b64 953c 4494 14bb 64b2 0fbe
00000070: 1801 183c a2be 77bd 02fb 53bd 88ac 82bd
00000080: 5dcc 9fbc 3126 d4bc 7c12 26bb e096 173e
00000090: acf4 943c 1ecb 003d 6871 383e b30d 37bc
000000a0: 6872 223e d5b1 a43d c7b9 7e3c 8ae8 5abe
000000b0: 0e21 30bc 0e65 c4bc 4d0e 2d3c 0b0a 07bd
000000c0: 38ec 333c 2013 71bc c766 7e3c 9138 24be
000000d0: f642 c2bb c864 043c 8073 b9bd 2057 dfbc
000000e0: 54c0 94be 1016 c73c 93df 863b 3e22 953d
000000f0: 604f acbd ce89 e4bd 1a37 663b d627 84bb

mlp_1/MLP_0_1/hidden_3_1/Cast/ReadVariableOp:0 f4 [128, 32]
0.026723027 -0.02301908 0.08573787 -0.050093874 0.0782772 -0.02514537 -0.040195078 0.053213842
0.06290775 0.087003574 -0.06964033 0.07491456 0.020161742 0.090708435 -0.07530722 -0.120796904
-0.14257647 0.014292096 -0.017718302 0.13779412 -0.16323897 -0.15873477 0.06706707 -0.06288768
0.05477824 -0.051933967 0.0021376547 -0.11503196 -0.06458203 0.05428225 -0.1441259 -0.08917457
0.03460129 0.04690627 0.10194817 0.1267074 -0.048423782 -0.01695678 0.10085006 -0.0043318025
0.1419699 -0.046352103 0.1246486 -0.080855526 0.081054114 0.12372052 -0.13095157 -0.051456068
0.13283312 0.0084701115 -0.13990317 -0.15097931 -0.07764866 0.08163291 0.09534235 -0.08661719
-0.09117215 0.04869668 0.11845076 -0.1085268 -0.156164 0.002706012 -0.05570323 0.116508506
0.08951691 0.041077115 0.16260973 -0.04754147 -0.050751835 -0.09195174 -0.04834728 0.013965016
-0.109840475 0.07388655 0.019820804 0.10765453 0.0821849 -0.03461782 0.0838191 0.069570035
0.10943294 0.05418233 -0.111511335 -0.06221033 0.07481052 0.06682034 0.18908039 -0.032362748
-0.16569649 0.15414762 -0.0019259776 0.006227074 0.07794301 0.09724786 0.12711866 0.041976184
-0.102518894 0.06720993 -0.115073204 -0.05616846 -0.052339338 0.067333914 -0.01980535 0.008421442
-0.080569945 -0.12470787 -0.12614779 -0.056865197 -0.1061433 -0.07418972 0.105578884 0.14505272
-0.09167934 0.11506689 -0.11800515 0.076281056 0.09043746 -0.064105675 -0.0213979 -0.018329374
-0.10073069 0.0025113225 -0.15641469 0.10044707 -0.11261052 0.11527561 0.06780725 0.12785074
-0.09949721 0.093930244 0.14725213 0.043084014 0.028981505 -0.07268107 0.08199507 0.019015148
0.035893686 0.009466569 0.08433139 0.004215109 0.11092866 0.047353152 0.1387889 0.1565646
0.048082873 -0.14897045 0.03438445 -0.055650305 -0.109312095 0.04859974 -0.015607681 -0.12682709
0.123090066 -0.07462476 0.07855306 0.08825122 -0.041175183 0.15083365 0.03201188 -0.102278545
0.077201806 0.091899425 -0.03287957 0.045181137 -0.01347793 0.009759405 0.08260413 -0.1268247
0.04697733 -0.009648852 -0.117178306 0.11713532 0.07613854 0.12172237 -0.12790056 -0.02184357
-0.034970954 -0.080906846 0.090776056 0.03241053 -0.022538248 0.016942145 -0.09939911 -0.1191378
-0.028385542 -0.08637303 0.10772661 0.0072226115 0.08886082 0.04638772 0.2071507 0.16150118
-0.0041761384 0.11260365 0.1379634 -0.02565754 0.11022019 -0.03068711 0.1526358 0.0104980925
-0.0034273497 0.0201097 0.025773723 0.13736491 -0.04996771 -0.096037775 0.18922435 -0.120741494
0.055102833 0.039180882 -0.07937871 0.039030578 -0.027366854 0.04016422 -0.14377175 0.06889122
0.034844413 -0.111940995 -0.12816432 -0.011434327 -0.15402585 -0.16719349 -0.11771704 0.0048869876
0.011184597 -0.0673825 -0.1200168 0.11014124 -0.12042854 0.062625155 -0.13015212 -0.11976916
0.0022914778 -0.09391035 -0.06433852 -0.1733292 -0.03273078 0.052293833 -0.046150863 0.1764544
-0.103791 0.079833634 0.042984165 0.10706332 0.072193086 0.042594355 -0.13730483 -0.076086305
-0.14938983 -0.09367333 -0.09793144 0.0043504443 -0.17611568 0.011458408 -0.09277828 -0.07881066
00000000: 40ea da3c 8292 bcbc 5697 af3d 3c2f 4dbd
00000010: cc4f a03d aafd cdbc 98a3 24bd c2f6 593d
00000020: c7d5 803d ee2e b23d 979f 8ebd ce6c 993d
00000030: 3d2a a53c 58c5 b93d ac3a 9abd 5e64 f7bd
00000040: 91ff 11be 6529 6a3c f925 91bc e719 0d3e
00000050: 1e28 27be 5e8b 22be 765a 893d 42cb 80bd
00000060: 265f 603d b6b8 54bd e517 0c3b e095 ebbd
00000070: 9543 84bd 1157 5e3d bd95 13be 28a1 b6bd
00000080: 15ba 0d3d ca20 403d 34ca d03d 96bf 013e
00000090: 0458 46bd f2e8 8abc 7a8a ce3d cbf1 8dbb
000000a0: 8f60 113e b4db 3dbd c447 ff3d 9597 a5bd
000000b0: b3ff a53d 2f61 fd3d 2b18 06be 99c3 52bd
000000c0: 6805 083e 39c6 0a3c c742 0fbe 529a 1abe
000000d0: 4306 9fbd 282f a73d da42 c33d 5a64 b1bd
000000e0: 77b8 babd 2c76 473d 5096 f23d 4d43 debd
000000f0: 75e9 1fbe 5957 313b 1229 64bd 039c ee3d
00000100: a454 b73d 7a40 283d 2a83 263e d8ba 42bd
00000110: 28e1 4fbd 3251 bcbd cc07 46bd 86cd 643c
00000120: 0bf4 e0bd d551 973d 3d5f a23c fa79 dc3d
00000130: 8f50 a83d 6acb 0dbd 59a9 ab3d bc7a 8e3d
00000140: 611e e03d 4aee 5d3d 0e60 e4bd 42d0 7ebd
00000150: 4236 993d 1ad9 883d 4a9e 413e cd8e 04bd
00000160: 57ac 29be e0d8 1d3e 1671 fcba 7c0c cc3b
00000170: 96a0 9f3d e329 c73d 652b 023e 38ef 2b3d
00000180: 6df5 d1bd 5ca5 893d 80ab ebbd e610 66bd
00000190: c661 56bd 5de6 893d d43e a2bc 16fa 093c
000001a0: db01 a5bd d766 ffbd e32c 01be 7beb 68bd
000001b0: a961 d9bd c8f0 97bd be39 d83d b388 143e
000001c0: 61c2 bbbd 31a8 eb3d afac f1bd 3e39 9c3d
000001d0: 4637 b93d d649 83bd a64a afbc 7c27 96bc
000001e0: e44b cebd 0095 243b 2c2b 20be 32b7 cd3d
000001f0: 58a0 e6bd 9e15 ec3d 87de 8a3d 4eeb 023e
00000200: 31c5 cbbd 805e c03d 43c9 163e dd78 303d
00000210: 9f6a ed3c d0d9 94bd 08ed a73d a8c5 9b3c
00000220: 4205 133d ab19 1b3c f0b5 ac3d e61e 8a3b
00000230: 912e e33d 61f5 413d ad1e 0e3e 7852 203e
00000240: 8cf2 443d b68b 18be b6d6 0c3d 93f1 63bd
00000250: 05df dfbd 8510 473d 5cb7 7fbc f6de 01be
00000260: a516 fc3d ded4 98bd 6de0 a03d 0ebd b43d
00000270: 4fa7 28bd 2374 1a3e e41e 033d 6a77 d1bd
00000280: fb1b 9e3d c435 bc3d baac 06bd db0f 393d
00000290: 89d2 5cbc e9e5 1f3c 5b2c a93d 56de 01be
000002a0: 4d6b 403d 3816 1ebc 2efb efbd a5e4 ef3d
000002b0: 86ee 9b3d 9449 f93d 5df8 02be 49f1 b2bc
000002c0: b43d 0fbd 7db2 a5bd cce8 b93d e7c0 043d
000002d0: 22a2 b8bc 41ca 8a3c c391 cbbd 85fe f3bd
000002e0: cc88 e8bc 58e4 b0bd c59f dc3d a8ab ec3b
000002f0: a9fc b53d 0d01 3e3d 501f 543e 9160 253e
00000300: fdd7 88bb be9c e63d 4746 0d3e c32f d2bc
00000310: 1fbb e13d 8963 fbbc 8f4c 1c3e 3100 2c3c
00000320: 639d 60bb 19bd a43c 6a23 d33c 63a9 0c3e
00000330: f1aa 4cbd 74af c4bd 07c4 413e 5147 f7bd
00000340: 82b3 613d 227c 203d 4e91 a2bd 87de 1f3d
00000350: 7430 e0bc 3d83 243d e738 13be d716 8d3d
00000360: 04b9 0e3d 5241 e5bd 823d 03be 0b57 3bbc
00000370: f4b8 1dbe c534 2bbe a215 f1bd 0623 a03b
00000380: 9a3f 373c d6ff 89bd 5ecb f5bd bb91 e13d
00000390: 3da3 f6bd 9e41 803d 9946 05be 8949 f5bd
000003a0: 9e2c 163b 1254 c0bd eac3 83bd 367d 31be
000003b0: b610 06bd 0f32 563d b008 3dbd 76b0 343e
000003c0: 6090 d4bd d17f a33d 2a10 303d 0444 db3d
000003d0: f8d9 933d 6b77 2e3d a399 0cbe 23d3 9bbd
000003e0: a6f9 18be ced7 bfbd 4790 c8bd 2c8e 8e3b
000003f0: ab57 34be 0cbc 3b3c 8a02 bebd 7c67 a1bd

mlp_1/MLP_0_1/hidden_3_1/BiasAdd/ReadVariableOp:0 f4 [32]
-0.007077636 -0.00014717517 -0.00465692 0.003946796 0.0020037417 -0.0046514613 -0.008190515 -0.04440284
0.009209279 -0.013736354 -0.01631185 0.006159229 -0.07298171 -0.0049484684 0.020325638 0.024422372
-0.018804094 -0.039964028 -0.04822907 -0.0034740625 -0.046681635 -0.040072277 -0.10260308 -0.045297556
-0.037786067 -0.062887736 -0.018800912 -0.12761119 -0.080661066 -0.049323164 -0.07912818 -0.027120158
00000000: 84eb e7bb 0953 1ab9 1499 98bb 2054 813b
00000010: 3551 033b 496b 98bb 8331 06bc c1df 35bd
00000020: 84e2 163c 720e 61bc 6ea0 85bc 5cd3 c93b
00000030: 6f77 95bd c326 a2bb f481 a63c 6d11 c83c
00000040: 0b0b 9abc 52b1 23bd d88b 45bd 19ad 63bb
00000050: 3e35 3fbd d422 24bd 9021 d2bd ee89 39bd
00000060: 90c5 1abd 49cb 80bd 5f04 9abc 82ac 02be
00000070: a131 a5bd 1607 4abd f50d a2bd 182b debc

mlp_1/MLP_0_1/hidden_2_1/Cast/ReadVariableOp:0 f4 [256, 128]
-0.0859823 -0.087704025 0.103084594 0.008877637 -0.09122731 0.076424934 0.09389192 0.06275288
0.0421172 0.12716018 -0.10930096 0.08782323 -0.096630916 -0.10168895 -0.1141234 0.02828203
-0.056792833 0.006040552 -0.11835779 0.030112484 0.10125514 0.038756326 -0.062298574 0.020506969
0.06697129 0.015077665 -0.052603718 -0.11691553 0.0857198 -0.121756434 -0.05689187 -0.020035895
-0.003758288 -0.07336793 0.10788673 -0.016029852 -0.053490274 -0.087896176 -0.12018453 -0.026086196
0.092603385 -0.074042924 -0.1259146 0.06567956 0.024050718 0.035231672 0.084851675 -0.015182737
0.04508145 0.0042785658 -0.1251615 -0.004839493 -0.015460805 -0.086085536 -0.08880288 0.014918542
-0.023400286 -0.13628444 0.09948219 -0.016731706 0.06388882 -0.009016423 -0.023186456 -0.024863102
-0.009822322 -0.018052205 -0.06953739 0.061942633 -0.096354716 -0.15741403 0.09625493 0.020859495
-0.059460152 -0.012012796 -0.09970739 -0.057227097 0.04414051 0.014914485 -0.0009380624 -0.045340784
0.06629688 -0.076869175 0.0563533 0.07801107 0.032656845 0.08183234 -0.042094953 0.026697926
0.018059136 -0.02817957 -0.05015438 0.00858817 -0.11381052 0.050225127 -0.08858156 -0.057046674
-0.12658647 0.048778784 0.035544828 -0.10674305 0.10725618 0.05981821 0.024237733 -0.12401002
0.10754872 -0.07612107 0.05308763 0.00017545775 -0.0071558887 -0.020978104 -0.10123383 0.014387079
0.05237131 -0.006578394 0.04658365 0.003844855 -0.08239245 0.017915966 -0.054369576 0.059025124
0.04846963 -0.07890246 -0.034647264 -0.059784662 -0.049630836 -0.0009301225 -0.056295063 -0.0702179
0.02866236 -0.025515908 0.04537888 0.08045742 -0.004412918 0.09740275 -0.03955937 -0.078542575
-0.004203933 -0.10412428 0.11010278 -0.046653453 0.12049762 0.07643877 0.04124276 -0.10165298
0.038237695 -0.008829194 0.05693155 0.09296567 -0.04999483 -0.059935845 -0.06216664 -0.048001096
0.025671262 -0.09430941 -0.054609258 -0.08573318 0.06908566 0.06803328 -0.067062326 0.069391705
0.011917676 0.12461109 0.015181556 -0.048330445 -0.018116599 0.04344906 -0.04508228 0.07987441
-0.027458532 -0.011472035 -0.00094002177 0.060952898 0.096228644 0.06238994 -0.01800059 -0.08146885
0.03611276 0.08706992 0.037112996 -0.15383157 0.049403604 -0.03896699 -0.12323763 0.078500815
0.053071134 0.09249631 0.08586587 -0.022633798 -0.097169705 -0.08726016 -0.055845458 0.068012066
0.1341367 -0.13794428 -0.083083756 0.07153422 -0.064205214 -0.058252152 -0.0032261184 0.08200002
0.012082605 0.119405515 -0.10994211 -0.07937101 -0.051670622 0.0022820942 -0.054503072 -0.08994847
0.025920864 -0.059511058 -0.035640363 -0.0058031688 -0.08054275 -0.08351078 0.0905023 0.013514471
0.096556716 -0.101192325 -0.07380862 -0.0146152405 0.043056775 0.012455499 -0.07319409 -0.047284726
-0.039565276 -0.044812288 -0.034958333 -0.03554697 -0.08619853 0.07719732 0.0030254065 0.02851606
-0.09279853 0.047233004 0.03515104 -0.13360266 0.010465749 -0.09725983 -0.08940079 -0.051108137
-0.02375695 0.09515167 0.1212061 -0.013842781 0.0408911 0.022400199 0.07842968 0.024299957
-0.009222051 -0.01591974 0.02900795 -0.07839716 0.04831482 -0.043802407 0.15491746 -0.028035386
00000000: 7d17 b0bd 2b9e b3bd 041e d33d 8273 113c
00000010: 62d5 babd ad84 9c3d 684a c03d 9584 803d
00000020: 1683 2c3d 4736 023e 2fd9 dfbd aadc b33d
00000030: 6ee6 c5bd 4c42 d0bd 87b9 e9bd b7af e73c
00000040: 9a9f 68bd d3ef c53b 9265 f2bd 75ae f63c
00000050: db5e cf3d f4be 1e3d ca2c 7fbd 3bfe a73c
00000060: 3e28 893d 5008 773c ff76 57bd 6971 efbd
00000070: dd8d af3d 705b f9bd 7307 69bd 5122 a4bc
00000080: 9c4d 76bb ed41 96bd b8f3 dc3d 0951 83bc
00000090: 9e18 5bbd e902 b4bd 4f23 f6bd b8b2 d5bc
000000a0: d8a6 bd3d d1a3 97bd c2ef 00be 0183 863d
000000b0: 0306 c53c 164f 103d b7c6 ad3d 04c1 78bc
000000c0: 54a7 383d 3633 8c3b 562a 00be 9c94 9ebb
000000d0: 514f 7dbc 9d4d b0bd 49de b5bd e66c 743c
000000e0: f5b1 bfbc 268e 0bbe 52bd cb3d ee10 89bc
000000f0: 24d8 823d 9eb9 13bc 86f1 bdbc b4ad cbbc
00000100: ceed 20bc 38e2 93bc 9e69 8ebd 8fb7 7d3d
00000110: 9f55 c5bd 2531 21be 4e21 c53d 88e1 aa3c
00000120: 7d8c 73bd 51d1 44bc 6333 ccbd f666 6abd
00000130: aecc 343d e25b 743c 4de8 75ba 42b7 39bd
00000140: a9c6 873d 966d 9dbd b8d2 663d 45c4 9f3d
00000150: 2fc3 053d b797 a73d c26b 2cbd 9cb5 da3c
00000160: c1f0 933c d7d8 e6bc ae6e 4dbd 65b5 0c3c
00000170: 7d15 e9bd ddb8 4d3d 406a b5bd c6a9 69bd
00000180: e29f 01be 43cc 473d 7497 113d 1a9c dabd
00000190: 21a9 db3d f003 753d 368e c63c f7f8 fdbd
000001a0: 8142 dc3d 5de5 9bbd 6a72 593d 15fb 3739
000001b0: f27b eabb 46da abbc af53 cfbd c8b7 6b3c
000001c0: 4c83 563d 928f d7bb 7fce 3e3d f6f9 7b3b
000001d0: 5fbd a8bd 81c4 923c a2b2 5ebd 54c4 713d
000001e0: 1788 463d 9d97 a1bd 4aea 0dbd c3e0 74bd
000001f0: b449 4bbd 77d3 73ba a795 66bd 67ce 8fbd
00000200: 53cd ea3c bd06 d1bc 34df 393d dcc6 a43d
00000210: 3d9a 90bb 187b c73d 0209 22bd eeda a0bd
00000220: 25c1 89bb 1c3f d5bd 917d e13d b117 3fbd
00000230: 75c7 f63d ee8b 9c3d 2bee 283d 702f d0bd
00000240: 219f 1c3d 53a8 10bc 0f31 693d c964 be3d
00000250: 61c7 4cbd 4a7f 75bd 72a2 7ebd cc9c 44bd
00000260: 8a4c d23c 4b25 c1bd f5ad 5fbd e194 afbd
00000270: c87c 8d3d 0855 8b3d f957 89bd 3d1d 8e3d
00000280: 5b42 433c 1934 ff3d 10bc 783c 25f6 45bd
00000290: 4369 94bc a4f7 313d 32a8 38bd 3295 a33d
000002a0: b7f0 e0bc 34f5 3bbc cb6b 76ba bfa9 793d
000002b0: 8613 c53d 988c 7f3d f975 93bc 24d9 a6bd
000002c0: f9ea 133d b751 b23d cc03 183d 0686 1dbe
000002d0: 6f5b 4a3d da9b 1fbd 0364 fcbd 09c5 a03d
000002e0: 1e61 593d b56e bd3d 72da af3d 846a b9bc
000002f0: e900 c7bd 74b5 b2bd 35be 64bd e949 8b3d
00000300: 225b 093e 4441 0dbe d127 aabd 8880 923d
00000310: 067e 83bd cf99 6ebd 496d 53bb a0ef a73d
00000320: 1ef6 453c e18a f43d 5429 e1bd 458d a2bd
00000330: 93a4 53bd 308f 153b 9d3e 5fbd e736 b8bd
00000340: fe57 d43c dec1 73bd a1fb 11bd 8228 bebb
00000350: 99f3 a4bd b307 abbd 4559 b93d cd6b 5d3c
00000360: 87bf c53d ec3d cfbd f928 97bd c374 6fbc
00000370: 4d5c 303d 2612 4c3c c8e6 95bd a1ad 41bd
00000380: 330f 22bd 178d 37bd 7830 0fbd b399 11bd
00000390: db88 b0bd a119 9e3d e645 463b 839a e93c
000003a0: 280d bebd 6577 413d 89fa 0f3d 23cf 08be
000003b0: 8878 2b3c 2930 c7bd c317 b7bd c456 51bd
000003c0: ef9d c2bc e1de c23d e73a f83d d5cc 62bc
000003d0: 6d7d 273d 9f80 b73c bd9f a03d b410 c73c
000003e0: 1618 17bc 1d6a 82bc 15a2 ed3c b18e a0bd
000003f0: c3e5 453d 276a 33bd afa2 1e3e 77aa e5bc

mlp_1/MLP_0_1/hidden_2_1/BiasAdd/ReadVariableOp:0 f4 [128]
0.008365803 -0.016931973 -0.05651969 0.02338983 -0.029554121 -0.024839373 0.058031823 0.047951646
0.0028455015 -0.01976728 0.009085886 0.0074395384 -0.027044566 -0.03302575 -0.0016145599 -0.0020979703
0.03731325 0.005468897 0.042145696 0.07450518 -0.029207624 0.017024346 0.027955554 0.017626317
-0.020258369 -0.011787289 -0.0108448 0.0070379935 0.010685716 0.050306376 -0.010311328 -0.005935142
0.0080418885 0.04256912 0.027514506 -0.041550808 -0.046941742 -0.044773888 0.0006261785 -0.051639985
-0.013114458 -0.012631054 0.031565692 -0.00805606 0.007596517 -0.039170224 0.030418878 -0.0480642
-0.036902525 0.017919034 0.003881386 0.007495335 0.03687121 -0.022429878 -0.046033572 -0.044368334
0.041432947 0.035237882 -0.09069262 0.032793254 0.057179943 -0.019052759 -0.0784029 -0.027541371
-0.107663706 0.0016874416 -0.036453124 0.045907915 0.025859458 -0.10010235 0.031180624 -0.009065339
-0.054510474 -0.008128252 -0.032619897 -0.02893015 -0.0055173063 -0.014115484 0.030191617 0.040644612
0.008574095 0.053202376 0.03348812 -0.047810297 0.012513486 -0.01683681 -0.024104983 -0.062151257
-0.045522884 0.052706808 0.0099131055 -0.06652338 0.04553703 -0.009648774 -0.03336401 -0.0009806515
-0.0050237183 -0.000298183 -0.04635507 -0.03763931 0.035404827 -0.045980208 -0.053124208 0.013740958
0.0671509 0.04779293 0.018338773 0.027905231 0.04568829 0.01281122 0.0031346052 -0.008431745
0.050047636 0.04002123 -0.018695893 0.014067508 -0.02732108 -0.025193706 0.029217854 0.03699785
-0.027451094 -0.041989926 -0.073212184 -0.014790907 -0.009729801 -0.047488883 -0.0056614103 0.038776614
00000000: b910 093c ecb4 8abc 3181 67bd 079c bf3c
00000010: 7c1b f2bc f17b cbbc c7b2 6d3d f268 443d
00000020: 987b 3a3b feee a1bc f8dc 143c 5fc7 f33b
00000030: 918c ddbc 0246 07bd a49f d3ba 1a7e 09bb
00000040: c7d5 183d 6f34 b33b f7a0 2c3d 2c96 983d
00000050: d444 efbc a476 8b3c 0c03 e53c 1165 903c
00000060: e1f4 a5bc 791f 41bc 63ae 31bc f89e e63b
00000070: 2413 2f3c 0f0e 4e3d d8f0 28bc 947b c2bb
00000080: 20c2 033c f55c 2e3d 1a66 e13c 2e31 2abd
00000090: fc45 40bd d364 37bd 2126 243a 7384 53bd
000000a0: 06de 56bc 7bf2 4ebc 074b 013d 91fd 03bc
000000b0: 34ec f83b f570 20bd 0331 f93c f7de 44bd
000000c0: 1a27 17bd f0ca 923c da5e 7e3b 6d9b f53b
000000d0: 4406 173d ddbe b7bc b38d 3cbd 92bb 35bd
000000e0: 98b5 293d 9955 103d 0dbd b9bd 3852 063d
000000f0: 8435 6a3d 8814 9cbc b391 a0bd 719e e1bc
00000100: ca7e dcbd 252d dd3a df4f 15bd f009 3c3d
00000110: 37d7 d33c 7602 cdbd 826e ff3c ca86 14bc
00000120: 6046 5fbd 5c2c 05bc 719c 05bd ecfe ecbc
00000130: 85ca b4bb a244 67bc 6954 f73c f77a 263d
00000140: 5c7a 0c3c bcea 593d d72a 093d bbd4 43bd
00000150: 5d05 4d3c 5aed 89bc d077 c5bc 5192 7ebd
00000160: 3476 3abd 18e3 573d 946a 223c 693d 88bd
00000170: 0985 3a3d e415 1ebc b3a8 08bd 3489 80ba
00000180: 019e a4bb 7255 9cb9 d0de 3dbd ad2b 1abd
00000190: a704 113d be55 3cbd c598 59bd c121 613c
000001a0: 6986 893d 85c2 433d 323b 963c 8399 e43c
000001b0: a523 3b3d 27e6 513c f36d 4d3b 4d25 0abc
000001c0: c0fe 4c3d 4ded 233d 2128 99bc 687b 663c
000001d0: 75d0 dfbc 0863 cebc 485a ef3c 0f8b 173d
000001e0: 1ee1 e0bc a1fd 2bbd 45f0 95bd 8f55 72bc
000001f0: be69 1fbc b483 42bd 5a83 b9bb 3ad4 1e3d

mlp_1/MLP_0_1/hidden_1_1/Cast/ReadVariableOp:0 f4 [512, 256]
0.077410646 -0.028715366 0.014785191 0.05478955 -0.03969617 -0.050711915 0.0073086345 0.011412744
0.015467923 0.080654845 0.032449108 0.06109848 -0.02385182 -0.08146339 0.034851067 0.01429368
-0.086195506 0.012404602 -0.008345603 0.03629543 -0.022568809 0.08080176 -0.043343365 0.011973762
0.05401408 0.024331197 -0.0019070258 0.042716976 -0.029977027 -0.02590702 0.009598061 -0.06766874
-0.01602742 0.059251953 -0.008472618 -0.02090986 0.014713551 -0.11962518 0.026051551 -0.054664213
-0.012639026 0.03155228 -0.027088333 0.06477702 -0.058395214 -0.040444586 -0.06220464 -0.07351861
-0.015021374 0.06415257 -0.119783536 0.045479108 -0.057585012 -0.05135639 -0.046139546 0.09671964
0.048653457 -0.02606047 -0.0071615237 -0.016753117 0.04058246 -0.040663738 -0.089256994 -0.08312305
-0.054794323 -0.019034604 0.038832832 -0.07580897 -0.076310106 0.019502023 0.044040684 -0.03666288
0.05131192 0.11832342 -0.043548904 0.023302514 -0.04517247 0.07206709 -0.03664823 0.02526204
-0.064004794 -0.04827274 0.063083306 -0.033076268 0.05803689 -0.06334143 -0.004824419 0.006386299
0.05257132 0.03292778 -0.050919168 -0.054451335 0.06692102 0.05191324 -0.014150549 0.047635905
0.029561393 -0.07400787 0.0050279195 0.031841528 -0.043880645 0.0017035672 -0.0819862 0.023224955
-0.05155618 -0.04739302 -0.032136627 -0.04557128 0.020715151 0.012435097 0.04436825 -0.041523222
-0.00852145 -0.061283536 0.059049394 0.021280501 -0.0067831543 -0.054553326 0.08357526 0.027636558
-0.0047526937 0.00545258 0.053571943 0.026903694 -0.04439342 -0.017624026 0.033768896 -0.10037446
-0.0064101806 0.033171266 0.048646744 -0.052116625 0.10688345 -0.011048225 -0.0523659 0.013876469
-0.052159067 -0.09645857 -0.08644432 0.03912222 -0.019082371 -0.027711201 -0.08722838 0.038267642
0.005863688 -0.079282604 -0.030723646 0.04054496 -0.0059177536 -0.08717527 0.041817512 0.0019411244
0.052326374 -0.013014806 0.031137343 -0.07098439 0.04510346 -0.008917735 0.118686736 -0.036214124
0.021189753 -0.007326934 0.03358562 0.053450204 0.06874807 0.07180418 -0.002824569 -0.0018302975
0.11381768 0.038113248 -0.07382224 -0.0045284284 0.022122415 -0.014998303 -0.046083324 0.013814235
0.00036478462 -0.057732947 -0.0034197613 -0.034000196 0.017628446 -0.012918628 -0.012089498 -0.020221598
-0.02423372 -0.015237226 -0.008090117 -0.08025432 -0.01864873 -0.05830868 0.06494744 -0.022408739
0.03137446 -0.017590785 -0.020025056 -0.026746383 -0.035765097 -0.039453432 0.03678404 -0.09240601
0.0095208995 0.0002443728 -0.08267046 0.01372569 0.045323327 -0.0319461 0.05339854 0.0256831
0.069333605 0.053004064 0.062309954 -0.030416263 -0.034930438 -0.003142564 0.03838698 -0.05132318
-0.012329451 -0.065717876 0.014253019 0.03625975 -0.045826882 -0.009635712 0.04467467 0.010608957
-0.0071524186 -0.056402314 0.008304767 0.035138562 0.00629083 0.08212494 -0.046339516 -0.0507472
-0.07986563 -0.011554865 -0.09396971 -0.009098019 0.00012674075 -0.035136648 -0.011853078 -0.035695422
0.017995862 -0.0032386184 -0.09345241 0.01999135 0.036754705 0.053352896 -0.11918386 -0.032706015
-0.0046333396 0.037418503 -0.07134944 0.0029503626 0.075544044 0.010466635 -0.088926926 -0.062276077
00000000: 7989 9e3d 7d3c ebbc 963d 723c 026b 603d
00000010: 7398 22bd 4cb7 4fbd 457d ef3b 85fc 3a3c
00000020: 2c6d 7d3c 5e2e a53d 5be9 043d 6642 7a3d
00000030: e464 c3bc 47d6 a6bd febf 0e3d 0a30 6a3c
00000040: 4587 b0bd ac3c 4b3c ffbb 08bc 84aa 143d
00000050: 39e2 b8bc 657b a53d d088 31bd 992d 443c
00000060: de3d 5d3d 3852 c73c 2bf5 f9ba fff7 2e3d
00000070: 6292 f5bc f53a d4bc 3041 1d3c e995 8abd
00000080: f04b 83bc 2db2 723d bcd0 0abc 284b abbc
00000090: 1b11 713c 0cfe f4bd 106a d53c 95e7 5fbd
000000a0: eb13 4fbc f73c 013d 5ae8 ddbc d0a9 843d
000000b0: d22f 6fbd 39a9 25bd 4bca 7ebd ed90 96bd
000000c0: 361c 76bc 6c62 833d 1251 f5bd 4d48 3a3d
000000d0: 43de 6bbd 145b 52bd d2fc 3cbd f214 c63d
000000e0: d948 473d c47c d5bc 37ab eabb d53d 89bc
000000f0: cb39 263d 058f 26bd 5fcc b6bd 6b3c aabd
00000100: 0370 60bd 75ee 9bbc 2d0f 1f3d bc41 9bbd
00000110: 7948 9cbd b5c2 9f3c 0164 343d d12b 16bd
00000120: 732c 523d 8d53 f23d 5660 32bd eae4 be3c
00000130: c506 39bd e997 933d 741c 16bd 56f2 ce3c
00000140: f214 83bd a3b9 45bd d231 813d fb7a 07bd
00000150: 17b8 6d3d 27b9 81bd 2916 9ebb 2944 d13b
00000160: 0655 573d 48df 063d 9e90 50bd 5d08 5fbd
00000170: e30d 893d faa2 543d b4d7 67bc de1d 433d
00000180: bc2a f23c 7091 97bd 3fc1 a43b 436c 023d
00000190: 31bc 33bd 3b4a df3a 61e8 a7bd 4342 be3c
000001a0: 932c 53bd 2f1f 42bd b2a1 03bd f3a8 3abd
000001b0: d2b2 a93c 94bc 4b3c 7bbb 353d 4114 2abd
000001c0: 8d9d 0bbc 7204 7bbd c7dd 713d 7254 ae3c
000001d0: 3945 debb 4f73 5fbd 8229 ab3d 1066 e23c
000001e0: 7cbc 9bbb 8eab b23b 416e 5b3d 2365 dc3c
000001f0: e0d5 35bd 4360 90bc 4151 0a3d 2091 cdbd
00000200: 7e0c d2bb 98de 073d cf41 473d 3e78 55bd
00000210: b6e5 da3d 9d03 35bc a07d 56bd 215a 633c
00000220: bfa4 55bd 128c c5bd b809 b1bd 9f3e 203d
00000230: a252 9cbc 9a02 e3bc cba4 b2bd 88be 1c3d
00000240: 2e24 c03b eb5e a2bd 28b0 fbbc 7912 263d
00000250: b7e9 c1bb f388 b2bd d748 2b3d 546d fe3a
00000260: 2e54 563d 0e3c 55bc be13 ff3c 4460 91bd
00000270: 68be 383d b11b 12bc 0812 f33d 4355 14bd
00000280: 2296 ad3c c716 f0bb 1391 093d 9aee 5a3d
00000290: cacb 8c3d 120e 933d 671c 39bb 98e6 efba
000002a0: 3e19 e93d a31c 1c3d 1d30 97bd 3663 94bb
000002b0: 113a b53c 71bb 75bc dec1 3cbd 1a55 623c
000002c0: 9040 bf39 6279 6cbd 131e 60bb ca43 0bbd
000002d0: 8869 903c a7a8 53bc 0813 46bc c4a7 a5bc
000002e0: cb85 c6bc 8fa5 79bc 698c 04bc 605c a4bd
000002f0: 39c5 98bc 15d5 6ebd 2a03 853d 8892 b7bc
00000300: 8182 003d 8d1a 90bc 960b a4bc 3b1b dbbc
00000310: 6c7e 12bd ec99 21bd ddaa 163d 5d3f bdbd
00000320: 8cfd 1b3c 291f 8039 214f a9bd b7e1 603c
00000330: f4a4 393d ead9 02bd 6db8 5a3d 5d65 d23c
00000340: c7fe 8d3d ca1a 593d b938 7f3d 872b f9bc
00000350: 3813 0fbd 7af3 4dbb aa3b 1d3d 4138 52bd
00000360: 7701 4abc 1897 86bd 7f85 693c 1b85 143d
00000370: f8b4 3bbd 1bdf 1dbc c9fc 363d 31d1 2d3c
00000380: d65e eabb 1d06 67bd b810 083c 74ed 0f3d
00000390: 4f23 ce3b 1f31 a83d 81ce 3dbd 4cdc 4fbd
000003a0: 9790 a3bd 9e50 3dbc 3173 c0bd dc0f 15bc
000003b0: b6e5 0439 72eb 0fbd 6a33 42bc 5d35 12bd
000003c0: 0f6c 933c 003f 54bb fa63 bfbd e6c4 a33c
000003d0: 1a8c 163d 9188 5a3d ab16 f4bd bef6 05bd
000003e0: 45d3 97bb 2544 193d a81f 92bd df5a 413b
000003f0: d6b6 9a3d 407c 2b3c 521f b6bd 3315 7fbd

mlp_1/MLP_0_1/hidden_1_1/BiasAdd/ReadVariableOp:0 f4 [256]
0.0012039536 -0.00018813969 -0.0142068695 -0.0844304 0.06054387 -0.06838295 0.018030873 -0.019857185
-0.038961373 -0.059777685 0.024341403 0.056112427 -0.02120041 -0.034499705 0.013687409 -0.07690448
0.045089625 -0.07412814 0.026521709 -0.0046281083 0.051804885 -0.028052257 -0.013354083 0.009371019
0.0551479 -0.017818814 -0.062643915 0.041771 0.001953712 -0.038070194 0.02097006 0.035540238
-0.031833034 -0.023652954 -0.00044193264 -0.02542809 0.0029442867 0.020394579 -0.047719024 0.012660384
-0.024873974 -0.060113654 -0.06443773 0.003804269 -0.04517508 -0.010547702 -0.0024430444 -0.021618554
-0.04958847 0.031188952 -0.052158613 0.0036744312 -0.023821337 -0.036031134 -0.0060348567 0.001604245
0.011873167 -0.016190242 -0.012520521 -0.016788457 -0.030068187 -0.035700016 -0.067745514 0.055840462
0.005360006 -0.07945578 -0.03885446 0.0045772223 -0.015589428 0.0096345935 0.012738172 -0.08370264
0.035266563 -0.030243147 0.0444056 -0.0075507625 0.050407324 0.023732897 -0.03126238 -0.05151335
-0.009980104 -0.119241215 -0.07310904 -0.0004094892 -0.04013555 0.018469725 0.005480375 -0.013072794
-0.023236727 0.0033237184 -0.03267189 -0.021643108 -0.08044614 0.022972796 0.009152397 0.021939926
0.012196481 -0.06733887 -0.013125699 -0.03867472 -0.055914935 -0.03856118 -0.06871108 -0.020479627
0.019633997 -0.010914901 -0.022390284 -0.021269238 -0.018786285 0.021912906 -0.06116292 -0.062092397
0.036703657 0.010380762 -0.025346585 -0.038834147 -0.038110014 -0.04473047 -0.06473181 -0.033497892
-0.054325838 -0.047739707 -0.0027600613 -0.023354381 -0.07663229 -0.043310404 -0.01289995 -0.027410792
-0.09988726 0.037695773 0.011374181 -0.017291542 0.00080727873 -0.056678113 -0.084917955 -0.06447164
-0.08502623 -0.03908868 0.012463806 -0.07376447 -0.0031387224 -0.016935866 -0.0024891298 0.02691191
-0.021734638 0.048127845 -0.023242282 0.03982927 -0.038098473 -0.010522294 0.062330388 0.02295685
0.056998033 0.0007824435 -0.056606468 -0.0064630574 -0.02755899 0.027114995 0.025316734 -0.06642621
-0.016739124 0.02731314 -0.026710277 -0.011935356 -0.026431205 -0.0122810975 -0.0429286 0.028492672
-0.062321674 0.037214246 -0.052633643 -0.016499193 -0.056650627 -0.031149304 -0.035728373 0.0030710895
0.056464672 -0.024373902 -0.0901258 -0.011057865 0.0011279467 -0.032972436 -0.06983258 -0.039587837
0.01672768 -0.00030869467 -0.0150405215 0.030124044 -0.0055301106 0.0252431 0.0099509135 -0.016638698
0.009539985 -0.043948874 -0.04730473 0.013430521 0.01762411 0.032456897 -0.03713071 -0.08531814
-0.011178261 -0.09816945 -0.048952583 0.039456416 -0.0032866518 -0.016555771 0.0012205172 -0.007577608
-0.070524395 0.006178412 -0.0008445237 -0.06323356 -0.054725785 0.029804213 -0.03248787 -0.006614102
0.0018629405 -0.03910676 -0.03558893 -0.08901919 -0.045271706 -0.013113337 0.0053189117 -0.0152485855
0.0066382447 -0.0020582057 -0.009665101 0.041874144 0.00029640296 -0.020961018 0.02347574 0.040801052
-0.08095042 0.011252318 0.01452451 -0.02433294 -0.02060608 0.038013108 -0.045657355 -0.009367875
0.009083536 -0.052673258 -0.008408965 0.028100025 -0.047658946 -0.0011466036 -0.0020684907 0.01472873
-0.02551945 -0.040401306 -0.010943204 0.024731342 -0.01740002 0.028466014 -0.09869681 -0.08089485
00000000: fbcd 9d3a 5d47 45b9 eec3 68bc d8e9 acbd
00000010: d9fc 773d 5c0c 8cbd 7bb5 933c 89ab a2bc
00000020: f695 1fbd 72d9 74bd 9f67 c73c 25d6 653d
00000030: 7bac adbc 904f 0dbd 2841 603c 1980 9dbd
00000040: e6af 383d 7fd0 97bd 0e44 d93c 63a7 97bb
00000050: 5c31 543d d9cd e5bc 15cb 5abc e788 193c
00000060: c4e2 613d c3f8 91bc 744b 80bd 1118 2b3d
00000070: d909 003b 7eef 1bbd 67c9 ab3c a492 113d
00000080: 5b63 02bd d7c3 c1bc 32b3 e7b9 924e d0bc
00000090: eff4 403b 8812 a73c 0675 43bd 806d 4f3c
000000a0: 81c4 cbbc bc39 76bd eef7 83bd 0b51 793b
000000b0: 8109 39bd 45d0 2cbc 7c1b 20bb 6519 b1bc
000000c0: 481d 4bbd f97f ff3c 45a4 55bd bace 703b
000000d0: f724 c3bc 6295 13bd 0cc0 c5bb 8845 d23a
000000e0: ac87 423c 66a1 84bc df22 4dbc f287 89bc
000000f0: 8f51 f6bc 2e3a 12bd 29be 8abd f8b8 643d
00000100: fda2 af3b b6b9 a2bd db25 1fbd 86fc 953b
00000110: cd6a 7fbc 6ada 1d3c c4b3 503c 4a6c abbd
00000120: ac73 103d 7ac0 f7bc a5e2 353d 636c f7bb
00000130: e977 4e3d 7e6b c23c fb0c 00bd aaff 52bd
00000140: 9783 23bc bd34 f4bd 31ba 95bd b6b0 d6b9
00000150: 2d65 24bd d24d 973c b894 b33b 462f 56bc
00000160: f35a bebc bed2 593b f6d2 05bd e34c b1bc
00000170: f2c0 a4bd 7231 bc3c eff3 153c 5cbb b33c
00000180: c0d3 473c f6e8 89bd 2c0d 57bc 6269 1ebd
00000190: 0f07 65bd 54f2 1dbd 65b8 8cbd e4c4 a7bc
000001a0: 7ad7 a03c 6ad4 32bc d46b b7bc d33c aebc
000001b0: b2e5 99bc b282 b33c f885 7abd 9954 7ebd
000001c0: 9356 163d 1214 2a3c a4a3 cfbc 8e10 1fbd
000001d0: 3f19 1cbd 4c37 37bd 1c92 84bd 1635 09bd
000001e0: c584 5ebd b68a 43bd 25e2 34bb b051 bfbc
000001f0: 64f1 9cbd 4066 31bd 505a 53bc 998c e0bc
00000200: b191 ccbd e266 1a3d c65a 3a3c fea6 8dbc
00000210: 8f9f 533a 4f27 68bd 77e9 adbd b509 84bd
00000220: 3b22 aebd 741b 20bd fe34 4c3c d411 97bd
00000230: 06b3 4dbb 16bd 8abc ab20 23bb 5e76 dc3c
00000240: d70c b2bc b421 453d 9966 bebc 0424 233d
00000250: 250d 1cbd b365 2cbc 264e 7f3d 0110 bc3c
00000260: c576 693d e51c 4d3a 2fdc 67bd 0ec8 d3bb
00000270: 64c3 e1bc 4420 de3c 0a65 cf3c 770a 88bd
00000280: 7d20 89bc cebf df3c 83cf dabc 838c 43bc
00000290: 4186 d8bc a836 49bc e6d5 2fbd 7769 e93c
000002a0: 0345 7fbd f76d 183d 6096 57bd 5129 87bc
000002b0: 7d0a 68bd d32c ffbc ea57 12bd 5544 493b
000002c0: 8047 673d c7ab c7bc e093 b8bd 0c2c 35bc
000002d0: 9cd7 933a 1b0e 07bd 6204 8fbd db26 22bd
000002e0: 7d08 893c 4cd8 a1b9 856c 76bc b3c6 f63c
000002f0: ee35 b5bb 9eca ce3c 2809 233c e14d 88bc
00000300: 994d 1c3c bc03 34bd 9bc2 41bd b00b 5c3c
00000310: 7060 903c 86f1 043d 5f16 18bd 47bb aebd
00000320: 0625 37bc 110d c9bd 8182 48bd 0d9d 213d
00000330: de64 57bb f89f 87bc c3f9 9f3a 954d f8bb
00000340: 186f 90bd 4774 ca3b 0763 5dba 9980 81bd
00000350: 2528 60bd f727 f43c 0012 05bd 1cbb d8bb
00000360: e92d f43a 692e 20bd b3c5 11bd b14f b6bd
00000370: d36e 39bd 52d9 56bc 444a ae3b 34d5 79bc
00000380: a285 d93b f6e2 06bb 5f5a 1ebc 3984 2b3d
00000390: 8866 9b39 71b6 abbc 3250 c03c 011f 273d
000003a0: 55c9 a5bd a45b 383c 36f8 6d3c e055 c7bc
000003b0: 15ce a8bc a2b3 1b3d 3503 3bbd b77b 19bc
000003c0: 1dd3 143c eabf 57bd c1c5 09bc 0632 e63c
000003d0: 0736 43bd a249 96ba 848f 07bb c550 713c
000003e0: 2a0e d1bc d77b 25bd 204b 33bc 6299 ca3c
000003f0: 7d8a 8ebc 8f31 e93c 8e21 cabd 33ac a5bd

mlp_1/MLP_0_1/hidden_0_1/Cast/ReadVariableOp:0 f4 [64, 512]
0.032265633 0.120153055 -0.07078742 0.22068444 0.062909365 0.058546685 -0.06441262 -0.077562936
0.09150929 0.099796146 0.025571832 -0.093775384 0.0281162 -0.10158758 -0.09326913 0.16896518
-0.06899257 -0.040282685 0.13262962 -0.22371459 -0.30554506 -0.25632393 -0.09516167 -0.06225062
-0.29175618 0.07840564 -0.17717618 -0.25063404 0.26722077 -0.16936459 -0.027664173 -0.21320985
0.07326334 -0.06917414 0.2649641 -0.13628063 0.11576723 0.1338942 0.12703167 0.17687169
0.09375316 0.023589782 -0.1242794 -0.14714442 0.2380727 0.08294248 -0.015372686 0.17276295
-0.11937981 0.124152295 0.08669318 -0.06633973 -0.055037748 -0.030914638 0.13226198 0.22166108
0.15971383 -0.18717849 0.18902901 0.115534745 0.27439198 0.04940615 0.021803647 0.017733173
6.343469e-05 0.06316841 0.2349451 0.14069398 -0.14323592 -0.015520564 -0.12881175 0.21226853
-0.20264989 -0.18540524 -0.18291877 -0.19132762 0.15874939 0.11610417 0.29636553 -0.09073914
0.015521706 0.22899115 0.048962325 0.09299364 0.18134406 0.100585744 -0.07608102 -0.0145007325
-0.115823165 -0.103861526 0.09580913 0.16788697 -0.0529137 -0.167285 -0.041478828 0.25012854
0.09840625 -0.25049916 -0.034036554 0.24670972 -0.16905719 0.061288405 -0.017147329 0.074226566
-0.176483 0.09549187 0.24167132 -0.12952407 0.0898108 0.17321587 -0.09088511 0.19604114
0.0029919194 0.18942963 0.005809562 0.09673308 -0.05123272 -0.16058388 0.07581682 0.008092749
-0.1831353 -0.038278174 0.0395828 0.06716552 -0.09974139 -0.29380602 0.010884915 -0.1199512
-0.13116536 0.055139385 -0.2198219 -0.22102745 -0.21323507 -0.13498415 0.11161146 0.050320137
-0.033654295 0.09579202 0.18340504 -0.098312765 0.023704167 0.1446701 0.11979626 0.00820673
0.0051813647 0.030709907 -0.21518427 0.10773791 0.07759393 -0.26163033 0.058831915 0.050322838
-0.06125103 0.0829167 0.06921994 0.024888968 0.09052131 -0.05256214 -0.25323588 0.113480225
0.024770984 0.051522505 0.27124754 0.21157444 -0.0736759 -0.0043101534 0.20121819 0.1810248
0.25848636 -0.14359821 -0.027511617 -0.09654571 0.15685149 -0.282519 -0.03761346 0.13975735
0.21445864 -0.12586258 -0.06982286 -0.091141246 -0.02952267 0.10911648 0.2661423 -0.07148714
-0.11731903 0.1572294 0.25282753 -0.21018212 -0.06847115 0.13563724 0.23970373 -0.30793807
0.118172295 -0.034050323 -0.25121942 0.06412512 -0.105211824 0.22429454 0.13660572 -0.1617272
0.32452857 0.07830019 0.049643897 0.25115544 -0.118471794 -0.19085747 0.20890327 0.14257768
0.09708583 -0.21212767 0.11969016 0.0047316654 0.12470282 0.1376327 -0.08886824 -0.00411291
0.10654514 -0.15057017 0.17995156 -0.19426723 0.16018975 0.15124957 -0.0058744806 0.22447109
0.18173885 0.17301214 -0.08452345 -0.1648718 0.2322979 -0.1868367 0.050826397 -0.18194717
-0.007873023 -0.019351758 0.23291452 0.27370715 -0.2575482 -0.03869554 -0.11186684 0.11717317
0.24493054 -0.024038367 0.2698462 0.12741788 -0.12957719 0.32581207 -0.27450565 0.23423243
-0.14041024 0.116023175 -0.14309515 -0.27792075 0.057312045 -0.22907396 -0.17782813 -0.16912161
00000000: f828 043d ce12 f63d fff8 90bd 1afb 613e
00000010: a0d6 803d a6ce 6f3d c4ea 83bd 51d9 9ebd
00000020: 3969 bb3d ec61 cc3d 057c d13c 4f0d c0bd
00000030: f253 e63c 260d d0bd e303 bfbd 3505 2d3e
00000040: fa4b 8dbd 75ff 24bd 0fd0 073e 7015 65be
00000050: 6770 9cbe e43c 83be 1fe4 c2bd 82fa 7ebd
00000060: 1161 95be 2393 a03d ac6d 35be 1b53 80be
00000070: 29d1 883e e96d 2dbe fa9f e2bc af53 5abe
00000080: 170b 963d 2cab 8dbd 60a9 873e 268d 0bbe
00000090: 5f17 ed3d 901b 093e 9714 023e da1d 353e
000000a0: a801 c03d 5c3f c13c 3386 febd 07ad 16be
000000b0: 54c9 733e bfdd a93d b8dd 7bbc c5e8 303e
000000c0: 677d f4bd 8f43 fe3d 328c b13d 20dd 87bd
000000d0: 436f 61bd b240 fdbc af6f 073e 1ffb 623e
000000e0: 068c 233e b8ab 3fbe d290 413e 7b9d ec3d
000000f0: 1b7d 8c3e 1a5e 4a3d 909d b23c 2945 913c
00000100: 3d08 8538 705e 813d 7395 703e 1512 103e
00000110: 70ac 12be f749 7ebc 3ae7 03be ec5c 593e
00000120: 7483 4fbe dfda 3dbe 0f4f 3bbe 63eb 43be
00000130: 338f 223e 06c8 ed3d 39bd 973e 71d5 b9bd
00000140: c14e 7e3c a87c 6a3e b88c 483d 7373 be3d
00000150: 42b2 393e e6ff cd3d 5ed0 9bbd 7b94 6dbc
00000160: b234 edbd 5ab5 d4bd 9437 c43d 90ea 2b3e
00000170: 09bc 58bd c24c 2bbe b4e5 29bd d910 803e
00000180: 3789 c93d 6d41 80be ea69 0bbd 79a1 7c3e
00000190: 541d 2dbe 8d09 7b3d 8e78 8cbc 1904 983d
000001a0: f6b7 34be 3e91 c33d b078 773e f5a1 04be
000001b0: baee b73d 805f 313e f921 babd 02bf 483e
000001c0: 1414 443b d7f9 413e 235e be3b fe1b c63d
000001d0: 67d9 51bd 1a70 24be d945 9b3d 7397 043c
000001e0: d287 3bbe 93c9 1cbd 9321 223d 138e 893d
000001f0: 3745 ccbd be6d 96be a456 323c faa8 f5bd
00000200: 3650 06be d6d9 613d fe18 61be 0555 62be
00000210: 4b5a 5abe 4939 0abe 8d94 e43d 7d1c 4e3d
00000220: 16d9 09bd 9b2e c43d 88ce 3b3e 3458 c9bd
00000230: 3e2f c23c 6624 143e be57 f53d 8575 063c
00000240: 70c8 a93b 5893 fb3c 4459 5cbe b1a5 dc3d
00000250: 91e9 9e3d 69f4 85be bcf9 703d 521f 4e3d
00000260: 5ce2 7abd 3bd0 a93d 2fc3 8d3d f3e3 cb3c
00000270: 3d63 b93d 664b 57bd 22a8 81be 5268 e83d
00000280: 85ec ca3c 4309 533d f5e0 8a3e f8a6 583e
00000290: 64e3 96bd 303c 8dbb 240c 4e3e 915e 393e
000002a0: 5358 843e 690b 13be 0b60 e1bc c2b9 c5bd
000002b0: ad9d 203e 55a6 90be 9210 1abd 8d1c 0f3e
000002c0: 0c9b 5b3e 1fe2 00be 4aff 8ebd 43a8 babd
000002d0: 87d9 f1bc 7678 df3d ce43 883e da67 92bd
000002e0: f644 f0bd be00 213e 9c72 813e fb39 57be
000002f0: 9a3a 8cbd 7de4 0a3e e574 753e 0faa 9dbe
00000300: 5104 f23d 5a78 0bbd d59f 80be 0854 833d
00000310: 4c79 d7bd 78ad 653e 5fe2 0b3e d19b 25be
00000320: 9c28 a63e da5b a03d 6657 4b3d 7297 803e
00000330: 57a1 f2bd 2470 43be bdea 553e e2ff 113e
00000340: f0d4 c63d ff37 59be 1d20 f53d 160c 9b3b
00000350: 3164 ff3d 96ef 0c3e 8d00 b6bd 97c5 86bb
00000360: 5734 da3d 112f 1abe 3945 383e fded 46be
00000370: c808 243e 2be1 1a3e b77e c0bb c0db 653e
00000380: c019 3a3e 182a 313e a11a adbd 27d4 28be
00000390: 80df 6d3e 1f52 3fbe 572f 503d 5c50 3abe
000003a0: dafd 00bc 9487 9ebc 2581 6e3e 5823 8c3e
000003b0: 5cdd 83be 377f 1ebd 711a e5bd 7df8 ef3d
000003c0: 12cf 7a3e 1cec c4bc 4829 8a3e d579 023e
000003d0: e2af 04be d7d0 a63e 018c 8cbe a0da 6f3e
000003e0: b4c7 0fbe 8f9d ed3d 8987 12be a14b 8ebe
000003f0: 09c0 6a3d 5d92 6abe 9418 36be 372e 2dbe

mlp_1/MLP_0_1/hidden_0_1/BiasAdd/ReadVariableOp:0 f4 [512]
-0.019023078 -0.00023280259 0.0067692916 0.020568559 -0.010013006 0.014438425 0.025471631 -0.026308047
-0.039886653 0.037182774 -0.030135525 0.040869195 -0.02491813 -0.019011376 -0.043213036 -0.05681489
-0.0639602 0.039598834 -0.012467142 -0.09242263 -0.061341807 -0.0077936035 0.037546623 -0.028439492
-0.07983133 0.029496804 -0.031436875 -0.03737826 0.0033676669 -0.020042453 -0.058860946 -0.06589198
-0.006779148 -0.065545216 0.007874776 0.008393562 -0.0463325 -0.05670742 0.02766227 -0.010667492
-0.04052355 0.008812585 -0.031124674 0.04964387 -0.08096684 0.032274675 0.015312514 -0.007224949
-0.0291259 0.01122743 -0.06612166 -0.0329523 -0.013772704 -0.047987916 -0.009110692 0.06571151
-0.022178525 0.026759379 -0.017248921 -0.02445505 0.0057642995 -0.05820323 0.018365575 -0.0022079584
-0.06054516 0.046319894 -0.031362947 -0.030658009 -0.08154486 -0.041837372 -0.01238082 -0.06002938
-0.04873045 -0.02771858 -0.11838733 0.008384491 -0.02161391 0.0050407383 -0.00963532 -0.041664645
0.023620026 -0.019933123 -0.02584048 0.058039337 -0.049014006 0.0057003843 -0.016718887 -0.029168276
0.0026414664 -0.02990923 0.06179873 0.04919044 -0.016335327 -0.05016541 -0.05077929 -0.030439768
-0.064827524 -0.09717556 -0.009191662 -0.020329928 -0.06325422 -0.007466707 0.0067061875 -0.0067055146
-0.020642512 -0.0032962742 -0.002969484 0.041116197 -0.001306106 0.015849952 -0.017639117 -0.001036485
0.045205444 -0.02884183 -0.035689604 0.026276996 0.011129797 -0.016109148 -0.031753924 0.042201817
-0.041392688 -0.043584693 -0.0043387865 -0.049809456 0.0105503425 -0.05418757 0.00805194 -0.10633832
-0.0362388 -0.016333697 -0.038652014 -0.06214985 0.017889634 -0.088353954 -0.098128006 -0.038420748
-0.0032088638 -0.014438297 -0.030176325 -0.08128536 -0.0563594 -0.024373129 0.046413954 -0.040876824
-0.025081545 -0.04607758 -0.0029772155 0.048100937 -0.00021565662 -0.032516222 0.019155301 -0.065847464
-0.019527506 -0.03859771 -0.052485634 -0.027458254 -0.017664086 -0.0074708024 -0.031996727 -0.058950674
0.026222125 -0.03486681 0.003644543 0.031878714 -0.05882134 0.030429 -0.02513064 -0.042316534
0.08332577 -0.06239469 0.003115333 -0.020835545 -0.047353 0.04006974 -0.043277435 -0.015691755
0.037492193 -0.012593839 -0.018085577 -0.035744615 0.04617944 0.030319907 -0.038846344 -0.01231039
-0.029251229 0.03325507 -0.02390881 -0.049942102 -0.014951734 -0.017422725 0.08055776 -0.06405361
0.076202 0.03238091 -0.009124502 -0.02179923 -0.11701114 -0.025526028 -0.04239686 -0.011480855
0.025993515 -0.0537786 -0.013962653 -0.021149276 -0.061741777 -0.013728331 -0.08738207 -0.030173203
-0.059079915 -0.05868217 0.020571165 0.06301762 0.013469971 -0.085611075 0.034836765 -0.0065020565
0.034863833 -0.03785055 -0.015270456 -0.034704477 0.0059992694 -0.038770955 0.016226212 -0.068630405
-0.0110513875 0.0003417793 -0.011134793 0.028783608 -0.04549969 -0.046516452 -0.024760172 0.05060938
-0.023971235 -0.0024221637 -0.038244165 -0.020857817 -0.04420267 0.0080404775 -0.029379098 -0.039059155
-0.00039052594 -0.059102938 0.029805314 -0.034917224 0.009928765 -0.025495024 -0.016468413 -0.015689606
-0.030145764 -0.04363938 -0.04453989 -0.017700795 -0.021374207 -0.04796677 -0.021747926 -0.0019981447
00000000: 49d6 9bbc 781c 74b9 efd0 dd3b 657f a83c
00000010: 970d 24bc 258f 6c3c e2a9 d03c f983 d7bc
00000020: 3060 23bd f74c 183d c7de f6bc 7566 273d
00000030: 1b21 ccbc bfbd 9bbc 2700 31bd bbb6 68bd
00000040: 91fd 82bd 6332 223d fc42 4cbc 1348 bdbd
00000050: 8c41 7bbd 7c61 ffbb 7dca 193d f0f9 e8bc
00000060: 9c7e a3bd 48a3 f13c f4c3 00bd f219 19bd
00000070: 13b4 5c3b 1230 a4bc 2d18 71bd 60f2 86bd
00000080: 9d23 debb 923c 86bd 3405 013c 2785 093c
00000090: 26c7 3dbd 0a46 68bd fc9b e23c b4c6 2ebc
000000a0: 06fc 25bd a962 103c 2cf9 febc 5f57 4b3d
000000b0: f1d1 a5bd 7332 043d 57e1 7a3c 44bf ecbb
000000c0: 7099 eebc 41f3 373c cb6a 87bd fef8 06bd
000000d0: e8a6 61bc fa8e 44bd 0345 15bc c293 863d
000000e0: bdaf b5bc 7c36 db3c 9c4d 8dbc f555 c8bc
000000f0: 73e2 bc3b 8366 6ebd 6773 963c 65b3 10bb
00000100: 34fe 77bd eeb9 3d3d 6f76 00bd 8126 fbbc
00000110: fe00 a7bd aa5d 2bbd ecd8 4abc 5ee1 75bd
00000120: 9599 47bd 1312 e3bc 0e75 f2bd 1b5f 093c
00000130: a80f b1bc c72c a53b 76dd 1dbc 8ca8 2abd
00000140: c97e c13c ca4a a3bc 6aaf d3bc a8ba 6d3d
00000150: e9c2 48bd 4aca ba3b 0cf6 88bc 4ff2 eebc
00000160: 741c 2d3b 3404 f5bc aa20 7d3d ea7b 493d
00000170: aad1 85bc 3f7a 4dbd f2fd 4fbd d25c f9bc
00000180: 4bc4 84bd fb03 c7bd a098 16bc f38a a6bc
00000190: 6e8b 81bd 47ab f4bb 94bf db3b efb9 dbbb
000001a0: 7c1a a9bc 4e06 58bb ad9b 42bb 7569 283d
000001b0: a531 abba c2d7 813c e97f 90bc aada 87ba
000001c0: 5829 393d b445 ecbc 432f 12bd db42 d73c
000001d0: c159 363c 55f7 83bc 6710 02bd d0db 2c3d
000001e0: 618b 29bd dd85 32bd 612c 8ebb 0005 4cbd
000001f0: 58db 2c3c c9f3 5dbd 49ec 033c e8c7 d9bd
00000200: 236f 14bd 3fce 85bc 9351 1ebd d790 7ebd
00000210: 488d 923c ebf2 b4bd 56f7 c8bd 135f 1dbd
00000220: cd4b 52bb 9b8e 6cbc 5734 f7bc f078 a6bd
00000230: 1dd9 66bd 28aa c7bc 8f1c 3e3d 756e 27bd
00000240: d077 cdbc d8bb 3cbd 631d 43bb 7d05 453d
00000250: e221 62b9 bb2f 05bd 94eb 9c3c 09db 86bd
00000260: 26f8 9fbc a218 1ebd 2dfb 56bd 22f0 e0bc
00000270: 46b4 90bc a2cd f4bb 000f 03bd 4376 71bd
00000280: c8cf d63c 80d0 0ebd 49d9 6e3b 4193 023d
00000290: a5ee 70bd 3d46 f93c c6de cdbc 1a54 2dbd
000002a0: b4a6 aa3d 9391 7fbd 9d2a 4c3b 4eaf aabc
000002b0: 38f5 41bd 2b20 243d ae43 31bd ff8b 80bc
000002c0: 6a91 193d 6456 4ebc 3428 94bc f268 12bd
000002d0: a726 3d3d 7461 f83c 581d 1fbd 85b1 49bc
000002e0: 46a0 efbc 7836 083d 69dc c3bc 1790 4cbd
000002f0: 1ef8 74bc 1aba 8ebc 78fb a43d 8a2e 83bd
00000300: cb0f 9c3d d8a1 043d ef7e 15bc 4c94 b2bc
00000310: 89a3 efbd f61b d1bc 54a8 2dbd 321a 3cbc
00000320: 5af0 d43c f346 5cbd 9dc3 64bc 3f41 adbc
00000330: f2e4 7cbd cbec 60bc 5ff5 b2bd cb2d f7bc
00000340: c8fd 71bd b75c 70bd dc84 a83c 620f 813d
00000350: 27b1 5c3c dc54 afbd ffb0 0e3d 340f d5bb
00000360: 61cd 0e3d 2e09 1bbd ef30 7abc 4826 0ebd
00000370: 8595 c43b 4bce 1ebd d5ec 843c 198e 8cbd
00000380: e110 35bc d730 b339 b56e 36bc 9acb eb3c
00000390: e25d 3abd 0988 3ebd d8d5 cabc c84b 4f3d
000003a0: 535f c4bc 2abd 1ebb eaa5 1cbd 03de aabc
000003b0: dc0d 35bd 35bc 033c 6fac f0bc 7efc 1fbd
000003c0: 81bf ccb9 ec15 72bd 462a f43c 5d05 0fbd
000003d0: 42ac 223c f1da d0bc c4e8 86bc 7d87 80bc
000003e0: 40f4 f6bc 35bf 32bd 766f 36bd 4201 91bc
000003f0: f618 afbc ce78 44bd b528 b2bc 4ef3 02bb

ConstantFolding/mlp_1/truediv_recip:0 f4 [64]
3.3156562 1.9200331 5.0053554 0.37803888 0.721426 0.4602517 6.280803 3.51557
5.7733355 3.679764 4.549954 3.64627 4.1383295 5.0849857 4.995769 3.9394329
5.0813236 5.1698604 4.5356245 7.9879465 5.113724 4.6895757 7.1697717 4.587582
8.076661 5.043605 4.8823967 7.0656524 0.1742234 0.18394317 0.1812641 0.17428768
0.18455611 0.17612618 0.22976097 0.32626888 0.18110111 0.19219787 0.23028642 0.2310499
0.36259145 0.18401279 0.1884496 0.22520354 1.9624094 1.9172179 1.9872693 1.8443545
1.9532247 1.9192324 1.9538704 1.9057077 1.9633938 1.9149861 1.9499749 1.9324925
2.1902804 1.937061 1.9439414 1.9053658 1.3500508 1.356711 1.5003229 1.5003294
00000000: b633 5440 a5c3 f53f df2b a040 508e c13e
00000010: 60af 383f 1ca6 eb3e 57fc c840 19ff 6040
00000020: 2abf b840 4181 6b40 3999 9140 7d5c 6940
00000030: 326d 8440 34b8 a240 57dd 9f40 ab1f 7c40
00000040: 349a a240 7f6f a540 d623 9140 429d ff40
00000050: a1a3 a340 0111 9640 c56e e540 79cd 9240
00000060: 013a 0141 3665 a140 983c 9c40 d319 e240
00000070: 9e67 323e 995b 3c3e 4c9d 393e 7878 323e
00000080: 47fc 3c3e 6c5a 343e 7646 6b3e b70c a73e
00000090: 9272 393e 85cf 443e 34d0 6b3e 5898 6c3e
000000a0: 96a5 b93e d96d 3c3e eff8 403e c29b 663e
000000b0: 3b30 fb3f 6567 f53f d75e fe3f cf13 ec3f
000000c0: 4403 fa3f 68a9 f53f 6d18 fa3f 3bee f33f
000000d0: 7d50 fb3f 441e f53f c798 f93f ea5b f73f
000000e0: 8e2d 0c40 9df1 f73f 12d3 f83f 07e3 f33f
000000f0: 77ce ac3f b5a8 ad3f 950a c03f cb0a c03f
