mujoco_playground/experimental/sim2sim/zeroth_policy.onnx (onnx, 809943 bytes, 10 tensors)

mlp_1/sub/ReadVariableOp:0 f4 [64]
00000000: 9a9d 8a3c 1206 7e3d 9e6d 143d 934e 10be
00000010: 694d 88ba df30 71bc fae2 48bc d2cf 3b3c
00000020: ec7c 74bf e442 06bc 3563 0f3b ee8e 6739
00000030: af3f fe3e 73bd 06bf 917e a53e e1fa 103f
00000040: 1b3d 233f 6cb6 b4be 03d6 c53d a0e6 63bc
00000050: 3777 a4be cee2 18bc d8cb 053e 3901 50bd
00000060: ca52 edbc e197 9c3e c4b6 a2bc 3b16 acbd
00000070: 0828 0b3e ae35 2abe 7ca8 dd3d 84c4 f63d
00000080: a6a6 2c3e 79e7 e6bd 9427 243d 4cde b5bb
00000090: 38bd dabd 6dab 2bbc 0fc5 5e3d 56f3 0dbd
000000a0: eaa9 e3ba 3030 db3d 512a 6a3c 8fe4 20bd
000000b0: fd19 053f 4923 0ebf 933d ae3e e306 163f
000000c0: 8d66 2c3f 7be1 bdbe ab18 d23d 9ff0 53be
000000d0: 2cb1 b1be 66f2 8cbc 69f8 263d 83b3 72bd
000000e0: b2d4 79be ab7d aa3e 40e6 44bc 8c88 b03d
000000f0: 2029 adbd 0fb7 c8bd 2ae2 5e3b 4247 83bb
0.016920853 0.062017508 0.03623735 -0.14092474 -0.0010399047 -0.014721124 -0.012261147 0.011463122
-0.95503116 -0.008194659 0.00218792 0.00022083122 0.49657962 -0.52632827 0.32323125 0.5663281
0.63765115 -0.35295427 0.0965996 -0.013909966 -0.32122204 -0.009331418 0.13066041 -0.050782416
-0.028970141 0.30584624 -0.01986254 -0.084026776 0.1358949 -0.1662204 0.108231515 0.12049201
0.16860446 -0.11274619 0.040076807 -0.0055501815 -0.10680622 -0.010477883 0.05438715 -0.03465589
-0.0017369364 0.107025504 0.014292316 -0.03928047 0.5199278 -0.5552259 0.34031352 0.5860426
0.6734398 -0.3708609 0.10258611 -0.20697258 -0.34705484 -0.017205428 0.040764246 -0.059253227
-0.24397543 0.33299002 -0.0120177865 0.08619794 -0.084551096 -0.09800541 0.0034009316 -0.0040062973

mlp_1/MLP_0_1/hidden_3_1/Cast/ReadVariableOp:0 f4 [128, 32]
00000000: c6ed c03c 279f 51bc 7802 843d 9bb3 573c
00000010: d9c5 77bd a7ee ae3c 78f1 b5bb 954d 653d
00000020: 57d9 41bc 0889 9d3c 6d1d a53c ac4a 313b
00000030: 6c89 003e 1093 abbc 0001 3fbd 817a 40bd
00000040: 448c e13c 0639 f13d 64c8 7cbc de48 143d
00000050: 38cf 6ebd 14ea 66bb f6b9 38be 2db0 fdbd
00000060: 8fff f83c bb32 8cbd ea0f 68bd 3033 bcbd
00000070: 255a 18be 5d94 923d c184 acbe 17a9 80bd
00000080: 42ec 613d c4d9 5fbb 721f b3bc 6a27 833a
00000090: 3621 a7bc cbb6 853b f12b 143d 994c fb3c
000000a0: 908e b33c df8a f63c 7bc5 a23d 60e3 b6bc
000000b0: 00bf a93d a802 bb3d e6c2 28bd 06c4 6bbb
000000c0: d8a4 3c3e d172 2b3d 2a15 12bd 79ca 5a3c
000000d0: 16fc 82bd 0d1e 133d 0d20 893d eeb0 61bd
000000e0: 01df 82bd 314e 5c3d 23c1 52bc 7495 843c
000000f0: 7f32 ebbd c11d 513e 0726 5dbd 90d1 d63d
00000100: 0ee4 883d cea3 ebbc 9a82 533d 180a 8dbc
00000110: 1b98 9dbc d706 3cbd ff1d f6bd 8ded c4bb
00000120: 66b9 88bc 335f 8b3c 4c8c 2abc 9594 153e
00000130: 8902 313d b482 09bd fd32 713d 53ef 663d
00000140: 5d54 3b3e c484 30bc 14b7 0e3e b54f e5bc
00000150: 9993 293b bf01 233c 5295 053f 6105 2c3b
00000160: eda0 353d 7ee7 6e3e e8d3 943d c5e2 d23e
00000170: 55ca 633d e166 b73d c4a2 803e ca6c 133e
00000180: 983e 81bd 9690 07bd 2c2e 7bbd 7633 17bc
00000190: 628c 84bd eee7 d33d 94ee bfbd 94a2 4d3d
000001a0: 9b14 1e3d c7cc 0ebd 918d 29be 2144 e33c
000001b0: dfd7 e0bd 78b9 3ebc 14ce b73d f463 c83d
000001c0: b786 efbd e094 373e 2b45 803d e588 febc
000001d0: 1b29 ec3d 17fd c83d 39b4 c23e b11a 603d
000001e0: 704d a53b b090 183e 97a3 4a3d 1c71 bd3e
000001f0: 4e27 953e 767f 0c3e 7ab2 ce3e 7e87 3d3e
00000200: 99e3 aebb 1abd 03bd 5e7a 843d 083a ac3c
00000210: 675b b1bb 5387 41bd 3ccc 3d3d 3c8d 4e3d
00000220: eb10 bfbc c47c 21bd 4bed 2f3d 9c73 ebbc
00000230: a919 f83c 9bc9 243d bc8f 293d f973 233d
00000240: 7801 083d 2b86 4abd a89a 203e 2d5b b53d
00000250: 45b9 db3c df4a b0bc 4433 26bb e162 0dbd
00000260: 8e47 a63d 92dc 0e3e 75a1 d43d 7429 6c3d
00000270: 2fe5 83bd 2667 093e 77fc 83bd 4298 f83b
00000280: 3249 9cbb f07e bb3d 0ca3 4cbb 7fd3 6bbd
00000290: 560b 04bd 862c 553d 05e2 3b3d a405 33bd
000002a0: d474 033d 7d39 08bd b9c0 953c 39ea e73d
000002b0: 12c6 693d ed6b efba affa b9bd f7ed 843d
000002c0: 2226 b13d cf2c d73c 48a7 7abc fc4c 023d
000002d0: a8c8 07bd 4028 0b3e a753 303e 68e8 303e
000002e0: 0f88 a8bc eaa4 903d 605e ae3d 2662 9d3e
000002f0: 058e 443d aa23 563e ca4f 4f3e cb30 603e
00000300: b05b 20bd b4dc d3bb 566f bc3c f87e cfbb
00000310: 5202 af3c 6632 7f3b 8468 763d 1a9e d43c
00000320: a83a 3f3b 4db8 463d 5eae 103d 14b1 703d
00000330: 3fc6 9e3d 8b20 3f3c e24d b33d a876 bcbd
00000340: 8176 3cbd 7a6d be3b 18c0 b8bc 9bfd 15bc
00000350: a93e 2bbd 8e4c a4bc bffd f8bd 09d7 ed3b
00000360: 1c9c e23c ea4a 1fbd 8deb 59bd 3e56 96bd
00000370: ef09 4dbe 5742 8dbd 7276 7fbe 7ab4 a0bd
00000380: 83ef e63b 37c2 173d 8108 fbbc 15a6 013d
00000390: 5016 8bbd 9b7c 443d fe17 a7bc 2af6 cfbd
000003a0: 80cc 23bb a37e 213a 9567 813c 5de4 a5bc
000003b0: 23ba acbc 6ad1 20bc 2239 a5bc 17c4 d53c
000003c0: b186 0c3d bf26 5c3d 0776 1ebd 9ef7 d13d
000003d0: 1538 81bd 54a1 19ba f02f 19be 5003 903d
000003e0: c882 f5bd bd07 babd 27cc 40bc ded0 d4bb
000003f0: 388c 5d3d 1a9d 813d 4cc6 51be 0f89 b33d
0.02355088 -0.0127942925 0.064457834 0.01316538 -0.060491417 0.021354033 -0.005552467 0.05598219
-0.011831603 0.01923038 0.020155633 0.0027052565 0.12552422 -0.020944148 -0.046631813 -0.04699183
0.027532704 0.117784545 -0.015428636 0.036202304 -0.058303088 -0.0035234736 -0.18039688 -0.123871185
0.030395297 -0.068456136 -0.0566558 -0.09189451 -0.14878137 0.07157204 -0.33695033 -0.06282251
0.055156954 -0.0034156898 -0.02186558 0.0010006253 -0.020401578 0.0040806285 0.03617472 0.030676173
0.021918565 0.030095516 0.07947823 -0.022325218 0.082883835 0.09131366 -0.041201495 -0.0035974993
0.18422258 0.041857544 -0.035664715 0.013353937 -0.06395738 0.03591733 0.06695566 -0.055100374
-0.06390191 0.053785507 -0.01286343 0.016184546 -0.11484241 0.20421506 -0.053991344 0.104891896
0.06684123 -0.028764632 0.051638223 -0.017216727 -0.019237569 -0.04590496 -0.1201744 -0.0060097636
-0.016689967 0.017013168 -0.010409426 0.14607461 0.04321531 -0.033571914 0.058886517 0.05638058
0.18293901 -0.010773841 0.13937026 -0.027992109 0.0025875329 0.009949147 0.5218097 0.0026248323
0.044342924 0.23330495 0.072669804 0.41188636 0.05561288 0.089551695 0.2512418 0.14396968
-0.06310767 -0.033096872 -0.06132333 -0.009228578 -0.064720884 0.103469715 -0.09371677 0.050203875
0.03859387 -0.03486326 -0.1655791 0.027742447 -0.10978674 -0.011640899 0.08974853 0.097846895
-0.11695617 0.17927885 0.06263193 -0.031071136 0.11531278 0.09813898 0.38028124 0.054712955
0.0050446317 0.14898944 0.049472418 0.37000358 0.2913155 0.13720497 0.40370542 0.18508717
-0.0053371903 -0.032162763 0.06468652 0.021023765 -0.0054125073 -0.047248196 0.04633735 0.05042766
-0.023323497 -0.039425626 0.04295091 -0.02874165 0.030285673 0.04023133 0.04139684 0.039905522
0.033204526 -0.04944436 0.15683997 0.08855281 0.026821742 -0.021520076 -0.0025360147 -0.034518126
0.08119117 0.13951328 0.10382358 0.05765672 -0.06440198 0.13418254 -0.06444638 0.00758651
-0.0047694677 0.09155071 -0.0031225113 -0.057574745 -0.032237373 0.052044414 0.045869846 -0.04370655
0.032093838 -0.03325795 0.018280374 0.11323971 0.05707366 -0.0018266417 -0.09081017 0.06490701
0.086498514 0.026266484 -0.015298672 0.0318117 -0.033150345 0.13589573 0.17219411 0.17276156
-0.02057269 0.07062705 0.08514094 0.30738944 0.047987003 0.20912042 0.20245281 0.21893613
-0.03914994 -0.006465519 0.023002308 -0.0063322745 0.021363411 0.0038939952 0.060158268 0.025954295
0.002917925 0.048515607 0.03532254 0.058762625 0.07752656 0.011665474 0.08755089 -0.092023194
-0.04601145 0.0058113905 -0.022552535 -0.009154703 -0.041807804 -0.020056035 -0.12157773 0.0072583
0.02766233 -0.038889803 -0.053203154 -0.07340668 -0.2002332 -0.06897419 -0.24947527 -0.07846923
0.007047595 0.037050452 -0.030643703 0.03165253 -0.06791365 0.047970396 -0.020397183 -0.10154374
-0.0024993718 0.0006160533 0.015796462 -0.020250494 -0.02108485 -0.009815553 -0.020168845 0.02609448
0.03430814 0.05374789 -0.03868678 0.10252307 -0.06309525 -0.00058605266 -0.14959693 0.07031882
-0.11987835 -0.09083507 -0.011767424 -0.0064946255 0.0540888 0.06328793 -0.204858 0.08766376

mlp_1/MLP_0_1/hidden_3_1/BiasAdd/ReadVariableOp:0 f4 [32]
00000000: 7bbe 993e fb44 23be 89dd 0c3e 0b50 b53e
00000010: c014 c73e 59a9 4ebd e1f3 803c 0502 f2bd
00000020: 8a61 0ebd b854 b8bb d7ff 4ebd 6804 7bbc
00000030: 6c92 08be b8e8 ca3c a8b6 48bb 91cc 493d
00000040: f1fc 9abe 09db 8fbe bc34 83be 4632 afbe
00000050: fcef b8be 7ad8 82be 2f6a bdbe 0a57 a1be
00000060: b329 97be 86a1 abbe 982d 4dbe 14fb dfbe
00000070: f929 9abe 2d24 9fbe 416f 8dbe 5256 5bbe
0.30028138 -0.15944283 0.13756384 0.3541263 0.38883018 -0.05045447 0.01574129 -0.118167914
-0.03476099 -0.0056253336 -0.050536957 -0.015320875 -0.13337106 0.024769172 -0.003062645 0.049267355
-0.30271104 -0.28096798 -0.2562617 -0.34218043 -0.36120594 -0.25555784 -0.36995074 -0.31511718
-0.29524 -0.3352167 -0.20036924 -0.43746245 -0.30110148 -0.31082287 -0.27623942 -0.21419647

mlp_1/MLP_0_1/hidden_2_1/Cast/ReadVariableOp:0 f4 [256, 128]
00000000: 79ef cdbd 84c1 a9bc 0246 6e3e b46c e73d
00000010: a6f3 60bd 0211 803e 0812 753d e995 223e
00000020: 9a30 e03d 17d0 7e3d d17b c43c 282f 163e
00000030: 46c9 a13d d74b e23d 45a4 57bd 1d0d b0bd
00000040: 98d6 aebd ecf8 8e3b ca81 2ebe d205 503c
00000050: 989e 513e 2df1 343e 97bc 5c3d b853 f03d
00000060: 3a66 1c3e 128f a93d 3a8a 113d 1ecd da3d
00000070: f7fa 39bb a68a 26be 980e 61bc b068 513e
00000080: 24eb 373e f2fb 59bd 2797 323e 38e8 5bbd
00000090: 905a fb38 65da 813e 658f 2f3b 7cc9 163e
000000a0: 9127 d63d b3a7 03bd a925 84bc 94e6 223e
000000b0: c7d9 1b3e f707 bf3d b7cd c63d a814 39bd
000000c0: 958a 0e3e 167a 5b3d eb63 bbbd 5111 9f3d
000000d0: 4a21 e63c 079f 753d 9bbf 443e 81af 9f3c
000000e0: 69dc 273d 9ab3 9fbd d126 3c3e d7af 4b3c
000000f0: ce27 513e 049c 0b3e e934 df3d 7819 c33c
00000100: 287d 153c 93e9 a13d 971d 50bc d7a7 60bd
00000110: ad0c 03be 66d4 333c 71cf 26bc ed7d e63d
00000120: 9834 debc 006c 423d 17f7 44b8 19be 1abd
00000130: fbb3 5ebd 8f24 053e b0dc 54bb b58b 123d
00000140: e7d6 863e f9d8 b8bd e11a 353e ac8f 563e
00000150: 2c1a e83d 3613 b63d d58f a23c 7797 163d
00000160: d9d8 1e3e 432a c7bd 79b1 b93c d33e 1c3e
00000170: 9204 0fbd 53f1 1d3e 1557 0f3d d3e6 64bd
00000180: e107 c6bc c7b0 873e c013 ec3d 71e6 2dbd
00000190: 0164 3c3d fe98 563e 1978 ed3d 632b 803d
000001a0: 615f dcbb d39b bebc d6cf 20bd 4bf0 1ebd
000001b0: 4c0a 743d ea07 cbbc f016 74bd c0e2 2a3e
000001c0: e396 1c3e fd79 7a3d 3c42 4b3e ccb7 c03d
000001d0: 7657 203d 93bc 0d3d 419c a73c c64c b63d
000001e0: 57ae 6d3d 2b39 e8bc 6e00 013e abc7 4d3d
000001f0: 6ffe 62bd 48d4 5c3c 694b 123d 1303 3bbd
00000200: e4ba f33d 2830 94bc cfec 2c3e d541 d73e
00000210: 3997 133d ae3d 7d3e 51fa a63c 694b 3abd
00000220: f358 053d 3ef5 e3bc 21e7 2b3e 0cbe 413d
00000230: f39a 163e 1b58 243e 8d1e fe3d 0fb3 d53d
00000240: 2121 073e 6fdb bb3c 1519 09bb 2751 e63d
00000250: 2c98 0abd 73b3 e4bd 067f b3bd bb95 edbc
00000260: 1672 4c3e f4ac 0e3e 2c57 c03c f678 3b3e
00000270: e894 87bc e81c 123e a070 cdbc 1285 2a3e
00000280: 376b ff3c 529b 483e 8a7b 983c e8c4 ef3c
00000290: ee58 823d ee65 483e 0e75 40bc 8d0f 0f3e
000002a0: 81be f53d 26d7 af3d e189 8fbc 8763 813d
000002b0: 1303 813e 40d2 d73d e675 693d f06b e2bb
000002c0: 66a2 633d 21c5 4a3d 3802 e83d a990 00ba
000002d0: 9e5d 6f39 49d9 e33b 0f18 94bc 8420 8f3e
000002e0: 4da3 d73d 6c36 db3d 7b90 2e3e 8650 333d
000002f0: 9f9f 25bd 5231 a5bd 9e14 e03d af09 783e
00000300: 7a61 1a3e db18 fabd 624a 83bc 6b88 d03d
00000310: d7f4 b1bd 31bc 883d 236c 23bc 5d1e 113e
00000320: 711b 273e 549c 723e ccc9 09bd d0d8 42bd
00000330: 8f8f 863b f303 b43c 99d6 093d 33d1 11bd
00000340: 02bc 9f3c 8a70 aebd 90d1 dd38 c317 8a3e
00000350: 2262 30bd 7e5d 323c 58cb 723e e4e9 b23d
00000360: 9923 583d a140 1c3c 4ed7 293c 4e4b fb3d
00000370: b0ce 423d c879 0f3e 6ecd 093e 9b27 b73c
00000380: 7ae6 c7bd 76db a13c 63d9 1bbd c59d 543e
00000390: 5dd7 aa3c 79e9 5a3e 57c3 243d f648 97bc
000003a0: 1d32 61bd 918e 8e3d b7f9 e33d 59ca 27be
000003b0: d03a 74bd e9df b0bd e85e dd3d b7d8 fe3d
000003c0: 6da7 e63c cf32 e83d 1713 a13e 358f 9cba
000003d0: 83fc d23d 66d6 a83d 2f32 ca3d e976 883d
000003e0: 7bc0 953d e51c c3bc 7117 e93d ef2c 02bb
000003f0: 826c 253e 1942 353d b8d2 ef3d 4201 373d
-0.100554414 -0.020722158 0.23268893 0.1130003 -0.05491986 0.25012976 0.05983165 0.15877499
0.1094677 0.06221017 0.023984822 0.14666426 0.07899718 0.110496216 -0.052646894 -0.08596251
-0.08537024 0.00436317 -0.17041698 0.0126967 0.20470655 0.17670126 0.05389079 0.11734718
0.15273371 0.082792416 0.035532214 0.10683654 -0.0028378346 -0.16263828 -0.01373639 0.20450091
0.17960793 -0.05321879 0.17440473 -0.053688258 0.00011985481 0.25361934 0.002678835 0.14725298
0.104567654 -0.032142352 -0.016131239 0.15908271 0.15219794 0.09327691 0.09707206 -0.045185715
0.13920052 0.053583227 -0.09149917 0.07766975 0.028092045 0.059966113 0.19213717 0.019492866
0.040981684 -0.07797928 0.18374182 0.01243206 0.2042534 0.13633734 0.10898764 0.023815855
0.009124078 0.07905879 -0.012702367 -0.054847565 -0.12797804 0.010975933 -0.010181294 0.11254487
-0.027124688 0.047466278 -4.6960162e-05 -0.037778948 -0.05437086 0.13002227 -0.0032480173 0.035777766
0.26335832 -0.09025759 0.17686035 0.20953244 0.11333117 0.08890383 0.019843975 0.036765542
0.15512408 -0.09724858 0.022667633 0.1525834 -0.034916468 0.15424089 0.034995157 -0.055884194
-0.024173679 0.26502058 0.115272045 -0.042456094 0.04599381 0.209568 0.115951724 0.06258275
-0.0067252372 -0.023267662 -0.039260708 -0.03880338 0.059580132 -0.024784047 -0.059592187 0.16688061
0.15291934 0.061151493 0.19849485 0.094100565 0.03914591 0.034603667 0.02046025 0.08901362
0.05802759 -0.028347572 0.1259782 0.050239246 -0.055418428 0.013478346 0.035716448 -0.04565723
0.11900881 -0.018089369 0.1688721 0.42042413 0.03603289 0.2473056 0.020383032 -0.045482073
0.03255553 -0.027826902 0.16787387 0.047300383 0.14707546 0.16049235 0.12408171 0.10434543
0.13196231 0.022931783 -0.002091949 0.11245947 -0.03383653 -0.1116704 -0.08764462 -0.029002061
0.19965395 0.13933164 0.023479067 0.18307862 -0.016550496 0.1426884 -0.025078118 0.16652325
0.031179054 0.195905 0.018613596 0.029268697 0.06364618 0.19570133 -0.011746658 0.13970776
0.11999226 0.08585958 -0.0175218 0.063178115 0.25197658 0.10538149 0.056997202 -0.00690984
0.055574797 0.049504403 0.11328548 -0.00049043685 0.00022827691 0.0069533926 -0.018077878 0.27954495
0.10529194 0.107037395 0.17047302 0.043777965 -0.04043543 -0.08066048 0.109414324 0.24222444
0.15076247 -0.12211772 -0.01602668 0.1018227 -0.086892776 0.0667652 -0.009974512 0.14171739
0.16319062 0.23692447 -0.033639714 -0.04757005 0.004106469 0.02197454 0.033651922 -0.0355999
0.019498829 -0.08517559 0.00010577135 0.26971254 -0.043062337 0.010886548 0.23710382 0.08736017
0.052768324 0.009536893 0.010366274 0.122702226 0.047560394 0.140113 0.13457271 0.022357753
-0.09760757 0.019757967 -0.038049113 0.2076331 0.020854646 0.21378125 0.040225353 -0.018467408
-0.054979432 0.06960786 0.11131614 -0.16385783 -0.0596264 -0.086364575 0.108091176 0.12443679
0.028156007 0.11337816 0.31459877 -0.0011944534 0.10302069 0.08244018 0.09872853 0.06663305
0.07312103 -0.023817489 0.11381424 -0.0019863208 0.16154674 0.04425249 0.11710113 0.044678934

mlp_1/MLP_0_1/hidden_2_1/BiasAdd/ReadVariableOp:0 f4 [128]
00000000: 5da6 bcbb 8dc4 0fbd 0fee f0bd e691 91be
00000010: 975f 33bc 81d0 e4bd 30e2 ab3c 9fba 3f3c
00000020: 0b97 663c 53bc 8ebd 2953 5fbd b1cd 41be
00000030: 8bf3 6abe bb07 e4bd cc2d 1fbe e058 95bd
00000040: d778 533d cf9d 3cbd 3135 b2b9 08cf c53c
00000050: 0011 0ebe 5356 20bd 340e dab9 e556 b6bb
00000060: e18f 34be b599 6bbe 7c22 8dbd 4c85 29be
00000070: 4ab6 b73c bb50 1fbb a3b9 6bbd d285 68bd
00000080: bc6c 2abd 63fd 6fbd 94dd 403d 6153 afbd
00000090: 007c 61be 8ffe 29be 90dc f5bd babe dbbd
000000a0: 12af 3dbe 123d fabd 1839 30bd c60c c3bd
000000b0: 357b 74be 2c61 aabd ac02 0dbe d873 1c3c
000000c0: 94bb 50be 02e4 4fbd 4d14 d03c b0fa 89bd
000000d0: abe7 cebb a472 9ebc e494 65be 8686 7bbe
000000e0: 5d5f 983a c0ed 55bc 35c8 69be ea71 d0bd
000000f0: fb27 5cbd df32 4ebe 46e4 43be 1b27 f0bc
00000100: 4571 f0bd 116b 2abd fdc1 02be 4fa2 803c
00000110: afc8 cf3c 86a7 7abe 237b c3bb 711c 55be
00000120: 165b 75be a1a3 76bd f710 9bbd f54b d1bd
00000130: 5082 2e3c 816b 49be a66b 153c ed87 b8bd
00000140: c47f fdbd 4f6a 263d fcd8 fbbd 92dd 26be
00000150: 74fe bebd 6b86 3ebd 96e5 3bbe d8c4 2bbe
00000160: d8f9 c5bd a417 2e3d f860 41bd 5042 58be
00000170: e783 86bc f7c6 aebd 366b 59be 1827 2f3d
00000180: 8d54 8bbd 133f eabd 6623 18be f016 dbbd
00000190: 1637 a6bb f01d 38be 5d98 8dbc c4b1 2abe
000001a0: 4370 22bd 4bc7 a5bd 0756 20be 26c2 e73c
000001b0: 0186 ae3c a87d b63c a7c1 47bd 4f46 45be
000001c0: 8c67 7e3d c6df feba e596 89bd 87fb acbd
000001d0: 2f04 c4bc 83cb 85bd 7bbf 663d d2f4 75bd
000001e0: b3b6 253d 80ed dcbd e885 35be b23e 06be
000001f0: c902 65be 55ab 92be 5044 15be fd4d 193d
-0.0057571367 -0.035099555 -0.11764156 -0.28431624 -0.010948083 -0.111725815 0.020981878 0.011702209
0.014074097 -0.06969514 -0.054522667 -0.18926121 -0.22944467 -0.11134287 -0.15544814 -0.07292342
0.051628914 -0.046048936 -0.00033990436 0.024146572 -0.13873672 -0.039144825 -0.00041590782 -0.005564558
-0.1763301 -0.23007853 -0.06891343 -0.16554755 0.02242579 -0.0024309594 -0.057550084 -0.056768246
-0.041607603 -0.058591258 0.047086313 -0.08560825 -0.22019958 -0.16601013 -0.120049596 -0.107297376
-0.18523815 -0.122186795 -0.0430232 -0.09523921 -0.23875125 -0.08319315 -0.1377055 0.009549104
-0.20384055 -0.050754555 0.025400305 -0.06737268 -0.006314238 -0.019341774 -0.22420079 -0.24563035
0.00116251 -0.013057172 -0.22830279 -0.101779774 -0.053749066 -0.20136593 -0.19130048 -0.029315522
-0.117403544 -0.041606013 -0.12769313 0.015702395 0.025364248 -0.24477968 -0.005965607 -0.20811631
-0.23960528 -0.060214642 -0.07571595 -0.10219566 0.010651186 -0.19669916 0.009119904 -0.09010301
-0.12377885 0.040628728 -0.12297246 -0.1629546 -0.09325877 -0.04651491 -0.18349299 -0.16774309
-0.096667945 0.042503014 -0.047211617 -0.21119046 -0.016420318 -0.08534043 -0.21232304 0.042761892
-0.06803236 -0.11437812 -0.14857253 -0.10697734 -0.0050724847 -0.1798017 -0.017284567 -0.16669375
-0.039657842 -0.08094653 -0.15657817 0.02829082 0.021304132 0.022276714 -0.048768666 -0.19265102
0.06211047 -0.0019445352 -0.06718234 -0.084464125 -0.023927776 -0.065329574 0.056334954 -0.060047932
0.04045744 -0.10787487 -0.17726862 -0.13109854 -0.22364344 -0.2864634 -0.1457684 0.03742789

mlp_1/MLP_0_1/hidden_1_1/Cast/ReadVariableOp:0 f4 [512, 256]
00000000: 1afb 6a3c 3367 6bbc 9d5d 7f3c 5465 7ebd
00000010: 3983 1cbd 6f11 333c 1899 f8bd e681 57bc
00000020: a6d8 133e 6fb1 ff3d 4f3b 86bd 8ad2 13be
00000030: 072f ee3c e227 5ebd 4ea6 13be fcff efbb
00000040: ba58 99bd 26c5 8abd c06a db3c 7a26 1e3d
00000050: da8b 37bc 00d4 79bd 3edc f1bd fea1 8bbd
00000060: f8c2 61bd 30a6 123d 15aa 96bd a511 c7bc
00000070: 9501 a93c 7582 23bb 14ef 9fbe 7848 92bd
00000080: 5b9e 4abe a1ab fd3d 8dd4 2dbd 9221 a6bd
00000090: f646 5f3d fa5c 483d 0d26 99bd fcbd 9abc
000000a0: 33c8 43bd 6c65 28bb 53b2 10be b6f2 6abd
000000b0: d812 483c a57d 17be d445 7abe 24f8 a9bc
000000c0: f704 bdbe ca46 11be 6cb7 80bd 23dc 01bd
000000d0: 2275 9a3d 3890 d1bd b6ca 98bd 02a2 853d
000000e0: 3cd2 2a3e d9df 1a3d 9f95 be3d 330d 01be
000000f0: 737f e23b a2e3 adbd 289c 01be eef4 e0bc
00000100: 8ac6 48be 7e38 8abc f4dd 8d3d 8f0c 85be
00000110: 17b0 e5bd ac79 f93c 8c8c e03d bc06 7abd
00000120: 87bd 51bc 35fa 40bd 0585 26bd 2707 38be
00000130: dac1 86be 75fa 873d 4bc4 1dbe f3a0 2f3d
00000140: 9e87 c1bd 1322 04be 5564 89bd 182c aa3d
00000150: 48ed 6abc 3b7a b7bd 9aa8 49bd d8c1 43be
00000160: 2c70 2f3d 8925 813d afa8 14bd dc20 c8bd
00000170: 257c 32be f692 30bc da24 bebb 6647 87bc
00000180: 7b24 193e 0e96 bebd 1e39 8a3d 1976 1abd
00000190: 40d6 c8bd e5c1 53bd 21fd fabd 5cf9 f2bd
000001a0: ba08 273d ebf6 1bbe 26af 71be 32b4 87be
000001b0: 1cf9 f53d b6cd 10be 12bf 49bd 4a03 b8bd
000001c0: b963 4d3d 3c11 78bd d943 b4bb 467c dfbd
000001d0: 21c7 55bd 7ba6 39be a6e7 f33b 5657 fe3c
000001e0: 13c5 e43c 3900 1f3e 6fdd e33d 901b 2f3d
000001f0: 4a4d 88be acd1 b13d 03e7 933d a934 33be
00000200: 2e24 9ebc f8fd 9b3d 1494 05be f584 c43d
00000210: fee9 983d 8089 bebd d2e3 963c 9b56 cebc
00000220: e164 67be cc8b 513d a175 a8bd f2d2 87be
00000230: 54c4 7abd f5c6 14be 7246 0fbd dd70 363c
00000240: 2ab0 3f3d 5eb5 933d 5c18 fbbd 0033 243d
00000250: eb95 393d f436 29bd ffd8 303d 5377 283d
00000260: 642a 9e3d e3cc 1cbd 7458 653d f629 d0bd
00000270: 1c69 213c aa8e fabd fd0a 1e3e f6dc dc3c
00000280: d06d 92bd 4547 65bd 89e1 e2bd 07a2 983d
00000290: dc7f 033e a7ca d6bd 39c6 8abd 4d34 42be
000002a0: 4692 b13d 31ea 05bd ef25 c33b 820e b9bd
000002b0: c810 bf3b 8ded 1439 e3a7 1d3d 53ea 94bc
000002c0: 1db0 02be f568 073d 6b23 953d 8102 4dbe
000002d0: 23ad 24bd 920b 0cbc 83c7 40bd dc4b a73d
000002e0: 9789 7f3d 1bae 04be 11e3 33bd 2b38 d9bd
000002f0: c7f4 75bd f82a 42bd ebba db3d 59ab 66bc
00000300: 5e6b a33d 57f1 5cbd b1ad 52bd b16b c73d
00000310: 01e2 a53d 071c 60bd 8b6e fa3d c164 88bd
00000320: 48f8 a33b 9315 90bc 9870 27be fb8e 83bd
00000330: 512b 993d 1f95 4bbd 0ca0 8dbb 4410 a73c
00000340: 4a01 b23d c68b 2b3c 2b6f 2b3d 6372 7ebd
00000350: d577 0a3d 42e8 fabc 6e3c e7bd 9044 9f3b
00000360: 7d96 d3bd 97a6 a1be ae90 e3bd f7fc 3a3d
00000370: ce8e b3bd 1937 6dbe 65d7 2f3d b20e d13d
00000380: 857a 81bd 867d e7bb 73d1 a03d 616f 163d
00000390: 1320 52bd d21d d23d 378c 2dbe 6404 0dbe
000003a0: 0e28 a6bd c85c ccbb 9060 10bd a4bc 9fbd
000003b0: 4610 c53d e307 283c 4514 65be dacf 7abc
000003c0: 9d56 b23d 7d46 0fbe e2fd babe 94d8 523c
000003d0: 2cfd 92bd d1d8 8e3b 5c87 17be fb2f 193d
000003e0: 3a06 183d 7b2a c03d 8e51 27be 0e89 fdbc
000003f0: bdc6 253d 94c7 183d f6c3 1ebe 047d 16be
0.014342094 -0.014367866 0.015586284 -0.062108353 -0.03821108 0.010929449 -0.12138575 -0.013153529
0.14438114 0.12485015 -0.06554281 -0.14435783 0.029075159 -0.054237254 -0.14418909 -0.007324217
-0.074876264 -0.06775884 0.0267843 0.038610913 -0.011202777 -0.060993195 -0.11809586 -0.06818007
-0.055117577 0.03580302 -0.07356659 -0.024300406 0.020630637 -0.0024949585 -0.3123709 -0.071427286
-0.1978697 0.12386251 -0.042439032 -0.08111872 0.054511033 0.048916794 -0.07477961 -0.01888942
-0.047798347 -0.0025695218 -0.14130525 -0.057360373 0.012211524 -0.14794023 -0.244407 -0.020748205
-0.3691785 -0.1418716 -0.06284985 -0.03170408 0.075418726 -0.10232586 -0.07460539 0.06525041
0.1668176 0.037811134 0.09305882 -0.12602691 0.006912166 -0.08490683 -0.12657225 -0.027460542
-0.19606987 -0.01687264 0.069271 -0.25986144 -0.11215227 0.030453525 0.10964307 -0.06104158
-0.0128015345 -0.047113616 -0.0406542 -0.17971478 -0.26319772 0.06639568 -0.15406911 0.042878103
-0.09449695 -0.12903623 -0.0670859 0.083091915 -0.014338799 -0.089588605 -0.049233057 -0.19116914
0.042831585 0.063059874 -0.03629368 -0.097718924 -0.1743017 -0.010777226 -0.005802733 -0.016513538
0.14955322 -0.093059644 0.067491755 -0.037710283 -0.0980649 -0.051698584 -0.12255312 -0.11863968
0.040779807 -0.1523091 -0.2360197 -0.26504666 0.120104045 -0.14140972 -0.049254484 -0.08985002
0.05014393 -0.06056331 -0.005501252 -0.10912375 -0.052191857 -0.18129914 0.007443386 0.031047504
0.027926004 0.15527429 0.111262195 0.042750895 -0.26621467 0.0868257 0.07221796 -0.17500557
-0.019304361 0.076168 -0.13044769 0.09595672 0.074665055 -0.0930357 0.01841918 -0.025187781
-0.22597076 0.05115871 -0.08225561 -0.26528126 -0.06122239 -0.14529021 -0.03497929 0.011135307
0.046798863 0.072123274 -0.122605056 0.0400877 0.04530899 -0.041312173 0.043175694 0.04112942
0.07722929 -0.038281333 0.05599256 -0.101642534 0.00985172 -0.12234242 0.15433879 0.026960831
-0.07149851 -0.05597617 -0.11078174 0.07452779 0.12841743 -0.104878716 -0.06776089 -0.18965264
0.086704776 -0.032694045 0.00595545 -0.0903597 0.005830858 0.00014202874 0.038490187 -0.01817814
-0.12762494 0.03305908 0.07282146 -0.20020486 -0.04020418 -0.00854768 -0.04706527 0.08168766
0.062387075 -0.12957041 -0.04391772 -0.10606416 -0.06004789 -0.04740426 0.10729011 -0.014078938
0.07979463 -0.053941097 -0.051435176 0.097373374 0.080997474 -0.05471423 0.12228116 -0.06659842
0.0050039627 -0.017588412 -0.16351545 -0.06423756 0.07478965 -0.04970276 -0.0043220576 0.020393498
0.08691652 0.010470336 0.041854065 -0.062120806 0.033805687 -0.030628327 -0.11290823 0.004860468
-0.10331438 -0.3157241 -0.1111158 0.045651402 -0.08767472 -0.2316555 0.042930026 0.10207881
-0.06322197 -0.007064524 0.07852449 0.036727313 -0.05130012 0.10259594 -0.16948019 -0.13771206
-0.081131086 -0.0062366463 -0.03524834 -0.07799652 0.096222445 0.010255787 -0.22371013 -0.015308345
0.087079264 -0.13991733 -0.36521822 0.012869019 -0.07177195 0.0043593426 -0.14797729 0.037399273
0.037115313 0.093831025 -0.16339704 -0.030949142 0.040472735 0.037299708 -0.1550444 -0.14696127

mlp_1/MLP_0_1/hidden_1_1/BiasAdd/ReadVariableOp:0 f4 [256]
00000000: 1e50 49be 18a4 11be b60a debc 21b9 b2bd
00000010: 7d56 173d 79af 28bb 4913 12be 8de8 44be
00000020: 2249 9cbd c1e6 1cbe ab48 04be 409b 67bd
00000030: 28a8 013e a3fe d7bd fca7 cdbd 9440 c9bd
00000040: b0f0 163e c01a 2fbe cd3f ea3c bb16 1cbd
00000050: f671 46bc 365f 3abd 52f3 02be 4099 b5bd
00000060: 55ac 8abc 7733 ab3d e22b 0cbe 98bc 7f3d
00000070: 99d1 d13c 2a30 a5bc 04af 33bd eb96 3abd
00000080: df93 38be 0eac 34be 3985 8fbb ff62 e3bc
00000090: b4f7 40be 049b 13bd ece2 f3bd 00b5 00be
000000a0: d374 1b3d bab3 4ebc 6be2 a8bd d3e6 2dbe
000000b0: 722c 10be 8cae 373d 86cf 7cbd 0973 28be
000000c0: ba3c 17be 5488 81bc d0a5 f6bd 38fc bebd
000000d0: ace3 91bd 86e6 35be 4a71 7fbd 96f7 bb3d
000000e0: ecbe 383d f8e9 1abe 98ed 88bd ac3a 3bbe
000000f0: 1ad7 6abc 0e5e 61be e30e f9bd d6b8 203c
00000100: 4fb9 4dbd 3b5b 07bd b298 a4bd 398a 0ebe
00000110: ed8b 1dbe 6e44 2a3c 2c58 023e bf21 febd
00000120: 4a07 7dbc 5cb1 4abd 7393 febb 16d7 18be
00000130: a0c0 d8bd 9514 8cbd 6ad7 57bd e47b a7bd
00000140: e2da 98bc 0591 1bbe 27df 80be 3f11 82bc
00000150: 70ea cdbd 82f8 0abc 4afd 03be 6c49 51be
00000160: 1feb f3bd dee4 e1bc 70c4 d43c 857f 5cbc
00000170: ef83 05be d586 15bd 47eb 953c 5eeb 01be
00000180: 27ff 28bd 0bdf 41be fd18 0fbe bb98 83bd
00000190: 5114 f4bd 1254 81bd ac90 22be 94e1 b03c
000001a0: 84ae 55bc 8860 d53b 7915 65bd 3310 433b
000001b0: aefd 57bc 1a1f 30be f42c d7bd 239f 2ebe
000001c0: 57b3 c8bd 6faa c1bd 5d25 b6bc 6905 ebbd
000001d0: 9ece 04bd 9669 0fbe 56f4 91bd 0314 86bd
000001e0: da1a 5bbe ade2 77be e231 93bc 6f4f 00be
000001f0: aa0e 00be f66a 11bd 91bc 40be 89f7 0abe
00000200: 2620 48be e108 d73d 4a51 5e3d 4543 fcbc
00000210: a65a acbd d543 3bbe 533e 12be 9294 3abe
00000220: f9d5 5fbe 91fa 24be 7dfd e33c 6b75 37be
00000230: 1955 13be e788 50be ad97 1ebe 9338 0cbe
00000240: 55e8 f4bd 1ec5 883c f1ab d6bd c3c9 9d3c
00000250: 7a84 e2bd 760f 02be 8665 a73d 46a6 0bbd
00000260: 4459 04be bdcd 9f3c 52d2 15bd 4e17 0cbe
00000270: 5c40 85bc 99a4 3bbe ccd0 073d f2ed 04be
00000280: 364f 0fbe 8afb 81bc 1e86 15be e19a 59be
00000290: 85d1 67be 2b31 21bd a641 8fbd 0290 febd
000002a0: 7f5c 39be 2148 5bbe bba6 36be ae6a 37be
000002b0: cfe2 46be 04fe 1cbe 41f8 4fbe 9d8e bdbd
000002c0: 3ed2 babd bc6b 37bd 9a9b 67be 5919 47bd
000002d0: 5068 ffbd 302f 15be a409 863d 1d32 bfbd
000002e0: b059 0abe e86c 46be 7fd0 6dbd c97a 74be
000002f0: eb08 06be a2e0 993d e79b 2dbe fe06 58be
00000300: d8ae 23be a22b 38be 9c6c 15be 4d8a 09bd
00000310: 0db1 01be 56dd 5d3c 760d 41be 83bd 20be
00000320: 617a 25be 56d6 60be 90cf 0abe b69f 03bd
00000330: 86f7 0fbe 467b 07be 66fd cabb 680d 15be
00000340: a7bd c9bd a0a7 4ebc 6e62 c5bd a320 bbbc
00000350: 490d bebd fddc 67bd 451b 57be a593 b0bd
00000360: bdad 02be b7c6 2bbe 3a38 45be ec47 c4bb
00000370: 4599 0ebe 0749 42bd b9a6 b73d 89ff ba3d
00000380: d9c8 a5bd a970 56be 9896 cebd 7768 663d
00000390: c62a 6b3d a5dc 223a 28a9 ef3b 4ffc 21bb
000003a0: abd0 f4bd 1ae3 72be 62f3 20be 218f 82bd
000003b0: d01b c8bd 1230 2bbe 53db 23be fa93 d1bd
000003c0: d275 cfbd 1793 1ebe 9b33 1bbe 8808 b0bc
000003d0: c94b edbd 4913 dabd 847f 70bd 1fd9 bb3d
000003e0: bfd6 e2bd 0b2b 5bbd e309 12be 2547 3dbe
000003f0: fd61 c1bc 412e 703d 2eda 3abe 81fa 3abd
-0.19659469 -0.14222753 -0.027104717 -0.08726717 0.036947716 -0.0025739355 -0.14265169 -0.19229336
-0.076311365 -0.153224 -0.12918346 -0.056544542 0.12661803 -0.10546615 -0.10041806 -0.098267704
0.14740252 -0.17100048 0.028594876 -0.038107615 -0.012112131 -0.045500956 -0.12788132 -0.08867121
-0.016927877 0.083594255 -0.13688615 0.062435716 0.02561264 -0.020164568 -0.04386808 -0.045554083
-0.18025158 -0.17643759 -0.004379895 -0.027757166 -0.18844491 -0.036036506 -0.11908516 -0.12569046
0.03795321 -0.012616092 -0.08246311 -0.16982584 -0.14079455 0.044844195 -0.061721347 -0.16450132
-0.14769259 -0.015812077 -0.12043345 -0.09325451 -0.07123503 -0.17763719 -0.0623639 0.09178083
0.045103952 -0.15128314 -0.066859424 -0.182841 -0.014333511 -0.22008535 -0.121610425 0.009809693
-0.050225552 -0.03304599 -0.08036937 -0.13919915 -0.15385409 0.0103922915 0.12728947 -0.1240878
-0.015443632 -0.04948555 -0.007769042 -0.14925799 -0.10583615 -0.06839863 -0.05269567 -0.08177927
-0.018659059 -0.1519204 -0.25170252 -0.015877364 -0.10054481 -0.0084821 -0.12889591 -0.20438164
-0.1191008 -0.027574953 0.025972575 -0.013458137 -0.1303861 -0.03650554 0.018300666 -0.12687442
-0.041258957 -0.1893274 -0.13974376 -0.064256154 -0.119179375 -0.06314863 -0.158755 0.021591939
-0.013042096 0.0065117516 -0.05592868 0.0029764294 -0.013183041 -0.17199364 -0.10506621 -0.17052893
-0.09799831 -0.09456336 -0.022234613 -0.11475641 -0.032423608 -0.14005122 -0.071266815 -0.06546786
-0.21396962 -0.24207564 -0.017968122 -0.12530302 -0.12505594 -0.035502397 -0.18821932 -0.1357099
-0.19543514 0.104997404 0.054276742 -0.030793795 -0.08415727 -0.18287595 -0.14281587 -0.18220738
-0.21858968 -0.16111208 0.027830834 -0.17915885 -0.14387931 -0.20364724 -0.15487547 -0.13693456
-0.11958376 0.016695555 -0.10482014 0.019261247 -0.11060424 -0.1270121 0.08173661 -0.034094118
-0.12924677 0.019507283 -0.03657753 -0.13680765 -0.01626604 -0.18324508 0.03315811 -0.12981394
-0.1399506 -0.015867013 -0.14601943 -0.21250488 -0.22638519 -0.03935353 -0.06994943 -0.12429811
-0.1810169 -0.21414234 -0.1783704 -0.17911789 -0.19422458 -0.15331274 -0.20309545 -0.09255717
-0.09122132 -0.044780478 -0.22617951 -0.048608158 -0.12471068 -0.14568782 0.065448076 -0.0933573
-0.13510776 -0.19377482 -0.058060165 -0.23874964 -0.1308934 0.075135484 -0.16954003 -0.21096417
-0.15984666 -0.17985395 -0.14592212 -0.03357916 -0.12665196 0.01354154 -0.18852791 -0.15697293
-0.16159965 -0.21956763 -0.13555741 -0.032134734 -0.14059266 -0.13230619 -0.006194758 -0.14555895
-0.098506264 -0.012613207 -0.096379146 -0.02284271 -0.09279878 -0.056607235 -0.21006496 -0.08621911
-0.12761588 -0.16775022 -0.1925973 -0.005990019 -0.13925655 -0.047432926 0.08967347 0.09130771
-0.08094949 -0.20941414 -0.10087317 0.05625197 0.05741384 0.0006212688 0.007313866 -0.0024717038
-0.11953863 -0.23719445 -0.15717843 -0.06374956 -0.0977093 -0.16717556 -0.16001634 -0.102333024
-0.10129894 -0.15485798 -0.15156405 -0.021488443 -0.115867205 -0.106482096 -0.05871536 0.09172272
-0.11076116 -0.053507846 -0.14261584 -0.1848417 -0.023606295 0.05863786 -0.18247291 -0.045649055

mlp_1/MLP_0_1/hidden_0_1/Cast/ReadVariableOp:0 f4 [64, 512]
00000000: 5a83 72bd 2757 263d 1f7a d1be d7fe c53c
00000010: fbb1 22bc 16a4 f83c 4872 fb3d e39c 69be
00000020: 51fb d73d 6c88 8a3e 9926 9ebd df41 e8be
00000030: 405a 3d3e 65ed e2bd 9090 6dbe a67f 733c
00000040: fb11 1c3e 8ecd 3abd 53e6 b5bd 30ae 1ebf
00000050: 7e1e 2cbe 421f 6bbe b8c5 3d3e 2995 47be
00000060: 9af1 dabe cd6c 223e 200c b1bd 80c1 bdbe
00000070: bd16 603e c043 c0be 7850 693e 52f1 2ebe
00000080: a488 02be 6949 6b3d 8b70 463e 7b9b e9be
00000090: 8e9c db3d 40dd 453e e985 cd3e f2c0 ee3e
000000a0: abf3 a83d 9fd2 d5bc bf25 e6bc 0412 0abe
000000b0: ed59 863e e1b9 ae3d a317 51be dffc bc3e
000000c0: 6944 cfbd 507b 213d 00fa a63e b1f6 b0be
000000d0: 9576 abbe c6f2 46be 4505 f4bd a611 ad3e
000000e0: b460 a03d 9a8f a5be a1fb 9c3e 7bc8 743e
000000f0: abe2 7cbb 7c8e fd3d 9adb 8a3e 646e 183e
00000100: 477f e23d e805 b23d 9b3f 06bd 8293 6b3e
00000110: efbb 86be 0d8a d0bd c0da 81be db49 593e
00000120: c44f 97be 8b54 a1be c098 08bf a381 59be
00000130: 4af7 923e 35ea 963d 4c57 b83d 2520 1ebe
00000140: 172d 31be 4acc 2e3e b9bf 0abe b7c2 213e
00000150: 91e3 2c3d 9586 643e 692b 19be 6c13 c93d
00000160: 9bd3 7fbe 4225 9abc 21b0 183e 76ef b83e
00000170: 2bd0 32be 61c7 f2bd 6feb 6c3d 0686 913e
00000180: 1b9f ad3e 47a2 803c b125 bdbc 0fa8 363e
00000190: f0dc 30be 26f0 b73d c6ed b73d d69f e93d
000001a0: 8621 d7bd 7819 963d 2b86 c33e cdaf 08be
000001b0: 571d d1bd a09a 9f3e ac97 4a3d 6a7e a7bd
000001c0: 7a60 3fbe 72c8 323e e58d 263e 0292 793e
000001d0: 3e94 1bbd f544 72be 1ed0 993e ddc7 97bd
000001e0: 894b 42be cb7e f7bd 8853 b93e f2c9 d13d
000001f0: 56ac 73be 6515 dabe 8166 94bd c7f4 babe
00000200: 56a2 96be 2ede abbb 6a18 43be 3f4d 55be
00000210: d1a4 74be dcbd e539 477b 9f3e ed81 88be
00000220: ec6b 393c 849d ad3d 4328 233e dbed 20be
00000230: cd32 6abd 4d8d 8b3e 7788 613d 2e79 183e
00000240: dd0f 1c3d 37ed 403c c5cf 5bbe 44dd a13e
00000250: 9a14 153e 78ed acbe 5e3f d93e ca44 b739
00000260: c90d 8ebe 8ecf 823e b42c 073c f8c8 e83d
00000270: cbba 3a3e 07fa d3bd 9811 adbe 6e37 cc3d
00000280: 53fe a63d a48f 853d e0de ab3e 464b b53d
00000290: a6eb 94bd df23 093e 3a90 603e a43b 7d3e
000002a0: 3c35 873e 7d68 4fbc 0f24 febc 9001 41be
000002b0: 88c5 823d a5e8 0abe efa8 ad3d 1bc5 1c3e
000002c0: d185 9f3e 2589 04bd 7b6f a4bd d253 8fbe
000002d0: d136 ecbd 31a3 b43c 0d34 9b3e a9ad 0b3e
000002e0: 9efe 713b 91ac 7d3e 7b95 293d 7c03 c3be
000002f0: 78e7 3a3d ec0f 413d aedb 943e cb88 07bf
00000300: a1d4 94bb 9ef8 38bd b139 c7be ae9f 983e
00000310: c260 153e 3497 743e c305 a63e eeb6 bdbe
00000320: 43f4 753e fccd 16be 1a0a 91bc 0f70 f63d
00000330: 2376 fc3c 0d81 04bf 51ce 8f3e 52e9 4f3e
00000340: 4ccc 2a3e c57b 4fbe cd05 c83d a11c 18be
00000350: 6060 9ebd f4cd 843d b501 28bd 644a 8fbe
00000360: 8d97 c73d 308a 593e 3230 b53e b47b a0be
00000370: e253 543e 36de f8bd bf11 b13d a623 2d3e
00000380: e80e c3bd e262 ddbd b110 743b 617f 84be
00000390: d08d e23d 740c 66be 6217 cb3e 2b99 3ebe
000003a0: 124b 883d 3c36 f4bd d765 8f3e 899d b63e
000003b0: b657 95bd 8ab7 13be 774f 58be 1cf5 923c
000003c0: a36a 723e df1c 063c 98d0 ad3e fa5a 153e
000003d0: e35c 5abe 30e8 cb3e a06e 0bbe 3bd5 833e
000003e0: 00c7 fcbd eee5 573e 8c06 bfbe 5307 1abe
000003f0: bb53 4e3e b200 07be f928 08be 7da0 72be
-0.059207298 0.04061046 -0.40913484 0.024169369 -0.009930129 0.03035168 0.12277657 -0.22813754
0.10545982 0.27057207 -0.07722206 -0.45362756 0.18491459 -0.11080436 -0.23199677 0.014861977
0.15241234 -0.04560619 -0.088818215 -0.6198454 -0.16808507 -0.22961143 0.18532455 -0.19490494
-0.42762452 0.15861817 -0.08644891 -0.3706169 0.21883674 -0.3755169 0.22784603 -0.17084244
-0.12747437 0.057443056 0.19378869 -0.45626435 0.1072322 0.19322681 0.40141228 0.4663158
0.08249601 -0.026101409 -0.02809417 -0.13483435 0.26240483 0.08531547 -0.20419173 0.36911675
-0.1012047 0.03942424 0.3261261 -0.3456321 -0.33488908 -0.19428548 -0.119150676 0.33802527
0.07830945 -0.32336122 0.30660728 0.23904602 -0.0038587253 0.12380692 0.27120668 0.1488586
0.110594325 0.08692533 -0.032775503 0.23005489 -0.26315257 -0.10182581 -0.25362206 0.2121958
-0.29553044 -0.31509814 -0.5335808 -0.21240859 0.28704292 0.0736889 0.090010256 -0.1544195
-0.17302357 0.17070118 -0.13549699 0.15796934 0.04220921 0.22316964 -0.14957966 0.098181576
-0.24983065 -0.018816594 0.14910938 0.36120194 -0.17462222 -0.11854435 0.057841714 0.28422564
0.3391045 0.01570238 -0.023089262 0.17837547 -0.17271781 0.089813516 0.089808986 0.114074394
-0.10504441 0.073290765 0.381883 -0.13348313 -0.10210674 0.31172657 0.04946105 -0.081784084
-0.18689147 0.17459276 0.16265066 0.24372104 -0.03798317 -0.23659118 0.30041593 -0.07411168
-0.18974127 -0.12084731 0.36196542 0.10243596 -0.2379621 -0.42594448 -0.072461136 -0.36514875
-0.29420727 -0.0052449917 -0.19052282 -0.20830248 -0.23890997 0.0004381974 0.3114874 -0.26661626
0.0113172345 0.08477309 0.15933327 -0.15715735 -0.057177354 0.2725624 0.055061784 0.14889976
0.038101066 0.011775306 -0.21465977 0.31614125 0.1455864 -0.33774924 0.42431158 0.00034955732
-0.27744892 0.25548977 0.008250404 0.11366457 0.18235318 -0.10350423 -0.33802485 0.0997151
0.08153977 0.06521538 0.33568478 0.08852248 -0.07271509 0.1339259 0.21930018 0.24729782
0.26407802 -0.012659189 -0.031023053 -0.18848252 0.06385332 -0.1356531 0.08479487 0.15309565
0.3115678 -0.032357354 -0.08029076 -0.27993637 -0.11533893 0.022050472 0.3031315 0.13640465
0.0036925445 0.2477286 0.04140232 -0.38088596 0.045630902 0.047134325 0.29073852 -0.52943105
-0.004541949 -0.045158975 -0.38911203 0.29809326 0.14587691 0.23885804 0.3242627 -0.37053627
0.2401896 -0.14727014 -0.017705012 0.12033092 0.03081805 -0.51759416 0.28087094 0.20303848
0.16679496 -0.20262058 0.097667314 -0.14854671 -0.07733226 0.06484595 -0.041017253 -0.27986443
0.09745703 0.2124412 0.35388333 -0.31344378 0.20735124 -0.121517584 0.08645963 0.1690813
-0.095243275 -0.10809876 0.0037241394 -0.25878432 0.11062205 -0.22465688 0.39666277 -0.18613116
0.066549435 -0.11924407 0.28007385 0.35667065 -0.0729212 -0.14425483 -0.21124063 0.017939143
0.23673491 0.008185594 0.33948207 0.14585486 -0.21324496 0.39825583 -0.13616419 0.2574862
-0.12342644 0.21083805 -0.37309682 -0.15041856 0.20149128 -0.13183859 -0.1329688 -0.23694034

mlp_1/MLP_0_1/hidden_0_1/BiasAdd/ReadVariableOp:0 f4 [512]
00000000: 4189 0ebe 8174 b4be be75 c9be 7b0c 1abe
00000010: 7b70 86be e449 a3be 80c7 93be 77e9 27be
00000020: 800a 1dbd 3793 42bd c992 49be 6ae9 83ba
00000030: 3064 06be e56d 76be 1967 44be 74f4 47be
00000040: 692d 2bbe b248 383d 4282 0fbe 4379 22be
00000050: 4e46 04be a37d d7bd 0e81 5bbd 4763 0fbe
00000060: f8c1 60be d389 53be 1a27 d8bd 8950 7cbe
00000070: 5065 18be a71f 31bd eced f8be 7c6f 4fbe
00000080: 7644 51ba a59c f8bd 84f2 71be 75b6 8fbd
00000090: c1d5 03bd 7e67 50be 8e46 6dbe 9a1a 61be
000000a0: 60d1 c3bd d946 fbbd fa5b a4bc 4286 debb
000000b0: d008 9dbd 9b90 b6bd 2c20 99be 7d90 d03b
000000c0: 89e3 b4bd 9440 d2bd 3c30 cabd 763d 3cbe
000000d0: 9126 fdbd ea80 70be 29b8 cabd 676a cbbd
000000e0: 869f 1abe 7b24 63be 51d6 85bd b46a e9be
000000f0: a189 4cbe 0093 34bd deb3 d4bd 91a2 37be
00000100: 21d5 95be 51c1 30be 39ad 64be dd6b 5fbe
00000110: ddae 84be e3f3 44be efdc c2bd b3c0 b1be
00000120: b230 0bbe cf92 27be 828a a0be c600 ccbe
00000130: fc1d 92be ae19 e2bc a245 afbe 4090 33bd
00000140: 1eaf 56be 0368 47be 16ba 50be 1c6b e7be
00000150: 747e a3be dde3 35be 0208 48bd a0c1 40be
00000160: 2e17 c0bd d6de 5ebd 69a0 dcbd f219 98bc
00000170: aae3 bcbe 1fe3 98be 9600 abbe 7068 e4bd
00000180: 73b7 c4be 8499 e4bd 0a97 8ebe 6ebb 1fbe
00000190: 85d6 17be 97a1 37be b0bf 8dbd b87a b1be
000001a0: 79a9 d5be b980 7c3b 5a83 b5bd e3f3 36be
000001b0: 661b bfbd 7a95 bbbd edcd 1cbe a9ec 57be
000001c0: edb6 bbbd dcf5 4fbe 48fc b8bd 3012 f0bd
000001d0: b40f f0bb a749 65be 50a5 2bbd 9bf9 10be
000001e0: fcd3 81be e1ed d7bd 4c03 94bc f7a0 3abe
000001f0: 30b2 12be 4787 9dbd bdaa 89be c9c3 8ebe
00000200: c952 0ebe 8b39 00be dd71 31be edf7 24be
00000210: 3b88 30be 6ba9 29be acae dabe 4785 08bf
00000220: 4faa 10be b8db 94bd 862f a1be e69e 35be
00000230: e2e6 96be 7d6d 8e3a b3a5 00be 6158 c5bd
00000240: 5f5a 3f3c 1d04 22be 91c7 38be a180 5bbe
00000250: 0360 17be a6e2 ddbe 4e61 f7bb 08b1 8cbe
00000260: e0ba 0dbe 1788 4abe 82bf 82be 77f3 1abe
00000270: d942 5b3d 6021 f0bd 0989 40be a82b 57be
00000280: a503 8dbe fb12 a8be 4165 91bd 1cc9 3fbe
00000290: 9eeb aabe 79d7 7abe d28b 3fbe a655 0fbe
000002a0: 6c9e 0ebe e926 5bbe 31c8 94be ccad af3d
000002b0: da15 f6bd 14bb a63c 2640 b1be f2da a6be
000002c0: a1b0 873c 5450 d0bc a075 34be 5819 11be
000002d0: b22c e6bd 6567 3bbe 9a12 76be 5d42 29be
000002e0: 715a fa3c 37b6 02be db85 a5be d7da 02be
000002f0: efd7 34be a828 cfbe 6c84 62be 2e7d 17be
00000300: 864e 39be 901a 71bd 256f aebd 69d6 a8be
00000310: faea dfbd 74a9 b9be 9556 e8bd 0d2a 35be
00000320: 0ba4 0dbe 4024 63bd ea1f f3bd dc2a 83bd
00000330: 906c fbbd 6575 2ebe 5d07 15be ebbc c2bd
00000340: 2b4a 19be 9335 9dbe c044 893a 4847 01be
00000350: 712c 37be f0eb 86be 0b61 34be a011 c6be
00000360: b3a1 9abd 1843 e6be 63fe 70bb 6311 a4be
00000370: 0cc9 78be 07c3 78be a59e c13d 1fe4 04be
00000380: eeaf 7ebe abc8 70be 3eca 96be e3ea 8bbe
00000390: cc34 6abe 2cd3 49be 6a1d 91be 3e6e 9bbe
000003a0: 5e66 febd 220e 3fbe c835 5dbe c261 d3bd
000003b0: 17d1 eebd bc09 bfbd 1c1d 21be acb3 15be
000003c0: 195f 3dbe cefe 97be bb34 36be 4dfe e3bd
000003d0: ebb1 44be d089 b5bd 7d93 87be 127f 65be
000003e0: caa0 11be f7eb 82be 72a0 b1be dfcd c0bc
000003f0: 3106 5ebe ac93 04bd b7af abbe c48c b4be
-0.13919546 -0.35245135 -0.39347643 -0.15043823 -0.2625769 -0.31892312 -0.28863144 -0.16397654
-0.03834009 -0.047503676 -0.196849 -0.001006407 -0.13124156 -0.24065359 -0.19179954 -0.19526845
-0.16716541 0.044991203 -0.14014533 -0.1586657 -0.12917444 -0.1052201 -0.053589873 -0.14002715
-0.21948993 -0.20658045 -0.10554333 -0.24640097 -0.14882398 -0.043243077 -0.4861902 -0.20257372
-0.0007982919 -0.121392526 -0.23627669 -0.07017223 -0.032186273 -0.20351979 -0.23171446 -0.21982804
-0.095614195 -0.122693725 -0.02006339 -0.006790907 -0.076676965 -0.089143 -0.29907358 0.0063648806
-0.088324614 -0.102662235 -0.09872481 -0.1838282 -0.123608716 -0.23486677 -0.09898407 -0.09932404
-0.15099916 -0.22181885 -0.06535018 -0.4558922 -0.19974376 -0.044085503 -0.103858694 -0.17933108
-0.29264167 -0.17261244 -0.22331704 -0.2181849 -0.2591466 -0.1923366 -0.09514796 -0.3471733
-0.13592795 -0.16364597 -0.31355673 -0.3984434 -0.285385 -0.027600136 -0.34232813 -0.04383874
-0.2096524 -0.19473271 -0.20383486 -0.45198905 -0.31932414 -0.17762704 -0.04883576 -0.18823862
-0.09379421 -0.05441173 -0.10772783 -0.01856706 -0.36892444 -0.2986078 -0.33398885 -0.11152732
-0.3842121 -0.11162093 -0.2784961 -0.15598843 -0.14827926 -0.17932735 -0.06921327 -0.3466394
-0.4173086 0.0038528873 -0.08862944 -0.17866473 -0.09331398 -0.0915937 -0.1531293 -0.21086372
-0.0916575 -0.20308632 -0.09032494 -0.11722219 -0.0073260907 -0.22391377 -0.0419057 -0.14157717
-0.25357044 -0.10543419 -0.018067978 -0.18225466 -0.14325786 -0.07691818 -0.26888075 -0.27883747
-0.13898768 -0.12521951 -0.17328592 -0.16110201 -0.17239468 -0.16568534 -0.4271139 -0.53328365
-0.14127468 -0.072684705 -0.3148157 -0.17736396 -0.29473025 0.001086637 -0.12563209 -0.096359976
0.011679261 -0.15821882 -0.18044879 -0.21435787 -0.1478272 -0.43336982 -0.0075494414 -0.27478814
-0.13840818 -0.19778477 -0.25536734 -0.15131937 0.053530548 -0.11725116 -0.18802275 -0.21012747
-0.27541843 -0.3282698 -0.07099391 -0.18729061 -0.33382887 -0.24496259 -0.18705681 -0.13997516
-0.1392762 -0.21401562 -0.29058984 0.08578071 -0.120158866 0.020352878 -0.34619254 -0.32588917
0.016563715 -0.025428928 -0.17622995 -0.14169824 -0.11238994 -0.1830116 -0.24030533 -0.16529222
0.030560704 -0.12764822 -0.32328686 -0.12778793 -0.17660497 -0.40460706 -0.22120827 -0.14793846
-0.1809636 -0.058863223 -0.08517293 -0.32976082 -0.1093349 -0.36262095 -0.11344639 -0.17691822
-0.13832109 -0.055454493 -0.118713215 -0.06404659 -0.12276566 -0.1703697 -0.1455359 -0.095086895
-0.14969699 -0.30704936 0.001047276 -0.12624848 -0.17888047 -0.2635188 -0.17615144 -0.38685322
-0.07550373 -0.44973063 -0.003677272 -0.32044515 -0.24295443 -0.24293147 0.09454087 -0.12977646
-0.248718 -0.23514049 -0.29451174 -0.27327642 -0.22871703 -0.19709462 -0.28342754 -0.30357546
-0.12421869 -0.18657735 -0.21602547 -0.1032138 -0.116609745 -0.093280286 -0.1573376 -0.1461932
-0.18493308 -0.29686588 -0.17793553 -0.111324884 -0.19208495 -0.08864176 -0.26479712 -0.22411755
-0.14221492 -0.25570652 -0.34692723 -0.023535667 -0.2168205 -0.032367393 -0.33532497 -0.35263646

ConstantFolding/mlp_1/truediv_recip:0 f4 [64]
00000000: b922 9d40 9cde 2740 eda5 e140 d063 513f
00000010: 5435 c43f 8582 d33f f3d1 0c41 cc08 8540
00000020: 4efb e540 f695 6640 63aa 8e40 ea03 6840
00000030: bd7d c040 2330 9e40 27cf d940 4a20 9140
00000040: ba0c a240 5c2e 9d40 c555 e440 d11f 2e41
00000050: b751 8e40 1efd da40 e111 f240 e6c2 1b41
00000060: 5477 b641 fe11 b040 ea76 1041 121a 1441
00000070: 35f6 333f 6748 323f e51f 2f3f 63d5 303f
00000080: 7525 393f dc7f 2c3f c132 613f 90dc 753f
00000090: e8d4 583f a117 5e3f d996 563f f38a 613f
000000a0: 9441 863f 7833 5d3f a062 543f 2485 573f
000000b0: 74ac 8640 d9f9 7140 8ff9 8340 59f2 5d40
000000c0: 2b69 8140 d135 5f40 7f09 8640 6634 4040
000000d0: eb48 5640 64e5 8140 2bb6 5c40 8884 9040
000000e0: a9d8 7b40 fd31 7740 d63e 7840 9687 5040
000000f0: 2de2 ad3f 6847 ae3f a99b be3f ec9b be3f
4.9104886 2.622962 7.0515046 0.81792927 1.5328774 1.6524206 8.801257 4.157324
7.186927 3.602903 4.458299 3.625239 6.015349 4.943376 6.806537 4.5351915
5.0640535 4.911909 7.13547 10.882768 4.447475 6.843398 7.5646825 9.735083
22.808266 5.5021963 9.029032 9.256365 0.7029756 0.6964173 0.6840804 0.690756
0.7232278 0.673826 0.8796807 0.96039677 0.8469987 0.86754805 0.83823925 0.88102645
1.0488763 0.8640666 0.8296299 0.8418753 4.2085514 3.7808745 4.1242137 3.4679167
4.044088 3.4876597 4.188659 3.0031981 3.3482006 4.059252 3.4486187 4.516178
3.935099 3.862426 3.8788352 3.2582755 1.3584648 1.3615541 1.4891254 1.4891334
