mujoco_playground/experimental/sim2sim/onnx/zeroth_policy.onnx (onnx, 809943 bytes, 10 tensors)

mlp_1/sub/ReadVariableOp:0 f4 [64]
000000 44 ff b5 3c 9b c5 ef 3c 75 99 d7 3c 4a e7 c5 bc
       0.022216447 0.02926903 0.026318291 -0.024158139
000010 b4 40 26 3b 8a cd 55 3b 3b a8 79 ba ec 02 d3 bc
       0.0025368156 0.0032623732 -0.00095236645 -0.02575823
000020 f7 92 78 bf fa e8 82 ba 44 57 fc 3a 68 e9 77 3a
       -0.9709925 -0.0009987645 0.0019252081 0.00094570825
000030 87 75 eb bc e2 01 64 bc 24 68 bf 3b 7a 39 5f bc
       -0.028742565 -0.0139164645 0.005841272 -0.013624543
000040 c6 67 67 3c aa 27 10 bb e3 11 a1 3c 45 bd 1a 3c
       0.014123863 -0.0021996298 0.01966185 0.009444539
000050 0f 16 26 bb 2c 30 0b 3d 5c 02 cb 3d e8 8d d0 bb
       -0.0025342738 0.033981487 0.099125594 -0.006364573
000060 9b f4 17 bc e2 19 04 ba 6e b8 dc bc 41 45 b0 bd
       -0.009274627 -0.0005039257 -0.026943412 -0.08606959
000070 1e e9 97 3b 90 1d 2b bc 73 d7 96 3b 08 c5 f5 bc
       0.004635944 -0.01044406 0.0046033203 -0.030001178
000080 a7 a5 15 3b a7 c4 b3 39 49 5f 33 bb bf 35 bf 3b
       0.0022834332 0.00034288058 -0.0027370027 0.0058352645
000090 ad 02 03 bb 52 a5 0a bc 7c 82 e2 3c 8a 4c ca 3b
       -0.0019990609 -0.008462267 0.02765011 0.006173675
0000a0 88 61 9f 3c c5 f3 77 3c be 12 03 3a 96 c7 e0 bc
       0.019455686 0.015133803 0.0005000046 -0.02743892
0000b0 f4 8c d4 bc 7a a1 a8 bc a8 86 06 3c b4 25 86 bc
       -0.025946118 -0.02058481 0.0082108155 -0.0163754
0000c0 64 1a aa 3c 00 09 36 bb 23 92 a4 3c fb 5e 06 bd
       0.020764537 -0.002777636 0.020089215 -0.032805424
0000d0 28 59 93 bb e0 2c c8 3c 7c 22 1d bc 13 21 c9 ba
       -0.0044967122 0.02443546 -0.009590741 -0.001534494
0000e0 f9 fd 76 be 82 81 2e 3b 2c ef 0d bc 66 63 e1 3c
       -0.2412032 0.0026627486 -0.00866298 0.027513217
0000f0 c8 2f ba bd 70 e4 cb bd d3 77 5b 3b 93 f6 83 bb
       -0.09091145 -0.0995568 0.003348817 -0.0040271967

mlp_1/MLP_0_1/hidden_3_1/Cast/ReadVariableOp:0 f4 [128, 32]
000000 72 12 12 bd 1e 6b c3 3b 87 40 52 3d a6 bb 10 bd
       -0.035662122 0.005963697 0.05133107 -0.035335205
000010 92 fe e9 bc 18 4f 60 bd a7 c1 89 bb 40 ef 48 3c
       -0.028563771 -0.05476293 -0.0042039934 0.012264073
000020 9a be dd bb 41 f1 8f 3d 3e 58 d6 bd 51 be a8 3c
       -0.0067671062 0.070284374 -0.104660496 0.020598562
000030 51 5d 76 3c 8e ad 8a 3c c3 59 b6 bd c2 3f a2 3b
       0.015036897 0.01692846 -0.089038394 0.004951448
000040 fd e5 00 bd 3e 93 14 3c df a2 f6 3c 0c a5 11 3d
       -0.031469334 0.009068308 0.03010696 0.03555779
000050 bf 68 cf 3c b3 ca 74 3c ce a2 89 3c ce d0 c8 bd
       0.025318502 0.014940905 0.016801264 -0.09805451
000060 cc e3 3f 3d 27 60 1e 3d b5 cc 5d 3d 87 7d 19 3d
       0.046848103 0.038665917 0.054150302 0.037473228
000070 77 3e c6 3d be 33 ec 3b aa b8 d1 be 54 99 70 3d
       0.09679883 0.0072083166 -0.409612 0.058739975
000080 58 d0 99 3d 65 90 98 3b ff 5f 72 bc c8 48 df 3c
       0.075104415 0.004655885 -0.014793395 0.027256384
000090 61 5b a6 bb 4d 9f 21 bb 8e 6b 04 3d da e5 92 3c
       -0.005076811 -0.00246616 0.032329135 0.017931867
0000a0 76 92 5c ba 69 60 10 bd 12 0e 20 3d 03 7d f1 bc
       -0.00084141584 -0.035248194 0.03907592 -0.029478556
0000b0 3c ea f5 3c 5d b1 86 3c da cb 2f bd 59 49 2e bc
       0.030018918 0.016441995 -0.042919017 -0.010637605
0000c0 49 22 f0 3c 4e e5 d0 bc cc 9b 97 bd 6f 78 68 3c
       0.029313223 -0.025499966 -0.07402763 0.01418887
0000d0 69 18 21 bd bb 18 50 3a 39 f0 a1 3d e4 8a e1 bd
       -0.03932992 0.00079382554 0.07907147 -0.110128194
0000e0 76 b4 ea 3b 16 43 1d bb e3 e4 1f 3c 93 84 b0 3d
       0.007162626 -0.0023996285 0.009759161 0.086190365
0000f0 12 6a c1 bd fe e0 da 3d 34 e8 38 3e 72 b0 cd bb
       -0.094440594 0.10687445 0.18057328 -0.0062771374
000100 46 bf 1d 3d eb 1b 8b bc a6 9c 72 3c ea 1b 66 bc
       0.03851249 -0.016981086 0.014807856 -0.014044741
000110 fb 20 b6 3c 7b b2 87 3c 09 ea 89 bd 7c 51 ec 3b
       0.022232523 0.016564598 -0.06734092 0.007211862
000120 cd e2 88 bc 5e e7 23 3d 22 2c 23 3a be a4 d3 3d
       -0.01670971 0.04001557 0.0006224533 0.103341565
000130 d5 db 25 3b bf b8 4b 3b 1e 8e 7e 3d f6 d3 96 3c
       0.0025308032 0.003108546 0.062147252 0.018411618
000140 2c 54 bc 3d 1f 1d 40 3d 72 ef d9 3d 3f 51 91 3d
       0.09195742 0.046902772 0.10641374 0.070955746
000150 cd 9f c5 3d 6b b7 34 3d db 68 05 3f 62 a8 69 3e
       0.0964962 0.044120234 0.5211312 0.22818139
000160 d1 0e ba 3d ac a3 0b 3e 4e f0 bf 3d 99 6e 06 3f
       0.09084857 0.13636655 0.09372006 0.5251251
000170 c3 49 0d 3e a8 43 15 3d 25 fc 5f 3e 65 b5 1e 3e
       0.13797669 0.036441475 0.2187353 0.15498884
000180 ac fc a5 bc c8 ae 92 bb b9 52 7e 3b 5e 1c ce bd
       -0.020262085 -0.004476402 0.003880663 -0.10064004
000190 2f 7c aa bc 20 f5 2a 3d ca 6d 65 3c e1 67 cb 3c
       -0.020811168 0.041737676 0.0140032265 0.024829807
0001a0 f6 8f 4f 3c 0b 9a 05 be 1d 21 f7 3c 37 ce 7d bb
       0.0126686 -0.13047044 0.030167157 -0.003872765
0001b0 a2 ac d6 bd 52 7e f7 bc c2 03 44 3c 08 55 90 3d
       -0.10482146 -0.030211601 0.011963787 0.070474684
0001c0 46 6e 59 bd 0a 3b 0a 3c a9 71 1a be f1 a3 37 bd
       -0.05308368 0.008436928 -0.1508242 -0.04483408
0001d0 33 06 af bd 18 8b 8a bd 72 d4 83 3e 77 e0 a1 3d
       -0.08546104 -0.06764811 0.2574802 0.079041414
0001e0 29 9b 9b bd b0 46 a1 3c b0 b5 98 bc f3 5d 30 3e
       -0.07597954 0.019687027 -0.018641323 0.17223339
0001f0 f7 ba dd 3a a1 25 e5 bd 06 ff fc 3b c9 d1 af 3c
       0.0016916682 -0.11188818 0.007720831 0.021462338
000200 1a 5c b1 ba bd 11 bf 3b 3b 0c cf 3b f2 35 07 bd
       -0.0013531477 0.005830972 0.0063185967 -0.03301043
000210 70 77 c8 3b 6e e3 d2 bc 26 88 59 bc da 4b 89 3d
       0.0061177537 -0.025743213 -0.013277089 0.06703921
000220 4f 2b a8 3d ad 66 18 bd 81 72 35 3d 9a 1a 60 bd
       0.082113855 -0.037207294 0.044298653 -0.05471287
000230 ca 7c e8 3c 06 05 7a 3d 47 cf fc 3d 9b e3 a0 3d
       0.028379817 0.061039947 0.123442225 0.07855912
000240 f2 ef 34 3e f9 88 0b bd 7e d5 d4 3d 50 5e ef 3d
       0.17669657 -0.034066174 0.10392283 0.116879106
000250 e5 b7 4f bc 58 1a ec 3c 90 6e c4 3e bb a3 17 3e
       -0.012678121 0.028821155 0.38365602 0.14808552
000260 c5 39 21 3e a0 db a8 3d ad 18 16 3e 58 9f bb 3e
       0.15744694 0.08245015 0.1465785 0.36645007
000270 20 7d 2c 3d 21 67 43 3e c3 53 04 3e 90 9b 70 3d
       0.042111516 0.1908231 0.12922578 0.058742106
000280 5d 32 27 bd aa 16 0f 3d ae 72 2e bb 39 4e ea bc
       -0.040819515 0.034933724 -0.0026618647 -0.028601753
000290 09 27 e3 bb 17 60 1c 3c c2 46 f6 3b 98 1b e1 bd
       -0.0069321436 0.009544394 0.007515759 -0.10991591
0002a0 fe e6 bd 3c 92 d7 04 3d f4 40 0c bd 1d 50 d2 3c
       0.023181435 0.032432146 -0.03424163 0.025672967
0002b0 c4 45 96 3d 56 97 af bc b1 30 5d bd 3a a5 ca bc
       0.073375255 -0.021434467 -0.054001514 -0.02473699
0002c0 48 c5 57 3d 88 77 1d bc 99 1a ab 3c 6a e9 08 3d
       0.052678376 -0.009611018 0.020886706 0.033425726
0002d0 cc 5d bc 3b be c2 19 3c bd 39 8e 3c 90 1f 8b bc
       0.005748486 0.009384809 0.017361516 -0.016982824
0002e0 e5 f4 d0 bd 18 11 34 3d 95 10 9c 3d 2f 29 de 3d
       -0.1020296 0.043961614 0.0762035 0.10847699
0002f0 2f f4 fb 3c 83 78 52 3d 58 1c 57 3e 69 cb 15 bd
       0.030756084 0.05138446 0.21006906 -0.03657094
000300 e7 b0 82 3d 99 94 51 3b 25 65 c2 3c f0 c8 14 bc
       0.06381398 0.003197944 0.02372987 -0.00908111
000310 ca a1 23 3d b1 94 5b bc c0 4a 1a 3d 18 e2 1b 3d
       0.039949216 -0.01340215 0.037668943 0.038057417
000320 73 51 e6 bb 48 69 b4 3c ba 76 4d 3c ab 43 57 3c
       -0.0070287525 0.022022858 0.012540514 0.013138692
000330 e1 7c b1 bc b0 7c 34 bd 3c 1e 7f 3d ea 04 25 bd
       -0.021665992 -0.044064224 0.062284693 -0.04028789
000340 ea 45 6a bd ff e1 03 bd 6b f7 64 bd 3e 97 62 bd
       -0.05719558 -0.03219795 -0.05590002 -0.055320017
000350 e5 74 aa bd 6f b6 dc bb 39 e1 b3 bd 52 e4 14 be
       -0.08323077 -0.006735615 -0.08783192 -0.14540222
000360 cc 09 a3 bc 7a ea 8d bd 74 a7 aa bd 67 75 06 be
       -0.019902132 -0.069294885 -0.083327204 -0.13130723
000370 64 fe 22 be 4b e4 b6 bd de 12 23 be 98 e3 18 bd
       -0.15917355 -0.08930262 -0.15925166 -0.037326425
000380 60 f1 e8 3c 6e 43 e2 bb e7 0a 85 3a 40 8d 3d 3d
       0.02843541 -0.006905011 0.0010150344 0.046277285
000390 02 26 40 bd 7e 85 28 3c 86 96 26 bd 38 b6 e4 bc
       -0.046911247 0.010285733 -0.040670894 -0.02791892
0003a0 1c 2e 4f 3c 67 9e 8c 3b 04 fb 5e bc 9e 38 f9 bc
       0.012645271 0.004291344 -0.0136096515 -0.030422505
0003b0 c2 57 34 3d 61 c4 54 bc 00 37 da 3b ad 1e 30 3c
       0.044029005 -0.0129862735 0.0066593885 0.010749501
0003c0 85 9d 90 bc a8 44 b9 3c a4 57 16 bc 09 c6 db 3b
       -0.017653236 0.022615746 -0.009176169 0.0067069572
0003d0 e8 f2 0c 3d ae a3 43 bd a8 f0 ce 3c ec c9 f9 bd
       0.03441134 -0.04776352 0.025261238 -0.12196717
0003e0 22 73 c4 3b 10 9c 31 bd 59 18 f7 bc 26 60 40 3d
       0.00599517 -0.043361723 -0.030162977 0.046966694
0003f0 b4 10 38 bd 67 5f 85 bd 28 78 0a ba 9d 84 85 bc
       -0.044937804 -0.06512337 -0.0005282187 -0.016298587

mlp_1/MLP_0_1/hidden_3_1/BiasAdd/ReadVariableOp:0 f4 [32]
000000 c7 68 0c bd 3e 83 80 bc c7 52 85 3b 24 61 a5 3d
       -0.03427961 -0.015687581 0.0040687057 0.08075169
000010 41 3c c9 3b e2 67 cd bc d3 7b f3 3a 2d 29 fb bc
       0.006141216 -0.02507395 0.0018576331 -0.030659283
000020 90 b4 30 3d 96 93 97 3c 2b 73 5a 3c dd 8f bf 3b
       0.043140948 0.018502992 0.013333122 0.0058460073
000030 02 29 1c be 1a 33 0a bd a2 f4 78 bc e3 2c c3 3c
       -0.15250018 -0.03374014 -0.015195044 0.023825115
000040 f8 3e b4 be 99 c6 e4 be 2e 7b c9 be a7 13 d2 be
       -0.3520429 -0.44682768 -0.3935179 -0.4103062
000050 91 cb dc be b3 bc cc be c9 d1 3e bf c7 de a4 be
       -0.4312406 -0.39987716 -0.74538857 -0.32201216
000060 87 ce e4 be 34 a7 c8 be a4 f4 bb be a0 c7 5f bf
       -0.44688818 -0.39190066 -0.36710083 -0.8741398
000070 ea 2e e1 be 21 67 c7 be ce be af be 38 4a b6 be
       -0.43981105 -0.3894587 -0.3432526 -0.356035

mlp_1/MLP_0_1/hidden_2_1/Cast/ReadVariableOp:0 f4 [256, 128]
000000 50 5e f8 3c 43 e7 fe 3c 7b 88 8c 3d 04 d7 7a bc
       0.03031841 0.031116134 0.06861969 -0.015310053
000010 d9 ab 0b be d3 f5 d9 3c 86 7d 0e 3e bd 68 98 3c
       -0.13639773 0.026606476 0.13915071 0.01860463
000020 ac 64 2c 3c 6e ad ba 3d ca bf 88 3d 63 19 e6 3c
       0.010522049 0.0911511 0.06677206 0.028088277
000030 e4 84 27 bc aa 4f 0a be 38 14 d6 bd 7c 9f bb 3b
       -0.010224555 -0.13506952 -0.10453075 0.005725799
000040 4d 73 d7 bc ae 1a 13 bd ef 7a a4 bd 15 3f 30 bc
       -0.026300097 -0.035914116 -0.0803126 -0.010757227
000050 e3 02 78 bd 61 a5 84 bd 67 54 18 be 6a c2 cd bc
       -0.060549628 -0.06476856 -0.14875947 -0.025117118
000060 48 92 c0 3d 02 be 8d bd 27 bc 67 bd fb b4 04 be
       0.09402901 -0.06921007 -0.05657592 -0.12959664
000070 c7 6c 3c 3d 30 fb ac bd 1b 7c c1 bd 16 11 14 bd
       0.046002176 -0.08446348 -0.09447499 -0.036149107
000080 df d2 c7 bd 96 79 9f bd fc 1c 06 3e c5 b2 0f bd
       -0.09757017 -0.077868626 0.13096994 -0.035082597
000090 79 1d df bd e3 54 9e bd c4 db 20 be e3 e5 8f 3d
       -0.10894293 -0.077310346 -0.15708834 0.07026269
0000a0 c6 54 54 3c b4 1d 8a bd 08 f8 17 bd 94 96 e3 3d
       0.012959665 -0.06743947 -0.037101775 0.11112705
0000b0 1f fd ae bd 17 f2 b3 3d 9c 2a 9d bc 44 1b 0f be
       -0.08544373 0.08786409 -0.019185357 -0.13975245
0000c0 30 61 ce 3d 83 da a1 3c d4 8a f4 bd d0 21 90 3c
       0.10077131 0.019757515 -0.11940542 0.017594248
0000d0 09 1c 4a bd 75 c5 3e be f9 92 d7 bc ae 19 30 3d
       -0.049343143 -0.18630011 -0.0263152 0.04299324
0000e0 dd 51 97 bd d4 e1 0e be 50 85 3b bb 78 29 ac bd
       -0.07388661 -0.13953334 -0.0028613396 -0.08406347
0000f0 0e f6 1a 3c 7e 1d 69 bc eb be 76 bd 14 13 29 3c
       0.009458078 -0.014228223 -0.060240667 0.01031949
000100 1e b4 a5 3c 89 b6 ca bc 62 c6 e7 bd 07 35 8d bd
       0.020227488 -0.024745243 -0.113171354 -0.0689488
000110 72 5d d9 bd a0 89 07 be 7e e6 b1 3d 3e fe 18 3c
       -0.106135264 -0.13236094 0.08686541 0.00933796
000120 57 65 9d be 3c 7e 67 bd 17 90 aa 3b 1b 58 82 bc
       -0.3074138 -0.05651687 0.005205165 -0.015911153
000130 41 ec 81 bd 53 54 2d 3d 13 35 e2 3b 36 7a 51 bc
       -0.0634389 0.042316746 0.0069032996 -0.012785485
000140 56 fc d2 3c 77 90 ec bd da 15 ed 3c 9b 97 dd bc
       0.025755089 -0.11550992 0.028941084 -0.02704983
000150 d9 9b 96 ba 34 a4 ac 3d 68 8f 99 3b 5c 70 5c 3d
       -0.0011490538 0.08429757 0.004686285 0.05381809
000160 71 92 d2 3c 46 2d 17 bd 2b 5a 68 3c 11 c4 27 3d
       0.025704594 -0.03690841 0.014181654 0.040958468
000170 4e 51 2c bd 60 72 17 3d be a0 2a be 72 89 e8 bd
       -0.042069726 0.03697431 -0.16662881 -0.113543406
000180 f8 df 45 be 96 19 06 3c 32 37 af 3c 68 2d 1a be
       -0.19323719 0.008184811 0.021388624 -0.15056384
000190 e0 e2 c3 3d b5 62 92 3d ef 3b 33 3c d2 c6 26 bd
       0.09564757 0.07147733 0.010939582 -0.040716954
0001a0 bc 6a a1 3d 9b 06 26 be f4 9a 16 3e 22 7a 80 bd
       0.07881686 -0.16213457 0.14707547 -0.06273295
0001b0 67 c6 86 bd 5c ea af ba d7 7b e8 bd 8d 79 21 bd
       -0.06580811 -0.0013421285 -0.113517456 -0.03942256
0001c0 c9 9c a7 bc c1 24 f2 3c c4 6a e8 bb 17 2e 21 3d
       -0.020460503 0.029558541 -0.0070928056 0.039350595
0001d0 87 cc 21 be 29 a3 a0 bd bb 8e b0 bd b2 48 c2 3d
       -0.15800677 -0.0784362 -0.08620974 0.09486522
0001e0 c6 a5 82 bd 76 b9 05 3d ac fb 7a bd fd cf a2 3c
       -0.06379275 0.032647572 -0.06127517 0.019874567
0001f0 2a 95 1c bc 7e ef e2 3c 1d 99 31 3d 64 64 dc bd
       -0.009557048 0.02770209 0.04335891 -0.107613355
000200 87 4c 01 3d 03 b1 f5 ba 3d d1 d8 bb 85 0b 03 3e
       0.031567123 -0.001874477 -0.00661674 0.12797363
000210 31 ad af 3d 2f ff 3a 3e 74 8a 05 3e 31 4a 1a be
       0.085779555 0.18261407 0.13041097 -0.15067364
000220 b8 c5 eb 3d 94 92 c2 bd 24 5b 34 3e 43 9b f6 bd
       0.11512321 -0.09500614 0.17612892 -0.120413326
000230 95 fb 69 3e ee 77 27 3e 8a ea 63 3e 46 71 e0 bd
       0.22849877 0.16354343 0.22257438 -0.10959105
000240 94 6d c0 3c 3e d6 1e 3d 92 ca d6 3d da 54 f7 3d
       0.02348975 0.038778536 0.10487856 0.12076731
000250 9b 9b d1 3c 2f 05 14 be 0a c7 85 bd d7 ed ef bd
       0.025586894 -0.14455102 -0.06532104 -0.11715286
000260 aa ca 24 3e 6e 58 ee 3a 94 31 0a be 21 3c 11 be
       0.16092935 0.0018184313 -0.13495475 -0.14183094
000270 f9 6d 1a 3c 94 60 26 3e 49 61 ed bc 98 3b 79 3d
       0.009425634 0.16247779 -0.028977053 0.06084785
000280 96 db bb 3c c2 63 5a bc a4 d0 0e 3d 74 0c 23 bd
       0.022931855 -0.013329448 0.034866944 -0.039806798
000290 e9 a9 08 3e fa e3 f5 3d c9 cd 6a bd 07 fd 3f bc
       0.13346066 0.12006374 -0.05732516 -0.011718041
0002a0 f3 2d de 3d 9b ef 28 bc 73 3c 86 3c f5 93 2e bc
       0.10848608 -0.010311033 0.016386246 -0.010655393
0002b0 8c d7 3c 3e bb 3d 2b bd cf a3 8e 3d 3b 36 25 bd
       0.184416 -0.041806918 0.06964838 -0.04033492
0002c0 0b e1 33 3e 9b 81 ae 3d 20 5d 83 ba 4f d3 cb bd
       0.17566316 0.08520814 -0.001002226 -0.09952413
0002d0 61 4e 9d 3d 71 01 cd 3d de a8 9d bc a8 ef dc bc
       0.07680965 0.100100406 -0.019245561 -0.026969746
0002e0 4a 63 06 3e 37 9d 8e bc 38 88 30 3d 04 4d f2 3d
       0.13123813 -0.01740895 0.04309866 0.11831096
0002f0 02 cf a4 3d ba 8a a3 bc 1a 6b 7a bc fa 23 40 3e
       0.08047296 -0.01996361 -0.015284324 0.18763724
000300 6c 43 10 3e c4 a2 e2 bc 0c 96 24 bd a9 d7 17 3d
       0.1408822 -0.027665503 -0.04018216 0.037070904
000310 34 1e 1c be 3f 57 02 bd b3 ac f8 3b d5 0a 55 3e
       -0.15245897 -0.031821486 0.0075889467 0.20804913
000320 94 4f bb bd 5a 8e 05 3e 98 4f 0f bd d8 36 c4 3d
       -0.09146038 0.13042584 -0.034988016 0.09580773
000330 41 c2 aa bd c4 da 55 3d 4e 8b 9b bd a6 1a 24 be
       -0.08337832 0.052210584 -0.0759493 -0.1602579
000340 b1 7b ea 3d 13 76 9f bd 05 76 01 be 7e aa 72 3d
       0.114493735 -0.07786193 -0.12642677 0.059244625
000350 de 2e 1e bd 6e 12 3b be 51 d6 cd 3d eb eb 20 3e
       -0.038618915 -0.18268749 0.10050643 0.15714996
000360 d0 d9 60 3e 6d 72 17 be c1 8d 1d bd 30 4c 58 3e
       0.21958089 -0.14789744 -0.038465265 0.21122813
000370 26 37 30 bc 91 f8 35 be 67 ed 2c bd f7 aa 82 bd
       -0.010755336 -0.17770602 -0.042218592 -0.06380265
000380 5b 09 90 bc ee cb 86 bc 22 cb b8 3d 8b d4 41 3d
       -0.017582586 -0.016454663 0.090231195 0.047321837
000390 78 53 55 bd bd 3d 0a bc 5a c8 8d 3d 18 d0 9a 3d
       -0.052081555 -0.008437571 0.0692298 0.07559222
0003a0 45 ab 33 be a7 7e e2 bc 2d cb 85 3d c5 e1 29 be
       -0.17545803 -0.027648283 0.06532893 -0.1659003
0003b0 a7 76 01 bd 45 a4 76 bd dd 79 33 3b c8 3c b7 bd
       -0.031607296 -0.060215253 0.0027385869 -0.0894714
0003c0 2a 52 d1 bd 88 cd 01 3e 64 a2 4f 3e 21 e3 a3 3d
       -0.1022075 0.1267606 0.20276791 0.08002306
0003d0 52 f4 17 3d 3d 88 99 3d b9 90 12 3e 93 a9 31 3d
       0.037098236 0.074966885 0.1431302 0.04337461
0003e0 a0 2e c4 3d f6 cf 91 3d 05 63 48 3e d4 8b b1 bc
       0.095792055 0.071197435 0.19569023 -0.02167312
0003f0 22 d8 32 3e 95 0d b0 bd 9b 92 21 3d 71 dd 71 bb
       0.1746526 -0.085963406 0.039446454 -0.003690567

mlp_1/MLP_0_1/hidden_2_1/BiasAdd/ReadVariableOp:0 f4 [128]
000000 68 ff 84 b9 a9 22 66 bd 01 d6 86 be 26 ca 21 be
       -0.00025367294 -0.0561854 -0.26335147 -0.1579977
000010 c9 0f 3f be e1 1b 95 bd db 97 67 3d c4 67 11 bc
       -0.18658365 -0.07280708 0.056541305 -0.008874837
000020 a1 9b b2 bd 14 c8 34 bd be 44 1c bd d6 56 51 bd
       -0.0872109 -0.044136122 -0.038151495 -0.051108204
000030 7a 4d 93 be 0f bd 8f be 8a 16 75 be ad fd 9e 3c
       -0.28770047 -0.28073928 -0.23934379 0.019408071
000040 7f 6e b5 3c d3 e3 1a bd ab 33 7e bc 2d c5 a6 3c
       0.022147415 -0.037814926 -0.015515248 0.020357693
000050 07 6f 7e be 34 0c 12 bd 27 a9 73 3b b4 86 41 bd
       -0.24847041 -0.03565617 0.003717968 -0.047247604
000060 0e 5c 21 be 5b 96 38 be 93 38 ce bd 68 53 28 bd
       -0.15757772 -0.18026106 -0.100693844 -0.041095167
000070 80 0c e0 3c 5b c8 24 3d ec 15 a2 bd e6 68 a2 bd
       0.02734971 0.040230136 -0.079143375 -0.07930164
000080 78 20 bc bd 06 4d fa 3b 92 1e 62 3c 09 92 e3 bd
       -0.091858804 0.0076385764 0.013801234 -0.11111838
000090 0b 3a 3b be 99 f9 a4 be 41 73 02 be bd 2a ee bd
       -0.1828386 -0.32221678 -0.12739278 -0.116292454
0000a0 fe 5a 0b be f1 88 0e be 87 34 c1 3d 41 21 f0 bd
       -0.1360893 -0.13919427 0.09433847 -0.11725093
0000b0 26 14 49 be 32 92 34 be db 88 e9 bc 12 2f f8 bd
       -0.19636592 -0.17633894 -0.02850764 -0.12118353
0000c0 77 e1 83 be cf bb 48 b8 45 db ae bd 32 a9 07 3c
       -0.25757954 -4.7858626e-05 -0.08537916 0.008280085
0000d0 89 4f f7 3b 75 d0 19 be 2c 6e 01 be 27 f6 52 be
       0.007547323 -0.15020926 -0.12639683 -0.20601712
0000e0 2d 22 a4 bc a6 a9 63 bd de c1 7e be 7a df 51 bd
       -0.020035828 -0.05558171 -0.24878642 -0.051238514
0000f0 71 81 c1 3c 7d 89 b4 bd 0c b6 2a be 2f d9 c6 bd
       0.023621293 -0.08815286 -0.16671008 -0.09709393
000100 ad 3d 80 be b1 26 03 bd 09 23 32 be a5 01 58 3d
       -0.25047055 -0.03201932 -0.17396177 0.052735943
000110 6a c4 55 bd bb b8 87 be b1 5f fd 3c 3f 92 32 be
       -0.05218927 -0.26508126 0.030929418 -0.17438601
000120 8a 6c 5e be 0e cc 85 be 69 f3 b4 bd 65 8b 7b be
       -0.21721092 -0.26132244 -0.08835489 -0.24564894
000130 54 79 30 be f2 49 26 be c2 51 89 3d 98 f5 e3 3c
       -0.17233783 -0.16239145 0.06705047 0.02782707
000140 2f 29 a4 bc 0c b0 f0 3d 08 51 a6 bc 16 5d 84 be
       -0.02003917 0.11752328 -0.02030231 -0.2585227
000150 1d 3b 88 bc 29 01 e1 bd c9 b6 fa bd 61 be 7f be
       -0.01662975 -0.109865494 -0.12241895 -0.24974968
000160 7a d2 5e be 1d 33 26 3d a1 41 14 be 0d 27 87 be
       -0.21759978 0.04057609 -0.1447816 -0.2639698
000170 ce 3f a0 bd 54 0d 07 bd f1 d1 45 be 8f f3 62 bd
       -0.0782467 -0.032971695 -0.19318368 -0.055408057
000180 0f 0c 58 be c1 80 e1 bd a4 9e 27 be c2 3c 50 be
       -0.2109835 -0.11010886 -0.1636911 -0.20335677
000190 c4 7d 29 3e 65 2c 08 be a3 4c 9e be 97 ab f7 bd
       0.16551882 -0.13298185 -0.30917844 -0.12093275
0001a0 a3 2b b8 3c 03 36 46 3d e7 db 37 bd 20 d8 04 3d
       0.022481745 0.048391353 -0.04488745 0.032432675
0001b0 c3 27 43 3c df 03 2a 3c b3 c6 74 bd 62 ac 12 bd
       0.011911335 0.0103768995 -0.059759807 -0.03580893
0001c0 6d 85 8d 3d 5f 31 ed 3c 74 63 18 be 8d 7f 7b bc
       0.069102146 0.028954206 -0.14881688 -0.015350235
0001d0 9d 91 d9 bd 1e 8c 14 bd b6 0a 45 3d c3 36 1e be
       -0.10623477 -0.03626644 0.048105918 -0.15450577
0001e0 cb ea 97 bd 9b 3b f8 bd 36 c1 77 be 11 c7 13 be
       -0.0741783 -0.12120744 -0.24194798 -0.14431407
0001f0 db d0 9d bd da 8a da bc 67 2a 88 3b 4e 10 fd 3c
       -0.07705852 -0.026677538 0.0041554454 0.030891564

mlp_1/MLP_0_1/hidden_1_1/Cast/ReadVariableOp:0 f4 [512, 256]
000000 2d b3 d1 3d db 0c 46 3d 6d 3c 4e 3d ea ed 41 3d
       0.10239253 0.048352104 0.050350595 0.047346033
000010 5d ed db 3c 2d 59 d8 bd 0e 46 09 bd c0 66 c6 bd
       0.026846582 -0.10563884 -0.033514075 -0.09687567
000020 e2 bb 9e 3c ff 60 19 3d 5c bd 9d 3d 98 77 4c 3d
       0.019376699 0.03744602 0.07702133 0.04991874
000030 86 2c 6b be a9 96 a1 bd f8 ae d8 3d 81 93 09 bd
       -0.22966203 -0.07890064 0.10580248 -0.033587936
000040 00 d9 e9 3c 1a a9 37 be e5 b7 8a 3d aa 55 c4 bb
       0.028545856 -0.17935601 0.06773356 -0.0059916573
000050 f1 15 a2 bc cc 5f 0b bd 14 31 c9 bd f8 fd 93 bd
       -0.019785853 -0.034026906 -0.09823814 -0.07226175
000060 33 74 53 3d c8 86 c0 bd 4d c2 56 bd 83 d8 11 bb
       0.051624488 -0.094007075 -0.052431393 -0.0022254295
000070 3d 37 45 be 6d 07 94 3b 9e 50 f2 bd 48 c7 64 bc
       -0.19259353 0.004517487 -0.11831783 -0.013963528
000080 95 f7 df bd 7b 3f 83 bd 9c ae 3f 3d 14 49 92 bd
       -0.109358944 -0.06408592 0.04679738 -0.07142845
000090 bc 66 00 3e 87 5c e8 bd 95 78 66 3d 49 2f 00 bc
       0.1253919 -0.11345773 0.05626734 -0.007823774
0000a0 ab 7b ef bc 8b 49 a2 3d 73 b3 03 be c4 36 47 bd
       -0.029233774 0.079241835 -0.12861423 -0.048636213
0000b0 6c c4 04 3e b7 ba 05 be a4 e1 d9 3c 4a 65 2c bd
       0.12965554 -0.13059507 0.026596852 -0.042088784
0000c0 d8 d1 d9 3d b7 f7 b7 3c 32 e5 68 be f5 6f 1f 3d
       0.10635728 0.022456987 -0.22743681 0.03892513
0000d0 db e8 ae 3b 72 b2 37 bd 53 69 3b 3c 32 ee 3d 3d
       0.005337817 -0.044847913 0.0114386855 0.04636974
0000e0 27 6b 09 3e a4 7e 2e bc b4 18 9d 3d c7 3b 3f 3b
       0.13419782 -0.010650311 0.07670727 0.0029179917
0000f0 d5 da 82 3c ce a8 ec bc c3 01 08 3d f3 38 88 be
       0.015973488 -0.028889086 0.033204805 -0.2660595
000100 ee 6f 32 be a9 3c 25 3d a4 96 a9 3d a2 ce 27 be
       -0.1742551 0.040341053 0.082806855 -0.16387418
000110 24 a9 57 be 27 98 4f be cb 82 45 3d 37 73 56 3d
       -0.21060616 -0.20272885 0.048220437 0.05235597
000120 ea 6f 0b bc 2f 20 15 3e c4 be 52 bc 6b 01 54 be
       -0.008510569 0.14563058 -0.012862865 -0.20703666
000130 31 7a c1 bc 3c dd 8a 3d a5 93 cd bd 62 a3 90 3c
       -0.023617836 0.06780478 -0.100379266 0.017656032
000140 d8 78 92 bd 84 67 20 be 88 74 56 3d 8b 9e 87 bd
       -0.07151955 -0.15664488 0.052357227 -0.066220365
000150 80 ff 24 bd f9 43 dc bd 66 ca 67 3d 75 fa 3f bc
       -0.040282726 -0.10755152 0.056589507 -0.011717428
000160 26 9d ae 3d 94 bc 91 bc e8 76 a3 bd 17 7c 3b be
       0.085260674 -0.017790116 -0.07981664 -0.18309055
000170 0a 16 d5 3d 76 13 ae bc 7e b7 9a 3d 55 75 02 3e
       0.10404594 -0.021249514 0.075545296 0.12740071
000180 1c 43 5d 3d b8 04 14 3c 0a b3 b1 3d be 3f af 3d
       0.05401908 0.009034328 0.08676727 0.0855708
000190 5e 51 1d be 72 8e 99 bb 3e 27 82 bc 92 e1 d7 bd
       -0.1536307 -0.0046861703 -0.015887853 -0.10541071
0001a0 9a 71 85 39 6c 1c 17 be 13 b3 d2 bc 58 4e b0 bd
       0.00025452377 -0.14756936 -0.025720155 -0.08608693
0001b0 48 4d b5 3d a5 ea 04 3c 84 eb 79 3d 7f 81 f0 bd
       0.08852631 0.008112584 0.06101562 -0.117434494
0001c0 e7 39 9d bc 1b 4a 1c be f7 a1 37 be a3 bb 23 3e
       -0.019192649 -0.15262644 -0.17932878 0.15989546
0001d0 f4 c1 77 3d bc b4 9d 3d 87 a5 08 3e b4 fc 8d 3d
       0.060487702 0.07700488 0.13344394 0.06932965
0001e0 f9 b7 9b bd 55 db 0a 3e 00 aa 81 3c 30 f2 64 3d
       -0.076034494 0.13560231 0.015828133 0.05589503
0001f0 99 27 55 bd 5c 9e 29 be 96 e9 2d 3d 86 91 6a be
       -0.052039716 -0.16564316 0.042459093 -0.22907075
000200 25 17 f2 bc ae e4 fd 3d ed 30 8a 3c 6d 2f d5 3c
       -0.029552052 0.12397133 0.016869033 0.026023591
000210 96 b8 39 3e e4 02 04 3c 5e 9c b6 3c f4 48 de 3d
       0.1813682 0.00805733 0.022291359 0.108537585
000220 b7 bc 38 bd 8a e3 11 be 9a 1c 17 3d 76 57 5c bd
       -0.045101847 -0.14246956 0.03689251 -0.053794347
000230 7c e0 80 bd cc e1 c8 bc 0d 56 cd bd 14 5c 41 3d
       -0.06292817 -0.02452173 -0.100261785 0.047206953
000240 37 7c 06 3e fd 98 cb bd 69 04 99 bd 08 3d 5b 3d
       0.13133322 -0.099412896 -0.07471544 0.053525
000250 52 cd f2 3d 1d 86 37 bd ee 18 57 3d 31 b3 c0 bb
       0.11855568 -0.044805635 0.05251401 -0.0058807363
000260 9e 34 7f 3d 98 de 14 be 1c b5 55 bd b8 1e af 3b
       0.06230604 -0.14538038 -0.052174672 0.005344238
000270 fc 3b 8d bd 10 e3 0b be 2b bd f6 3d bc 24 b2 3c
       -0.06896207 -0.13660836 0.120478 0.021746032
000280 77 3c 2a be 05 af c2 bd a6 c2 07 3d 41 60 5e 3d
       -0.16624628 -0.095060386 0.033144616 0.054291014
000290 36 e0 fe 3d ba b1 28 bc ae 11 ee bd 94 a7 19 be
       0.124451086 -0.01029628 -0.11624466 -0.15005332
0002a0 78 c1 cb bc 1b 03 ad bd e9 c1 66 3d 07 6e 48 bc
       -0.024872527 -0.08447858 0.05633727 -0.012233264
0002b0 a8 f7 8d 3d d1 3c 1a 3d 04 6e a5 bd 26 bf e8 3b
       0.06932002 0.037655655 -0.080776244 0.007102865
0002c0 2e da da 3c 02 2a a2 bd 70 b2 3a 3d fc 11 c3 bc
       0.026715364 -0.079181686 0.045580328 -0.023812287
0002d0 04 73 7a 3d 67 8a 5c be 04 43 21 be bd ac b3 bd
       0.061144844 -0.21537171 -0.1574822 -0.087731816
0002e0 b9 ca a4 3d 77 79 7d 3c 8b 76 f0 bc 6e 59 f3 bd
       0.08046479 0.015470854 -0.0293534 -0.11882292
0002f0 7a 30 17 be c5 47 7d bd b8 7d 08 3e e4 74 3c bd
       -0.14764586 -0.061836023 0.13329208 -0.046009913
000300 9b d4 36 3d b3 d0 f3 bd 36 8d f6 3d 71 7e 98 bb
       0.04463635 -0.119050406 0.120386526 -0.004653745
000310 fe e9 66 3d b1 90 a7 bd a2 7d 17 bd db fe ce bd
       0.056375496 -0.081818946 -0.036985047 -0.101072036
000320 b9 9a db 3d b8 f2 1b 3d da 67 32 be fc 2a e9 3c
       0.107228704 0.03807327 -0.17422429 0.02846288
000330 5a 37 3d 3d 7c 75 ef bd 49 bf db 3c e9 2a be 3c
       0.046195365 -0.1169233 0.02682461 0.02321382
000340 30 bd 97 3d 43 f6 b7 bd 00 9f 29 3e 01 c5 89 3d
       0.074091315 -0.089825176 0.1656456 0.06727029
000350 0f 52 5d bd 73 04 1a be 9b 78 1e be 3e e3 04 be
       -0.054033335 -0.1504076 -0.15475695 -0.12977311
000360 4b d8 75 be 41 0d 70 3c 3f 4d 3a bd 67 d8 b3 bd
       -0.2400829 0.0146515975 -0.045483824 -0.0878151
000370 b8 bd 1b be 9e f7 3b bd f3 8f 8f bd 74 0b 1b be
       -0.1520909 -0.045890443 -0.07009878 -0.15141088
000380 82 75 b3 3c 28 6a 8d bd e3 67 82 3c 01 58 89 bc
       0.021906618 -0.06905013 0.015918678 -0.016765596
000390 65 4a ab bd 26 10 dc 3d d9 4c 66 bd d6 87 32 3d
       -0.08363799 0.107452676 -0.05622563 0.043586574
0003a0 13 4c 37 be 0b 44 9d 3b a2 a2 c8 bd e1 ff bd 3b
       -0.17900114 0.004799371 -0.09796645 0.0057983254
0003b0 68 51 8a bd e1 cb c7 bd b0 77 a5 3c 69 05 9b bb
       -0.06753808 -0.09755684 0.020198673 -0.0047308696
0003c0 ec f0 36 bd 6c 7c c2 bc f5 0d 5a be 92 ab c2 bd
       -0.044663355 -0.02374097 -0.21294387 -0.09505381
0003d0 d2 61 0a be 56 16 86 3d 64 32 c1 bd 85 61 0b be
       -0.13513878 0.06547229 -0.094334394 -0.1361142
0003e0 86 b7 20 be 64 68 ba 3d c5 8d 2c bd dd 85 69 bd
       -0.15695009 0.09101942 -0.04212739 -0.057012428
0003f0 f2 a5 f5 3d 7b 98 9d bb 84 0a 6e be 39 52 ee bc
       0.11994542 -0.004809437 -0.23246199 -0.029091941

mlp_1/MLP_0_1/hidden_1_1/BiasAdd/ReadVariableOp:0 f4 [256]
000000 ca db c2 3c a0 86 e6 bd 7b 97 f1 bc 5b 16 d0 bd
       0.023786444 -0.112561464 -0.029491177 -0.10160514
000010 f4 d3 0e 3e 1a 98 32 bd 7b 6a ee bd df 19 0b be
       0.13948041 -0.043602087 -0.11641403 -0.13584088
000020 25 ef 0a be 39 08 73 bd 59 af 28 bd 8b da 34 3d
       -0.13567789 -0.059334014 -0.04118285 0.04415373
000030 0f 67 40 3d c7 99 b6 bd ab 72 58 3c c2 66 f4 bd
       0.046973284 -0.089160495 0.013210933 -0.11933662
000040 26 55 13 3e ac da 1b be 3e 68 54 3c 7a d5 3f be
       0.1438795 -0.15220135 0.012964306 -0.18733779
000050 97 50 3f 3d 9e 18 4b 3c 9b 42 14 be 7a f9 ae bb
       0.046707716 0.012396006 -0.14478533 -0.0053397985
000060 d4 74 82 bd 39 42 a5 3d 42 9c 49 be 30 a7 82 bb
       -0.063699394 0.080692716 -0.19688514 -0.0039872155
000070 44 28 a6 bc d0 a1 44 bd 6c 2b 61 3d 30 05 12 3d
       -0.020282872 -0.04800588 0.05497305 0.03564948
000080 f7 dd 69 be 85 04 51 3c 0b 29 0b bc 02 b7 94 3b
       -0.22838579 0.012757425 -0.008493672 0.004538418
000090 e7 08 57 3d 16 2f e0 bd c0 72 7b be 10 36 97 3d
       0.052498724 -0.10946481 -0.24555492 0.073833585
0000a0 00 be b2 3c 86 54 96 bd 82 2d 35 be 99 09 4d bd
       0.021819115 -0.0734034 -0.17693141 -0.05005798
0000b0 3a 6d 54 be a7 bf 45 bc 62 a7 b5 bd 86 9d dd bd
       -0.20744792 -0.012069619 -0.08869816 -0.10821061
0000c0 a9 99 bf bd c9 ed 72 3d c1 a1 2c bd b6 ab f5 bd
       -0.0935548 0.0593088 -0.042146448 -0.11995642
0000d0 21 35 df bd 32 13 1a be 71 b3 40 3b 69 11 c4 bd
       -0.108988054 -0.15046385 0.002940383 -0.09573633
0000e0 10 e1 34 bc c1 4e 60 3c e6 ac d6 bb e9 51 8f bd
       -0.011039987 0.013690651 -0.006551373 -0.06998045
0000f0 42 b1 e4 bd cd 31 ea bd 70 d4 81 bc 16 ba 2f bd
       -0.11166622 -0.1143528 -0.015848368 -0.042902075
000100 a6 ad e9 bd bf c1 7b bd 1b 52 23 be ab c6 f6 bc
       -0.11410074 -0.061464068 -0.1594929 -0.03012403
000110 d7 c6 a2 3d 7a df a0 bd 41 52 e2 3d 3d 2a 45 be
       0.07948082 -0.07855125 0.11050845 -0.19254394
000120 bc 09 10 3d de 4a 36 3d 53 99 72 3d 7b 86 d6 bc
       0.035165533 0.044504993 0.059228253 -0.026187172
000130 37 6d 56 bd 27 23 16 bc 2f 3f b8 ba c0 a4 89 bd
       -0.05235025 -0.009163654 -0.0014056916 -0.06720877
000140 e2 7f ff 3c da 9b 08 be b9 c7 69 be b7 f4 3d 3b
       0.031188909 -0.13340703 -0.22830094 0.0028984973
000150 85 6f ef bd 2e 95 dd 3a 4a 95 6c bd b1 97 a2 bd
       -0.116911925 0.0016905421 -0.05775956 -0.07939089
000160 2d c9 27 bd 1c ac 84 bd e1 60 88 3d d3 64 9a 3d
       -0.04096334 -0.0647814 0.06659103 0.07538762
000170 1d d2 ac bd df 8d 58 3e 85 0b b9 3d 94 03 a0 bc
       -0.084385134 0.2114787 0.090354 -0.019532956
000180 7e de 89 bc 9e a8 29 be 8b b8 37 bd d5 3f 76 bc
       -0.016829725 -0.16568229 -0.04485373 -0.015029867
000190 03 53 26 be 4a 29 dc bd 37 65 1e be 0a ab 07 bd
       -0.16242604 -0.10750063 -0.15468298 -0.0331221
0001a0 85 e7 95 3d cf d8 89 3d 0a e4 81 be b0 2b 16 bd
       0.073195495 0.06730806 -0.25369292 -0.036662757
0001b0 b4 c4 ec bd 38 03 e1 bd eb 1b 27 bd c4 9d 72 be
       -0.11560956 -0.10986942 -0.04079811 -0.23692995
0001c0 4e 9e 14 3d 77 7a 12 be 0c e4 90 bd ce 58 08 be
       0.036283784 -0.14304529 -0.070747465 -0.13315126
0001d0 62 be c4 bd f4 d3 e7 bd 3c f5 db bd 59 13 24 be
       -0.09606625 -0.11319724 -0.10740134 -0.16023006
0001e0 d1 7b 5f bd 87 41 8d be 51 84 99 bc 2e 71 f2 3a
       -0.05456144 -0.27589056 -0.018739851 0.0018496865
0001f0 dc ab e6 bd 9b fe 63 bd c9 41 d2 bd bf 7d 15 be
       -0.11263248 -0.055662733 -0.10266454 -0.1459875
000200 c0 2c 30 be 8c aa 16 3e 5e 2c a5 bc a3 b2 4f be
       -0.17204571 0.14713496 -0.020162757 -0.20282988
000210 a5 59 42 3b 41 db 48 be 08 f1 89 be 49 50 ed bd
       0.0029655483 -0.19614889 -0.26941705 -0.11587579
000220 0d 7d 61 be 40 35 25 3d b5 d1 2b 3d 19 fe 5f be
       -0.2202036 0.040333986 0.04194804 -0.21874274
000230 de 10 c3 bd 06 9f c2 bd ed 0b a1 bd c6 8f 5c bc
       -0.095247015 -0.095029876 -0.07863603 -0.013462013
000240 ad 31 40 be 85 ec 47 bd 96 32 d6 bd 9b c7 89 bc
       -0.1876895 -0.048809547 -0.10458867 -0.016818812
000250 93 46 2d be bd c7 bd bd 9f 3e a2 3d 9b 90 e0 3c
       -0.16921453 -0.09266613 0.079221 0.027412703
000260 bd 08 24 bd fe fa cb 3d bd f2 0a be d7 7b de bd
       -0.040047396 0.09959982 -0.1356916 -0.10863464
000270 dc 6b 09 be 78 fe fc 3c 83 8c 07 3c 63 6e a3 bd
       -0.13420051 0.030883059 0.008273247 -0.07980039
000280 ce 70 42 be 84 f9 30 bd 6a 98 35 be 26 7b e5 bc
       -0.18988344 -0.043206707 -0.17733923 -0.028012823
000290 a0 62 48 3d e0 6f 70 be 1a a0 0f be 98 d7 2a bd
       0.04892218 -0.23480177 -0.14025918 -0.041709512
0002a0 f3 e7 1b be d1 2a 1f be a1 f6 0c be 9a ea 51 be
       -0.152252 -0.15543677 -0.13765956 -0.2049965
0002b0 52 18 29 be ca a4 12 be 3b 72 2f be 6a f5 81 bd
       -0.16513184 -0.14320675 -0.17133419 -0.06345637
0002c0 3f 01 92 bd b4 2d e7 bc 4d 9b 53 be 0f 29 20 be
       -0.07129144 -0.028220035 -0.20664711 -0.15640663
0002d0 16 72 a7 bb 4e 40 50 be 69 78 47 be 71 57 0f be
       -0.0051100357 -0.2033703 -0.19479527 -0.139982
0002e0 ef a5 10 be 34 9f 99 bd 6e 31 4d bd 40 2d 04 bb
       -0.14125799 -0.07501069 -0.050095968 -0.0020168573
0002f0 0b 57 98 bd 17 9d b2 3d b0 02 ef bd 08 42 00 be
       -0.07438477 0.08721369 -0.116704345 -0.12525189
000300 94 c0 45 3b a3 62 35 be 10 29 a2 bd 59 a3 4e bd
       0.00301746 -0.17713408 -0.07917988 -0.05044875
000310 d7 d0 da bd 0f 4d 8b 3d 03 90 45 be 71 6c 67 be
       -0.10684364 0.06801807 -0.19293217 -0.22599961
000320 44 b2 da bd 08 34 62 be d0 be 06 be cd 71 67 bc
       -0.10678533 -0.22090161 -0.13158727 -0.014126253
000330 ce f6 27 bd 60 bf a5 bd 3b 92 0a be 84 3a 36 be
       -0.041006856 -0.080931425 -0.13532345 -0.1779576
000340 d8 4e 77 be ee a5 a6 3d ae 80 19 bd 05 c6 e3 bc
       -0.2415117 0.08137117 -0.037476234 -0.027804384
000350 b8 fe f1 bd ca ae c8 bc 3c 0d 1e be 6c ef 3a bd
       -0.11816162 -0.024497408 -0.15434736 -0.045638487
000360 00 57 c9 3c 96 95 f3 bd 3c 9b 6c bd d2 f8 be bd
       0.024577618 -0.11893766 -0.05776523 -0.093248025
000370 30 23 39 be d1 dd 91 3d a6 0b 53 3d 25 69 ff bd
       -0.18079829 0.07122386 0.05152478 -0.124712266
000380 31 85 c4 3b a1 2b 57 bd 0c 31 48 bc 67 72 25 3c
       0.005997323 -0.052531842 -0.012218725 0.010098076
000390 b1 60 b3 3d 6e 23 1e be 99 9a d8 3d cc 01 5f bc
       0.08758677 -0.15443203 0.10576362 -0.013611268
0003a0 dd f3 8f be 93 d3 ad bd f2 e8 46 3d 6b 31 43 3d
       -0.2811574 -0.0848762 0.048561998 0.04765455
0003b0 05 21 ff bd fe 38 76 bd 34 cf 69 be 5e 6d 40 bd
       -0.1245747 -0.060112946 -0.22832948 -0.0469793
0003c0 9a 00 b6 bd 78 4e 26 be e6 a9 03 be 6f f1 19 3c
       -0.088868335 -0.16240871 -0.1285778 0.009395941
0003d0 e9 da 3f be fb aa 4e bc 7a 6a 66 3d 77 84 75 3d
       -0.18735851 -0.012614007 0.056253888 0.05994078
0003e0 d0 56 c4 bd 46 4e 4a be 64 ac 96 be 22 c2 6d bd
       -0.09586871 -0.19756421 -0.294284 -0.058046468
0003f0 80 89 88 bd 6f 9d e0 3d c5 34 05 be ce 70 25 be
       -0.06666851 0.10967528 -0.13008411 -0.16156313

mlp_1/MLP_0_1/hidden_0_1/Cast/ReadVariableOp:0 f4 [64, 512]
000000 9d 1b 80 3d 5a 35 2e 3e 79 e9 5f bc b4 c4 0d 3e
       0.06255267 0.1701254 -0.013666504 0.13844568
000010 dd 1c 01 bd 20 08 3f 3e d2 9c 9a bd 78 4e 97 be
       -0.031521667 0.18655443 -0.07549442 -0.29552054
000020 60 ff 0b 3e 8c 60 11 3e e1 d4 bd bd 8a e1 a3 be
       0.13671637 0.14196986 -0.09269119 -0.3200801
000030 84 c1 2d bd 91 75 10 be 81 1a ca be 4e e2 0f 3d
       -0.04242088 -0.14107348 -0.39473346 0.03512793
000040 45 0e 39 bd c5 b2 94 bc b6 62 26 3e 39 c0 5e be
       -0.045179624 -0.01815165 0.16248593 -0.21753015
000050 7e f9 a4 be 89 0b 92 be c1 10 0f be 74 c9 3a 3d
       -0.32221597 -0.28524426 -0.13971235 0.045602277
000060 9d e7 19 be d4 ea 51 bd aa 11 db be 62 f9 b8 be
       -0.1502976 -0.05124934 -0.42786914 -0.36127764
000070 78 fd ad 3e 0e c8 28 be 11 15 6c 3d 89 5b f6 bd
       0.33982444 -0.16482565 0.057637278 -0.12029178
000080 b7 a8 a8 3e a1 62 40 be 1e 5e 01 3e 1f 5c ac bd
       0.3294122 -0.18787624 0.12633559 -0.08416008
000090 da 35 c7 3c 45 c3 3f 3e bb ed ec 3d 77 1d a1 3e
       0.02431767 0.18726833 0.11568781 0.31467792
0000a0 8a d7 83 3e c7 b2 32 be 86 a7 10 3e cd b2 52 be
       0.2575038 -0.1745101 0.14126405 -0.2057602
0000b0 4d 24 c6 3e 8c 04 07 3e 07 a8 45 bc b8 d8 d0 3e
       0.3869957 0.13185328 -0.012063987 0.40790343
0000c0 88 da d2 3d 48 6b 93 3e 8d e5 3d 3e e5 54 72 bd
       0.10295588 0.28792787 0.18544598 -0.059162993
0000d0 e8 ef 8f bd de 7b 81 3d e3 a1 99 3e ea c4 9c 3e
       -0.0702818 0.06322454 0.30006322 0.30618984
0000e0 7b 70 5a 3e 08 d9 9e be 7a 91 10 3e 56 d9 a4 3d
       0.2133197 -0.31024957 0.14117995 0.08049266
0000f0 0d 8d 9f 3d f4 20 a4 3c fe d0 de bd 6b 88 c6 3b
       0.07790575 0.020035245 -0.10879706 0.0060587428
000100 41 1f 27 3e 97 c0 ec bd 33 7f 9a 3e 37 0f e1 3e
       0.16320516 -0.11560171 0.3017517 0.4395692
000110 50 16 8e bd 16 5a a2 be d5 f7 72 be a7 d7 e0 3e
       -0.069378495 -0.31709355 -0.23727353 0.4391453
000120 6a de db be bb d2 b0 be 8c 3f 3c be 2a 59 a8 bd
       -0.42943126 -0.34535775 -0.18383616 -0.08220132
000130 8f 31 92 3e 54 ae 34 3e 4d 10 b4 3e 29 a4 99 bc
       0.28553435 0.17644626 0.35168687 -0.018755035
000140 26 20 3f be d3 34 22 3f 43 c2 3d 3d 01 ae 47 3e
       -0.18664607 0.63361853 0.04632784 0.19499971
000150 bf 58 2b 3e 19 16 a1 bb 1e 76 4a be 45 9b 2d 3e
       0.16733073 -0.0049159643 -0.1977162 0.16953762
000160 6f 58 dd bc f6 67 4e bc f9 d9 0c bb 56 29 43 3e
       -0.027019707 -0.012598028 -0.0021492227 0.19058737
000170 e0 d2 34 be e9 34 29 be 5e aa ed bd d8 cf 15 3e
       -0.17658567 -0.1652409 -0.116047606 0.14630067
000180 2d 50 3a 3c 51 65 57 be b6 80 ca bd 40 22 d5 3e
       0.011371654 -0.21034743 -0.09887831 0.41627693
000190 ba 8a c3 be d4 e8 8e 3d cf 2e 10 be 7c 6c 4a 3e
       -0.38191777 0.06978002 -0.14080356 0.19767946
0001a0 17 bc 58 be ad 4d 09 3e 7c 8c 80 3e 07 69 32 be
       -0.211655 0.13408537 0.2510718 -0.17422877
0001b0 1f a3 ae bc 25 1f 4a 3e 39 89 9f bd 10 f0 32 ba
       -0.021318017 0.19738443 -0.07789845 -0.0006825933
0001c0 00 96 52 be 53 b2 c1 3c 86 48 73 bc 41 0e 0d 3e
       -0.20565033 0.023644602 -0.014848834 0.13774969
0001d0 89 bf 2f 3d cd bd f2 bd 28 0a 1c 3e f9 58 a8 3c
       0.04290727 -0.11852608 0.1523825 0.020550238
0001e0 24 31 4e 3d fd a4 ac bd da c6 14 3d 65 83 52 3e
       0.050339833 -0.084299065 0.036322452 0.20557936
0001f0 56 d9 92 bd c0 dd 13 bf c8 2c 70 3d 9d 80 c2 be
       -0.0717036 -0.5776024 0.058636457 -0.3798875
000200 bb 81 4c be 56 09 91 3c 89 02 0d bf c1 02 e6 be
       -0.19971363 0.017704647 -0.55081993 -0.44923976
000210 0b de dd be e4 de dd be 37 e3 af 3e 15 e9 0b 3e
       -0.43333468 -0.43334115 0.3435304 0.13663132
000220 75 58 2f bd a9 aa b0 bc 22 3f 8e 3d c1 b7 50 be
       -0.04280897 -0.021565752 0.069456354 -0.20382597
000230 84 60 9d 3d 8c cb 21 3e f5 5f a0 bc 5c 01 0b 3e
       0.076844245 0.15800303 -0.019577006 0.13574737
000240 72 07 fd 3d 94 e7 01 bd d3 36 cc be 13 7e 38 3e
       0.12354936 -0.03171499 -0.39885578 0.18016843
000250 df ad 02 bd 84 e3 b4 be 28 e5 8e bd 6b 46 49 3d
       -0.031904098 -0.3532983 -0.06977302 0.04913942
000260 6e 38 5a be 7f 3f 93 3e ec 31 99 bd 37 3e 1d 3e
       -0.21310589 0.2875938 -0.07480225 0.15355764
000270 ab 2b 40 3e 1a 39 d0 bb 3e 57 42 be 33 d1 40 3e
       0.18766658 -0.0063544633 -0.18978593 0.18829803
000280 3d f4 1f 3b 7a bb 1d bc 79 d0 9c 3e 90 99 ce 3e
       0.0024407052 -0.009627217 0.30627802 0.40351534
000290 5b d5 10 be 78 68 19 be bd 66 f6 3e 54 85 33 3e
       -0.14143889 -0.14981258 0.48125258 0.1753133
0002a0 e3 0a 71 3e 1d 47 2a be 44 52 46 3c f5 dc 75 be
       0.23539309 -0.1662869 0.012104575 -0.2401007
0002b0 09 85 a3 3e b2 14 f3 bd c3 20 4d 3d 2a 9d e3 3e
       0.31937435 -0.11869182 0.050080072 0.44455844
0002c0 ca 85 ad 3e 5b 48 19 bd f1 24 93 3d 10 9a 05 bc
       0.33891135 -0.03742252 0.071847804 -0.008154407
0002d0 9d 7f 89 bd 88 13 75 3e 03 b8 49 3e f8 7b 0f be
       -0.067137934 0.23933232 0.19699101 -0.14012134
0002e0 03 05 16 3d 94 39 d8 3d e0 07 b2 3e 1b 98 8d be
       0.036625873 0.10557857 0.34771633 -0.2765511
0002f0 95 85 48 bd a2 5b ca 3e 42 13 70 3e fa 02 ab be
       -0.04895552 0.39523035 0.23444846 -0.33400708
000300 24 ae 98 3e fb 95 9f 3d 20 99 e6 be 67 b9 01 3e
       0.2982036 0.077922784 -0.450387 0.12668382
000310 65 4f b0 bd 6c 5f a7 3e d3 31 e1 3d 0f 20 4d be
       -0.08608893 0.3268999 0.10995831 -0.2003176
000320 43 a4 80 3e f5 f5 3f 3d af cc 80 be cd cf 36 3e
       0.25125322 0.046865422 -0.2515616 0.17852707
000330 fa 81 35 be 96 b5 42 be 34 46 94 3e b2 b7 8a 3e
       -0.17725363 -0.19014582 0.2895981 0.27093273
000340 31 55 bc 3d 5c 44 12 bd 4f 15 a8 bd 14 a8 cd 3d
       0.091959365 -0.035709724 -0.08207189 0.10041824
000350 f3 d6 12 3e e8 09 8d 3e 17 0d 0c be e8 09 8b be
       0.14339809 0.2754662 -0.13676868 -0.27155995
000360 e9 67 f5 3d 34 98 6e bc fd af dd bd 4e 52 4c be
       0.1198271 -0.014562655 -0.10824583 -0.19953272
000370 71 20 c4 3e 2a b2 de 3c b5 ac e2 bd 2c 7f 9f bc
       0.38306 0.027184565 -0.110680975 -0.01946982
000380 e8 75 85 3e 8b 96 1a 3e ea b7 c9 bc 8b 21 cd bc
       0.26066518 0.1509649 -0.02462383 -0.025040409
000390 a6 df 87 3d af 71 51 be 8e 48 c6 3d 60 8f c8 be
       0.066344544 -0.20453523 0.096818075 -0.39171886
0003a0 1b 6b ea bd c1 60 26 be 2e 82 07 3e c0 0a e2 3e
       -0.1144621 -0.16247846 0.13233253 0.44148827
0003b0 3d b5 e6 be 61 fc 84 ba 42 61 87 bd f7 48 43 bc
       -0.4506015 -0.0010146016 -0.06610347 -0.011919252
0003c0 72 4c 82 3e 3c 1c f8 bd 7d 24 db 3d 34 6f 82 3e
       0.25448948 -0.1211476 0.10700319 0.25475466
0003d0 5d b5 9c be 35 22 9d 3e 6e 42 80 be e2 14 05 3d
       -0.3060712 0.3069016 -0.25050682 0.03249062
0003e0 b3 ac b3 be ae da 03 3e 58 ab d9 be ab de 7b bd
       -0.35092697 0.12876388 -0.42513537 -0.06149165
0003f0 b8 7c 06 3e ca 89 d9 bd a5 61 27 bf 1d fb bc be
       0.13133514 -0.10621984 -0.6538337 -0.36910334

mlp_1/MLP_0_1/hidden_0_1/BiasAdd/ReadVariableOp:0 f4 [512]
000000 94 e7 3b be e4 b2 5d 3c d9 c9 0b be dc 51 f1 bd
       -0.18350059 0.01353142 -0.13651218 -0.117831916
000010 75 f8 a3 be f5 3c 0f be 2e 16 ec bd 48 22 76 be
       -0.32025495 -0.13988097 -0.11527668 -0.24036515
000020 34 fb 60 be 87 d8 a8 bd c0 98 6a be 87 04 e5 bd
       -0.21970826 -0.08244424 -0.22909832 -0.11182504
000030 ee ac 63 be 7f 3a eb be 26 73 3f be 7e c6 88 be
       -0.22233936 -0.45943066 -0.1869627 -0.26713938
000040 2b 2d 87 be 9d bb 4e be bc f5 8a bc d1 aa 97 be
       -0.26401648 -0.20188756 -0.016962878 -0.2962251
000050 5e 1b bc bd a3 b9 13 be 10 2e 77 be 83 82 a2 be
       -0.091849074 -0.14426284 -0.24138665 -0.31740198
000060 bb 53 e5 be 9b 82 ef bd 80 e3 5c be a9 cc d5 be
       -0.44790444 -0.11694833 -0.2157116 -0.41757706
000070 27 5b 4a be a0 06 96 be c2 a6 c2 be fb 9c 96 be
       -0.19761334 -0.2930193 -0.3801785 -0.29416642
000080 25 a1 85 be 59 b5 45 be 8f 3f 61 be 43 e7 ee bd
       -0.26099506 -0.1930746 -0.21996902 -0.116652034
000090 4b de 98 be 67 ed a7 be 72 ec d6 bd ab fb 9c be
       -0.29857096 -0.3279831 -0.10494317 -0.30660757
0000a0 04 a8 fa bd 44 de 87 be 4d 44 3e be 36 82 04 be
       -0.12239078 -0.26536763 -0.18580742 -0.12940297
0000b0 10 86 45 be 60 66 07 be 25 5c fc bd e5 34 36 be
       -0.19289422 -0.13222647 -0.12322263 -0.17793615
0000c0 03 f7 ac be a4 9a 40 be 67 c7 71 be 64 75 67 be
       -0.33782205 -0.1880899 -0.23611222 -0.22603375
0000d0 52 4d 4d be 7d ee 8a be 39 3d 1d be 4a 66 96 bd
       -0.20049027 -0.27135077 -0.15355386 -0.07343729
0000e0 c2 a4 ec bd 2d ff 85 be 15 3c 90 be 74 db 43 be
       -0.115548626 -0.26171246 -0.2817084 -0.19126683
0000f0 1b b0 cb bd 52 fd aa be ef 26 0c be 6d 99 94 be
       -0.09945699 -0.33396393 -0.13686727 -0.29023305
000100 39 c2 1f be 54 1e c3 bd 60 c7 c9 be 5e 15 ac be
       -0.15601434 -0.09527269 -0.39409924 -0.33610052
000110 47 2c 96 be a8 7a 49 be 2b 32 c7 bd f5 51 41 be
       -0.29330656 -0.19675696 -0.09726366 -0.1887892
000120 37 a8 9f be 5b a5 a0 be 19 20 d3 be 4c 86 f0 bd
       -0.31183025 -0.31376156 -0.41235426 -0.11744365
000130 84 66 72 be ad 8f 4f bd df a4 13 be 68 fe 3d be
       -0.23671919 -0.05067413 -0.14418362 -0.1855408
000140 5f 3c 8a be 82 2e 25 be fe 06 45 be d2 80 d1 bc
       -0.26999184 -0.16131023 -0.19240949 -0.025574122
000150 2c 3e e2 bd 7b 88 37 be 32 37 7b bd d0 15 94 be
       -0.110470146 -0.17923157 -0.061331935 -0.28922892
000160 9b f9 f2 bd 63 a6 1e be 28 c7 3d be a0 89 09 bd
       -0.11864015 -0.15493159 -0.18533003 -0.033578515
000170 25 95 d4 bd 35 68 d8 bd 9b f2 ef bd 9a ef 95 be
       -0.103800096 -0.10566751 -0.11716195 -0.29284364
000180 36 e0 f2 be 81 09 36 be 96 ea 52 be 82 a1 4b be
       -0.47436684 -0.17777063 -0.205973 -0.19885829
000190 8f 13 b7 be 0d 6d 34 be 45 20 12 be 07 d7 1d be
       -0.3575711 -0.17619725 -0.14270122 -0.15414058
0001a0 9d f7 5b be 6b 82 32 be 7c 90 2d be a9 b0 87 be
       -0.21481176 -0.17432563 -0.16949648 -0.26501969
0001b0 d3 86 be bd db 8c 02 be 51 f6 c7 be e4 4c a9 bc
       -0.093030594 -0.12749045 -0.39055112 -0.020666547
0001c0 2b 89 66 be f7 b3 e9 bd b6 97 7e be a7 72 15 be
       -0.22513263 -0.11411279 -0.2486256 -0.14594518
0001d0 23 6d 1e be 54 f0 2c be ff 78 52 be 81 1f 7c be
       -0.1547132 -0.16888553 -0.20553969 -0.24621393
0001e0 2d ce a1 be fc da 84 be df 2c 1e be 5b 5a a6 be
       -0.31602612 -0.25948322 -0.15446804 -0.3249081
0001f0 0b 8b 8c bd 08 f9 69 be dc 2e 13 be 81 26 89 be
       -0.06862458 -0.22848904 -0.14373344 -0.2678719
000200 bc 51 16 be ff c8 97 be eb 52 0e be 04 a1 95 be
       -0.14679617 -0.29645535 -0.13898818 -0.29224408
000210 14 e6 64 be 81 8d 80 be 7c 32 b0 be ae 86 da be
       -0.22353393 -0.2510796 -0.34413517 -0.42680877
000220 9e c7 e2 bd 1a a2 89 be a2 8d 8c be 51 72 be bd
       -0.1107323 -0.26881486 -0.27451807 -0.09299148
000230 b5 bc 64 be 0b a2 03 be dc 6a 86 3d 46 ad 63 be
       -0.22337611 -0.12854783 0.065633506 -0.22234067
000240 48 b4 4e be 94 39 24 be 31 0a 3e be 3b a3 6f be
       -0.2018596 -0.1603759 -0.18558575 -0.23402111
000250 17 dc c3 be d1 62 8f be aa a6 7d be c6 52 8d be
       -0.38253853 -0.28005078 -0.24770609 -0.27602214
000260 0d 9b 11 be 70 9b dd bd c8 ae 6b be 7d 29 3d be
       -0.14219303 -0.10820663 -0.23015893 -0.18472858
000270 2e 35 a3 be be 8a b6 be e4 75 85 be a8 ed 7e be
       -0.3187651 -0.35652727 -0.26066506 -0.24895346
000280 dd 63 c7 bd c8 40 a8 be 43 b6 a3 bd ce de 71 be
       -0.09735844 -0.32861924 -0.07993748 -0.2362015
000290 a0 f3 90 be 3c fd fe bd 35 f3 af be 82 7e 2f be
       -0.2831087 -0.124506444 -0.3436524 -0.17138103
0002a0 64 84 80 bd 8e 77 9f be 0c 01 42 be 43 65 fd bd
       -0.062752515 -0.311459 -0.18945712 -0.1237283
0002b0 9d 42 81 be 77 40 b8 bd 36 b5 c0 be f5 fd 88 be
       -0.25246134 -0.08996671 -0.37638253 -0.26756254
0002c0 38 81 82 be f1 7a b9 be ba 3d 8e be a7 bc 60 be
       -0.2548921 -0.3622661 -0.2778147 -0.21946965
0002d0 87 1e 31 be 8c 32 29 be fd a2 cc be 58 5d 24 be
       -0.17296802 -0.16523188 -0.399681 -0.16051233
0002e0 6a 39 f6 bd 51 b4 ae bd 16 82 38 be 44 c0 88 be
       -0.120226696 -0.085304864 -0.18018374 -0.26709187
0002f0 eb f8 24 be 44 09 34 be e2 af b6 bd 35 08 0d be
       -0.1611058 -0.1758166 -0.08920266 -0.13772662
000300 40 39 e3 bd a6 20 16 be 64 b8 5b be 11 93 bd be
       -0.11094904 -0.14660892 -0.21457058 -0.37026265
000310 28 75 98 be 5f f9 69 be c0 39 9e bd b6 e6 60 be
       -0.29776883 -0.22849034 -0.07725859 -0.21963009
000320 26 8c 92 be bb a0 b1 be 43 cc 29 be e1 01 81 be
       -0.2862255 -0.3469294 -0.16581826 -0.25196746
000330 44 3f 94 be 52 6b 67 be 62 e9 b2 be 01 cb 96 be
       -0.28954518 -0.22599533 -0.34943682 -0.29451755
000340 fe e6 50 be 49 2e 9d be 2b 42 47 bc 01 81 68 be
       -0.20400617 -0.30699375 -0.012161772 -0.22705461
000350 8b a6 41 be e2 f9 8d be ff 91 ac bd f8 b1 21 be
       -0.18911187 -0.27729708 -0.08426284 -0.15790546
000360 96 4d d9 bc a6 19 95 be 74 40 74 be 21 94 89 be
       -0.026526254 -0.2912113 -0.23852712 -0.26870826
000370 31 13 9f be c7 05 51 be f3 df 0a be 95 36 a8 be
       -0.3106933 -0.2041236 -0.13561992 -0.32854143
000380 f5 d5 57 be a7 47 b3 be 65 ca 78 be 08 66 16 be
       -0.21077712 -0.35015604 -0.24295957 -0.1468736
000390 45 f5 74 be 58 bd 94 be 17 ad c3 bd 3e a4 e8 bd
       -0.23921688 -0.29050708 -0.09554499 -0.11359452
0003a0 e1 0e 3f be 8d b9 28 be 34 44 2e be 17 24 2d be
       -0.1865802 -0.16477032 -0.17018205 -0.16908298
0003b0 1b 7f 88 be 07 d4 af be 78 3d c1 be 13 35 35 be
       -0.26659474 -0.34341452 -0.3774221 -0.17696027
0003c0 62 50 40 be 98 26 9f be f8 47 25 be 40 bc 86 be
       -0.18780664 -0.31084132 -0.16140735 -0.26315498
0003d0 85 40 0e be d5 58 92 be 01 5e b8 bd b6 72 7b be
       -0.138918 -0.28583398 -0.09002305 -0.24555477
0003e0 d9 bd 7a be 57 de 38 be 9b f8 94 be a9 b6 4a be
       -0.24486484 -0.18053566 -0.2909592 -0.19796242
0003f0 66 c5 05 be 74 62 7d be 60 ca 57 be f2 c6 7c be
       -0.13063583 -0.24744588 -0.21073294 -0.24685267

ConstantFolding/mlp_1/truediv_recip:0 f4 [64]
000000 45 98 87 40 fd ea 37 40 76 c3 06 41 3a 09 92 3f
       4.2373376 2.8737175 8.42272 1.1409066
000010 b0 f2 af 3f 2c 73 c4 3f 2e 58 06 41 6b 0f b5 40
       1.3745937 1.5347648 8.396528 5.658132
000020 79 4a 09 41 f7 42 67 40 17 5a 90 40 f8 d3 67 40
       8.580682 3.6134622 4.5109973 3.6223125
000030 98 97 e9 40 8d 9a 25 41 96 2b 2a 41 e7 d5 cb 40
       7.299755 10.350232 10.635641 6.369861
000040 fc a4 26 41 41 62 1e 41 cd a7 f2 40 a7 a6 74 41
       10.415279 9.898988 7.5829835 15.290687
000050 cc 09 26 41 fc d3 01 41 c0 54 79 41 cb a8 05 41
       10.377392 8.114254 15.583191 8.353709
000060 32 90 8f 41 cb 55 2d 41 48 ba 13 41 9f d4 84 41
       17.945408 10.833446 9.232979 16.603819
000070 83 1a e3 3e dd 23 fc 3e ab 7f fe 3e 67 04 dd 3e
       0.44356164 0.49246112 0.49706778 0.4316742
000080 b8 23 00 3f ab d3 f4 3e 4f c5 1c 3f ca 90 3a 3f
       0.500545 0.4781774 0.6123857 0.7287718
000090 f4 38 02 3f 6b 22 02 3f f8 06 29 3f a3 13 1a 3f
       0.50868154 0.5083377 0.6602626 0.60186213
0000a0 7c 1a 55 3f 02 cf 05 3f 2b 62 fb 3e e2 6c 31 3f
       0.83243537 0.52268994 0.49098334 0.69306767
0000b0 e9 55 54 40 7e 5e 59 40 cd 79 60 40 e2 10 49 40
       3.3177435 3.3963923 3.5074341 3.1416554
0000c0 db 8d 60 40 2a d6 53 40 02 a1 77 40 ef ad 5d 40
       3.5086582 3.3099465 3.8692021 3.463741
0000d0 e2 72 66 40 c5 dc 59 40 c2 e4 58 40 f1 1f 81 40
       3.600762 3.4040997 3.3889623 4.035149
0000e0 a0 89 65 40 f1 0c 68 40 77 1b 64 40 99 5a 57 40
       3.586525 3.6257899 3.5641763 3.3649046
0000f0 5c f0 ad 3f 38 34 ae 3f 5f c5 be 3f a9 c5 be 3f
       1.3588977 1.3609686 1.4903983 1.4904071
