mujoco_playground/experimental/sim2sim/onnx/zeroth_policy.onnx (onnx, 809943 bytes, 10 tensors)

mlp_1/sub/ReadVariableOp:0 f4 [64]
000000 6b 59 86 3c 29 26 87 3c dd b6 e8 3c fa b6 db bb
       0.01640006 0.016497688 0.028407509 -0.006705162
000010 61 f8 2a 3c 71 bf 64 3c a3 f7 d8 ba 58 1a c0 bc
       0.010435195 0.013961659 -0.0016553294 -0.023450062
000020 de 33 76 bf f0 40 86 ba 8a e1 aa 39 5f fc 21 3a
       -0.96172893 -0.0010242742 0.00032592966 0.0006179269
000030 3e 92 a5 bc 1d 5c 2e bc 06 9f 23 3b 89 e8 30 3c
       -0.020211335 -0.010642079 0.0024966612 0.010797628
000040 d7 91 45 3c 52 6d ba bb 6d 07 a7 3c de c5 e1 3c
       0.012058697 -0.0056893015 0.020389283 0.02756017
000050 da 32 14 bc 51 c7 0a 3d 8e 13 d7 3d 7f d3 1c bd
       -0.009045327 0.03388149 0.10501777 -0.038287636
000060 33 a4 d3 3c b6 59 84 3c d7 72 bb bc 39 ea ea bd
       0.025835132 0.016156059 -0.022881908 -0.11470456
000070 33 7a 06 bc 07 58 76 bc 40 2c 41 3c 91 f5 9e bc
       -0.0082078455 -0.015035636 0.011790335 -0.019404205
000080 df 30 33 3c f3 dd d0 bb f5 21 41 bc 09 af cb 3c
       0.010936945 -0.0063741147 -0.011787881 0.024863737
000090 29 d4 2b bc 1e 68 f7 bc 4c 09 3d 3d cd fe ae b9
       -0.010487595 -0.030201014 0.046151444 -0.00033377708
0000a0 51 40 2b 3d 6a 89 af 3c ce 8a a5 3c 78 6f 51 bd
       0.041809384 0.021427829 0.020207789 -0.051131696
0000b0 d2 24 72 bc 9a 22 ad bc 8c 4f 50 3c 49 f5 c8 3b
       -0.014779286 -0.021134663 0.012714278 0.006132756
0000c0 41 20 ac 3c 30 23 82 bb 32 c2 0b 3c 37 9e 6c bd
       0.021011474 -0.00397148 0.0085301865 -0.057768073
0000d0 ce 6f 30 bc 75 4e 31 3c 79 64 be bd ae 32 9a bc
       -0.010768844 0.010821928 -0.092965074 -0.018822994
0000e0 ed 95 4a be 7a a2 8e 3c 7c d3 7b 3a 22 c8 ac 3d
       -0.19783755 0.01741146 0.0009606404 0.0843661
0000f0 aa f5 b8 bd 4a 37 d0 bd f3 b1 61 3b 96 36 7e bb
       -0.09031232 -0.101667956 0.0034438341 -0.003878986

mlp_1/MLP_0_1/hidden_3_1/Cast/ReadVariableOp:0 f4 [128, 32]
000000 4b 2e 11 bc eb e9 08 bd b3 e1 08 3c a1 fc 90 bc
       -0.008861135 -0.033426207 0.008354592 -0.017698588
000010 be 25 80 3d fe e6 29 3d d4 1d 1c bc 65 62 0b 3d
       0.06257199 0.041480057 -0.009528596 0.034029383
000020 9e a3 d8 bc 90 30 a8 3d bb bf 5a bd 42 e7 5f 3d
       -0.026445206 0.082123876 -0.053405505 0.054663904
000030 82 6d 86 3d ef ff 5e 3d cb 8d d5 bd 4b ae 26 be
       0.06563856 0.054443296 -0.104274355 -0.16277425
000040 51 9e 96 be 32 b1 c1 3c 52 a8 39 3d 70 40 5f 3d
       -0.2941766 0.023644064 0.04532654 0.05450481
000050 14 83 ec bd 25 b8 4d be de 5b 85 3e 94 aa fe bd
       -0.11548439 -0.20089777 0.26046652 -0.12434879
000060 a4 c2 79 3e cb 2e e7 bd 5c 28 e1 bd dc bc 51 be
       0.24390656 -0.11288222 -0.10994026 -0.204822
000070 79 14 de ba b8 43 e1 3d 2c d0 59 be 18 c9 79 bd
       -0.0016943357 0.109992445 -0.21270818 -0.060982794
000080 b0 12 74 3c ec 50 ba 3c 20 db e2 3c 7a 4a e1 3d
       0.014897034 0.022743665 0.027692378 0.110005334
000090 24 91 49 bc 51 da ad 3c 56 c0 c3 3d 05 61 6d 3c
       -0.012302671 0.021222265 0.095581695 0.014488463
0000a0 9c bc 9a 3d 25 89 d9 bc d2 d9 19 3e 1b 65 2d bd
       0.07555506 -0.026554653 0.15024498 -0.04233275
0000b0 da 8b be 3d a6 ee 31 3d 56 27 cb bd da ab 9d 3c
       0.09304018 0.043440484 -0.09919612 0.019246984
0000c0 b4 32 f6 3d 50 c3 e0 3c 66 aa 54 bd a7 e0 ca bd
       0.120213896 0.027436882 -0.051920317 -0.0990613
0000d0 8f 64 eb bd 4a ad 93 3d ec 02 de 3d 85 52 53 be
       -0.114937894 0.07210787 0.10840401 -0.20636947
0000e0 a4 f3 b4 3c ad 50 40 3e e1 08 7f 3e 2b 9d e5 be
       0.022088833 0.18780775 0.24905731 -0.44846472
0000f0 fe f3 61 be 34 30 d7 3b 43 2e bb bd de 1b 5a 3e
       -0.22065732 0.0065670256 -0.09139683 0.21299693
000100 f7 bf 4c 3e a5 b6 cc 3d 45 30 26 3e 3f 73 1a 3d
       0.19995104 0.09995774 0.16229351 0.037707563
000110 94 bd e0 3c 79 78 93 bd 4e 2b 99 bd df 19 f1 3b
       0.027434148 -0.07200713 -0.07478963 0.0073578204
000120 54 29 1b bd 3e 03 2f 3d d2 01 26 3d 9b 08 f6 3d
       -0.03788121 0.0427277 0.04052908 0.1201336
000130 7b 4e f6 ba e3 e2 75 bd 1a 37 01 3e 2a 12 27 3d
       -0.00187917 -0.06003083 0.12618676 0.040788807
000140 fb f8 ec 3c 79 af 7e 3c b4 f4 0a be 9c b0 9d bd
       0.028927317 0.015544766 -0.1356991 -0.07699701
000150 92 08 29 3d df 2f b1 3a ab 94 6c 3e 72 21 58 bd
       0.04126794 0.0013518295 0.23103587 -0.05276627
000160 7c dd b0 bd 42 00 1e 3e 31 b7 7f bd 5a 21 31 3d
       -0.08635995 0.15429786 -0.062430564 0.043244697
000170 84 9c 13 3e cb 1c 54 3d a5 38 a3 3e 78 95 07 3e
       0.14415175 0.05178527 0.31879154 0.13240612
000180 37 b9 1d 3d 1a 0b 83 3d 53 30 ea bd 27 34 fc bc
       0.038506713 0.06398602 -0.11434998 -0.030786587
000190 9e 39 dd bc a4 d6 da 3d b7 e6 7e bc f4 24 9e 3c
       -0.027005013 0.10685471 -0.015557936 0.01930473
0001a0 a0 f9 00 bd e2 98 b5 bd 77 0c a3 bd 3c f1 27 bd
       -0.03148806 -0.08867051 -0.07961362 -0.041001543
0001b0 fe fd b7 bd e8 71 e5 bd 7b c4 fa 3d 2c f1 dd 3d
       -0.08983992 -0.112033665 0.12244507 0.108370155
0001c0 0d ce 24 bd b9 0d 0d 3e 47 13 29 be 6c 19 0b 3d
       -0.040235568 0.13774766 -0.1651126 0.03395979
0001d0 24 45 cb 3d 7d a0 7f bd d9 25 43 3c 81 eb 01 bd
       0.09925297 -0.062408913 0.011910879 -0.031718735
0001e0 71 b0 ab 3c 6e 68 63 bc 49 c1 d9 be 14 ca b8 3e
       0.020958157 -0.013879878 -0.42530277 0.36091673
0001f0 f0 27 ee bd c6 e5 51 3e 02 43 0a 3e 8c ea 2b 3c
       -0.11628711 0.20497808 0.13502124 0.010492932
000200 dc 15 9e bd bf 8f cc 3c 94 59 da 3d 26 24 0e 3d
       -0.07719013 0.024970887 0.10661617 0.034702443
000210 39 45 87 3d 1a 6a ac bd b8 cd ed 3d 2e 8c d3 3b
       0.06605 -0.08418675 0.11611503 0.0064559197
000220 22 8a d5 ba fb 5e 94 3b 4e 69 9f 3d f2 b0 dd bb
       -0.0016291777 0.004527924 0.07783757 -0.0067654783
000230 fb 27 06 3e e0 e3 03 bd 69 5f e2 3d 3e 08 3f 3e
       0.13101189 -0.03219974 0.11053354 0.18655488
000240 47 1f b1 3d 93 f9 6f be 3d 45 67 3c 1e e7 8a 3c
       0.08648544 -0.23435049 0.014115629 0.016955908
000250 c6 a0 49 be df e4 fc bd 92 48 9d bd a9 be 5c bd
       -0.19690236 -0.12348341 -0.07679857 -0.053892765
000260 21 f5 4f 3e 51 f9 4d be 7a f6 06 3e 49 5b f1 3d
       0.20308353 -0.20114638 0.13179961 0.117849894
000270 96 85 9a 3d 48 68 3a 3e 70 d9 91 bb d7 5c 9c be
       0.07545011 0.18203843 -0.0044509694 -0.3053958
000280 ed 22 13 3c 4c 8a ea 3d 6f 8c 52 3c d2 ee 9b 3d
       0.008980495 0.11452159 0.012850865 0.07613911
000290 be 98 a3 bc 4d ba 10 3c d7 36 b4 3d 2e 9d cd bd
       -0.019970294 0.00883348 0.08799522 -0.10039745
0002a0 f4 66 9a 3d 50 ba 87 bd 83 73 c7 bd 81 4a de 3d
       0.07539168 -0.06627333 -0.09738829 0.10854054
0002b0 d7 79 c7 3d 63 b0 12 3e 41 b4 7e bd 4e 4d b6 3d
       0.09740036 0.14325099 -0.062183622 0.089014634
0002c0 11 e6 d5 3c 42 bb 1b 3c 82 08 fa 3d 2a e6 67 bc
       0.02611068 0.009505095 0.12208654 -0.0141539965
0002d0 44 38 fe 3c cc f8 5e 3d 8c 1f 9a be 0f c7 88 bd
       0.031032689 0.05443649 -0.30102193 -0.066785924
0002e0 bc 6f d9 bc 2c 4f 01 bf 15 28 94 3e 50 28 b5 bc
       -0.026542537 -0.5051143 0.2893683 -0.022113949
0002f0 85 fe 23 3e b2 fc 0f bd dd a4 5b 3e 87 b8 c0 3d
       0.1601506 -0.0351531 0.21449609 0.09410196
000300 75 ac 1d 3b 4e ef d9 3d 4c e8 d9 3d a8 2b ca bd
       0.0024059091 0.10641347 0.1064001 -0.09871608
000310 88 8a 2a 3d 40 06 7c bd 8d 52 10 3e 06 b1 d0 bb
       0.04163602 -0.061529398 0.1409399 -0.006368759
000320 cc bf d3 3c 55 6d d5 3c a9 a0 f3 3a e0 53 6d 3d
       0.025848292 0.02605311 0.0018587309 0.057941318
000330 ac f8 cf bb 41 f1 aa bc ba 9d 18 3e 0b 91 49 bd
       -0.0063467827 -0.020866992 0.14903918 -0.04921059
000340 b3 e7 1e 3d bc be 7e 3d 07 97 96 bd a8 24 91 3c
       0.038795184 0.062193617 -0.07353025 0.017717674
000350 a1 30 8f 3d a4 f2 a5 ba 33 d4 68 be 78 99 3b 3d
       0.06991697 -0.0012660814 -0.22737198 0.045800656
000360 59 91 7f bc d2 f4 8c be 41 e4 96 be 67 b0 ba bc
       -0.015598618 -0.27530533 -0.2947102 -0.022789193
000370 e6 71 b2 be 6c 14 21 be 55 98 09 be bb a8 d8 3d
       -0.34852523 -0.15730447 -0.13437016 0.10579058
000380 cb 8b cb 3d c7 2e 7c bd 98 2e 9c bd d6 1d 04 3e
       0.09938773 -0.061568048 -0.076260746 0.12902007
000390 e4 05 a9 bd 46 bb d2 3c 91 28 0e be 9c 82 a3 bd
       -0.08253077 0.025724065 -0.13882662 -0.07983896
0003a0 97 96 22 bd 2e aa 80 bd 7d 90 b8 bc 6f 40 0c be
       -0.039694395 -0.06282459 -0.022529835 -0.13696454
0003b0 14 be f2 bc 49 56 da bc 3f 27 d6 bc f3 4b fa 3d
       -0.029631652 -0.026652472 -0.02614176 0.122215174
0003c0 3c 71 09 be 50 bb de 3d 2b cb 2b 3e eb ea 1a 3d
       -0.13422102 0.10875571 0.16776721 0.03782169
0003d0 67 d6 ea 3d 46 a7 22 3d 41 4a 90 be d5 ac 12 be
       0.11466675 0.039710306 -0.2818165 -0.14323743
0003e0 d8 0b 4d be 35 18 5e be 48 cf 56 be 21 df 5a bc
       -0.2002405 -0.21688922 -0.20977509 -0.013358862
0003f0 db 37 98 be 92 f0 64 3d cf ba 76 be ab 40 23 be
       -0.29730114 0.05589349 -0.240947 -0.15942638

mlp_1/MLP_0_1/hidden_3_1/BiasAdd/ReadVariableOp:0 f4 [32]
000000 6f 99 9c 3c f6 c4 77 39 bc 1d 37 bd 38 72 2c 3d
       0.019116132 0.0002362913 -0.04470609 0.042101115
000010 d4 22 c4 3b 04 e2 52 3c 23 8c 0f 3c 6c 47 2d bd
       0.005985597 0.012871269 0.008761439 -0.04230444
000020 44 3e 3c 3d 1d 10 a1 3c 10 d9 82 bd 3c f5 eb bc
       0.04595782 0.019661004 -0.06389058 -0.02880346
000030 50 9c c3 bd bb 3b fd bc eb f3 0f bd ba 5c 86 3d
       -0.095512986 -0.03091227 -0.035144728 0.06560655
000040 37 da 25 3d 72 4f 9c bd 17 a0 ed bc 53 dc 22 bc
       0.04049131 -0.076323405 -0.029007 -0.009940225
000050 82 f2 76 3c 70 d6 83 3c 2a b6 a8 be ad 55 59 be
       0.015072467 0.016093463 -0.3295148 -0.21224089
000060 ef 3a c2 bd b3 e0 42 be ca c5 2c be 31 ab c9 be
       -0.09483897 -0.19031028 -0.16872326 -0.3938842
000070 b3 33 a4 be 3d 3f 5e bd f8 e4 6b be 47 0d b1 bd
       -0.32070693 -0.054259527 -0.23036563 -0.086451106

mlp_1/MLP_0_1/hidden_2_1/Cast/ReadVariableOp:0 f4 [256, 128]
000000 ea 7b 14 be e8 37 50 3c 47 5f 85 3d ac 44 a0 3c
       -0.14500394 0.012708642 0.06512313 0.019563995
000010 45 b8 13 be e2 22 26 3e f5 11 fd 3d c0 a1 a1 3d
       -0.14425762 0.16224244 0.12356941 0.078921795
000020 54 58 ea 3d c0 52 fd 3d 07 fb 6c bd 82 fd f7 3d
       0.114426285 0.12369299 -0.057856586 0.121089
000030 28 bf c3 bd 2d 3d ff bc ee 7e 25 3c bb b7 82 3d
       -0.095579445 -0.0311571 0.010101063 0.063827
000040 45 ca 05 3d c5 43 83 bb dd 0c 18 be 37 12 01 be
       0.032663602 -0.0040058815 -0.14848657 -0.12604605
000050 85 1d 86 bd 5e 6c ce 3d 30 7e 33 bd 88 3c b5 3d
       -0.06548599 0.10079263 -0.043821514 0.08849436
000060 e7 48 fc 3d 7e 03 a8 3a 92 ce 73 bd 4f d7 2d be
       0.123185925 0.0012818424 -0.059523173 -0.16976665
000070 b8 bf a2 3d 44 82 82 be 1a 4d 85 bd 02 0f 2c bd
       0.07946724 -0.2549001 -0.065088466 -0.0420065
000080 5d 48 bf bc 7d c5 cd bd ef d9 2f 3e 24 f3 d5 bc
       -0.023349935 -0.100474335 0.17172979 -0.026116915
000090 1e 3e 0a be de 5c e7 bd 66 c2 bd bd e6 f0 3c 3c
       -0.13500258 -0.1129701 -0.09265594 0.011532044
0000a0 cc 78 e3 3d 43 f2 b2 bd 19 c4 65 bd 7d 79 ea ba
       0.111070246 -0.08737614 -0.056095216 -0.001788899
0000b0 5f 4f 11 bd f0 6b 9b 3d d3 a0 d0 3d bd 3b bc 3d
       -0.035476085 0.07588947 0.10186925 0.09191082
0000c0 78 0f 56 bb 85 9f 1a bd d9 21 eb bc d5 10 0a bd
       -0.0032663029 -0.037749786 -0.028702663 -0.03370746
0000d0 16 ad a2 3d 40 30 c8 bc 24 cb 8b 39 4b 3e 09 bd
       0.0794317 -0.02443707 0.00026663498 -0.033506673
0000e0 c7 da f1 bd 5e a9 b8 bd 98 2f 0e 3e 99 3d dd bd
       -0.118093066 -0.09016679 0.13885343 -0.108027644
0000f0 b4 c1 aa 3d b2 4d 26 3b 8d 46 43 bd 47 c8 ae 3c
       0.08337727 0.00253759 -0.047674704 0.021335734
000100 e0 31 c6 bd 4e 7b 98 3d 6c f9 f1 bc 95 c7 b9 3d
       -0.09677482 0.074453935 -0.029537879 0.090712704
000110 34 43 07 be af c5 3e bd 34 0e dc 3d 26 79 75 bb
       -0.1320923 -0.046575245 0.107448965 -0.0037456243
000120 f0 b6 fa bc bc 2d 71 3b 6e c6 99 bd f0 8b 7f 3d
       -0.03060481 0.0036800941 -0.075085506 0.062389314
000130 a1 77 57 3a 9c e4 b1 bd cd a3 e4 3d 98 04 67 bd
       0.0008219425 -0.08686182 0.11164055 -0.056400865
000140 4e 7a b5 3c e7 94 20 be 4e 57 1f 3d da 36 cf 3d
       0.022153046 -0.15681802 0.03890162 0.10117884
000150 3e 11 0a 3e 47 fb f4 3d ac f7 49 bd 03 30 1c 3d
       0.1348314 0.1196199 -0.049308464 0.038131725
000160 79 6c a5 39 64 f2 01 3c d9 24 20 be ca 3a ab 3d
       0.0003155207 0.007931326 -0.15639056 0.083608225
000170 30 75 e4 bd be 45 a7 bc ce 26 48 be a1 70 1b bd
       -0.11155164 -0.020418998 -0.19546053 -0.03794921
000180 d2 c2 0e be 3b b6 af bc 61 16 6a 3d 14 a8 2f be
       -0.13941506 -0.021449199 0.05715025 -0.1715396
000190 99 6a b2 3d 49 64 e0 3d 9a f8 84 bd b1 b0 d4 bd
       0.08711738 0.10956628 -0.064927295 -0.10385264
0001a0 ef 3c c4 3c f5 52 04 be ca a5 bf 3c b4 10 21 3b
       0.023954837 -0.1292227 0.023394484 0.0024576606
0001b0 ec 95 dc 3b 5d 37 5a 3b c0 f1 70 bd 9a be 41 bd
       0.0067317393 0.003329716 -0.0588243 -0.047300912
0001c0 82 1c 6e 3d af de c3 3d d0 aa 9f bb 7b ca e4 bb
       0.058132656 0.09563958 -0.0048726574 -0.0069821454
0001d0 b4 be ff bd 0a 23 4c 3d c0 f0 d0 bb 35 85 dc bd
       -0.124875456 0.049838103 -0.006376356 -0.10767595
0001e0 70 ef 47 3e 53 a2 51 bd 3f c7 20 be da fa be bd
       0.19524932 -0.051180195 -0.15701006 -0.0932519
0001f0 16 7b 95 bd f0 da 0b bd 6a 7e 2e be f7 30 10 be
       -0.072988674 -0.034144342 -0.1704041 -0.14081179
000200 02 99 cd bd 8c b6 93 bd d9 28 b8 3d 4f bf 7c 3d
       -0.100389495 -0.072125524 0.08992166 0.061705884
000210 37 d0 f8 bc dd 06 ab 3d 13 22 39 3c 67 17 db bd
       -0.030372722 0.083509184 0.011299628 -0.10697823
000220 c4 f3 8b bc 8b 5a 83 bd a4 5e ce 3d 4a 1c dc bd
       -0.01708401 -0.06413754 0.10076645 -0.10747583
000230 d2 c4 c7 3d a4 ba b7 3c b2 0f 0a 3e a4 7f 49 be
       0.09754337 0.022427864 0.1348255 -0.19677597
000240 71 65 05 3e 7f 21 a7 bc 12 90 bf 3c f6 e7 0e 3e
       0.13026978 -0.020401714 0.023384128 0.13955674
000250 4e b5 b1 bd 3b fd 25 3d c3 e1 1c be 09 3a fa bd
       -0.08677159 0.040524703 -0.15320496 -0.122181006
000260 e9 2c 13 3e 82 af 6d be 4b 20 2a bd ce 0e 4b bd
       0.143726 -0.23211482 -0.041534703 -0.049574666
000270 f1 23 95 3d 41 d1 10 3a b6 d0 14 be ed ea e6 3d
       0.07282246 0.00055243453 -0.14532742 0.11275277
000280 fe 49 2c 39 42 6e 3b 3e b4 e2 ce 3c 9b e5 9f bd
       0.00016430762 0.18303779 0.025254585 -0.07807466
000290 75 92 89 3c 93 31 a2 bd d0 06 7e bd 46 4a 4e 3d
       0.016793469 -0.07919612 -0.062018216 0.0503638
0002a0 8c 7e 13 be db 23 05 3c 0b 18 3b 3d 6d 19 a6 3d
       -0.14403743 0.008126224 0.045677226 0.08110318
0002b0 01 d8 54 3e 78 a6 0d bc 00 da 3e bd ce 8f 37 3d
       0.20785524 -0.008645646 -0.04659462 0.044814877
0002c0 87 d3 c5 bd f3 12 cb 3c 90 00 80 3d 8f 06 fe bd
       -0.09659486 0.02478931 0.06250107 -0.12403595
0002d0 0a 76 4d bc 65 1b 65 3d 01 6f 02 be dd a9 fc 3d
       -0.01254035 0.05593433 -0.12737657 0.12337086
0002e0 2e 5e 9d 3c b0 e7 07 bc d6 f7 85 bb 1b e0 51 bd
       0.019209947 -0.008294985 -0.0040883822 -0.051239114
0002f0 d6 0f 7d bc 7b 38 40 bd 14 5f 97 bc 18 af f7 3b
       -0.01544567 -0.046928864 -0.018477954 0.0075587146
000300 e6 9a 4d 3d 06 e3 7c be 24 ba 70 3c 38 aa b1 3d
       0.05019655 -0.24695978 0.014692817 0.08675045
000310 cd 2b 9e bc 65 3d 7a bd 46 d0 9d ba 50 62 e6 3d
       -0.019307995 -0.061093707 -0.001204022 0.1124922
000320 87 6e aa bd 90 79 d7 3d 62 7a 2b bd 24 e4 fa bd
       -0.08321863 0.10521233 -0.04186476 -0.122505456
000330 0f ab 0d bd 56 ec f0 bd f2 b4 14 bd d4 3e cb bd
       -0.034586962 -0.117638275 -0.036305375 -0.09924093
000340 ac 8f e8 bd 71 76 88 bd 4c 47 09 3c 64 dc 38 bb
       -0.11355528 -0.06663216 0.008378815 -0.0028207535
000350 e3 ec 48 bd 7e 67 dc bd c1 02 5c bd 4a 96 c8 3d
       -0.049054038 -0.10761927 -0.053713564 0.0979429
000360 cc 17 d2 bd 48 ff 3b be 4d 37 a9 bd ee 7e e4 bd
       -0.10258445 -0.18359101 -0.08262501 -0.111570224
000370 b6 a7 9e bc 9a ac 43 3d 3b 48 0f be 07 12 fa bc
       -0.01936708 0.047772028 -0.13992397 -0.030526174
000380 2d ce 34 be e0 15 8d bd 0d 75 69 bc 62 14 74 bb
       -0.17656775 -0.06888938 -0.0142490985 -0.0037243594
000390 1e 8f a4 bd 19 d4 17 3e fe 71 8e bc 32 6a 2f 3c
       -0.0803511 0.14827003 -0.01738834 0.010706471
0003a0 c0 f8 47 be 40 f0 a7 3d de c5 7b bc ba fc cd bd
       -0.19528484 0.08200121 -0.015366999 -0.100579694
0003b0 e8 05 89 bd 18 30 b2 bc 7e e4 d3 bd 17 94 57 3c
       -0.0669058 -0.021751449 -0.10346316 0.013157866
0003c0 8c 4f 3a bd 4e 00 8a 3e 35 3a 64 3d 35 a7 d4 3b
       -0.045486018 0.26953357 0.055719573 0.006489659
0003d0 f2 1c 9d 3d d9 64 1e bc 95 24 07 3e 4a f8 54 3d
       0.076715365 -0.009667599 0.13197549 0.0519946
0003e0 fd 44 c1 3b 72 c2 a2 bc 56 18 41 3c 13 11 8f bb
       0.0058981166 -0.01986811 0.011785587 -0.004366049
0003f0 b2 9e 5e 3d 57 7c ac bd f6 be 0d 3e b0 73 a2 bb
       0.054350562 -0.084221534 0.13842377 -0.0049576387

mlp_1/MLP_0_1/hidden_2_1/BiasAdd/ReadVariableOp:0 f4 [128]
000000 8f e9 89 bd 1a d1 4e bc f4 c1 e4 bd ee 07 25 3d
       -0.06734001 -0.012623096 -0.11169806 0.040290765
000010 aa 26 86 bd bd 36 bd 3b 69 ec f2 3c 4f 62 c4 3d
       -0.06550343 0.0057743476 0.029653745 0.095890634
000020 34 4c 88 3c 9d 1e 3c bd bc e5 3a 3c e9 dc 64 bb
       0.016637899 -0.045927633 0.011407312 -0.0034921712
000030 b6 68 a4 bd c1 a8 29 3d 5a a7 93 bd 28 98 ff 3d
       -0.080277845 0.041420702 -0.07209654 0.124801934
000040 fa 95 79 3d d7 aa ce 3c f6 c4 90 3c e3 79 bf 3d
       0.060934044 0.025227947 0.017672043 0.0934942
000050 e1 2f 95 bd 5d 46 8c bd c0 83 34 3c 61 cf 1c 3d
       -0.07284523 -0.06849358 0.01101774 0.03828371
000060 10 94 b4 bc c1 6d 5f 3d 39 6c 49 3b ad 0f 35 3c
       -0.022043258 0.05454803 0.0030734672 0.011051101
000070 78 04 85 3b b0 79 7a 3d 29 e0 32 3d 69 7b 90 bc
       0.0040593706 0.061151206 0.043670807 -0.017636972
000080 ab bd b2 bc a9 a5 f7 bc 7b 75 35 3d fd 03 d3 bd
       -0.021818956 -0.03023036 0.04430149 -0.10303495
000090 9c db b7 bd b3 1a 5b bd cb 71 17 3d 6b 0c b1 bd
       -0.08977434 -0.05349226 0.036973756 -0.08644947
0000a0 58 79 7b bb ec f9 09 bd 42 c7 2c 3d 84 37 6d bc
       -0.0038371887 -0.03368561 0.042182215 -0.014478568
0000b0 e7 5b 05 3b 79 a3 26 bd d2 79 26 3d 10 2e 15 3b
       0.0020348968 -0.040683243 0.04064352 0.002276305
0000c0 7c eb cb bc c2 b7 2b 3d f3 02 4d bc 0e 7c 2b bc
       -0.024892561 0.041923292 -0.01251291 -0.010466589
0000d0 4a d4 34 3d 5d fd 8a bd 6c cd 6c bd 12 76 79 bd
       0.044147767 -0.067866065 -0.057813093 -0.060903616
0000e0 c0 40 08 bd 28 b1 0c 3d 0a fc ec bd ac 20 bb bc
       -0.033264875 0.034348637 -0.1157151 -0.022842728
0000f0 d7 00 59 3c b9 64 12 3c b2 2c 1c bd 2a 3b 69 bc
       0.013244829 0.008935147 -0.038128562 -0.014235297
000100 71 e8 d6 bd 20 7d 14 3d 91 d5 07 bc 67 23 c6 3c
       -0.104935534 0.03625214 -0.008290664 0.024186803
000110 46 c3 63 3d 2d 64 96 bc 66 a4 95 3d a1 6a 83 3a
       0.05560615 -0.018358314 0.07306747 0.0010026285
000120 4d c7 a2 bd fc 3c b0 bd 3b ff 90 bd 24 7f b5 bd
       -0.0794817 -0.08605382 -0.07079931 -0.08862141
000130 cf 92 85 bb 3a 6d 1f 3a 57 c4 8f 3c 70 35 ec 3c
       -0.004076339 0.00060816447 0.017549677 0.028834075
000140 6c 69 48 3c 3a 88 b8 3c 79 b5 92 3d 38 6a 8d bd
       0.012232166 0.022525895 0.071635194 -0.06905025
000150 8d 4f 00 3d 2c 2d db b9 bf a5 7c bd 6d 7a ff bc
       0.031325866 -0.0004180459 -0.061681505 -0.031186307
000160 68 bb 7a bd 7d 03 35 3d e4 09 a5 bc 7c f9 4b bd
       -0.06121388 0.04419278 -0.020146318 -0.049798474
000170 0d 21 f6 3c 8a 0b a9 bb 5d 62 b3 bd f9 c3 9d bc
       0.030045057 -0.0051588463 -0.08758996 -0.019258486
000180 bc 4c 81 bc fd 1a 31 3c 33 1f 45 3c 4d a4 8e bd
       -0.01578366 0.010809657 0.012031364 -0.06964932
000190 6b 17 3e bd 64 4e 85 3b 53 eb be bd d4 03 26 bd
       -0.046409052 0.004068183 -0.09322228 -0.040530995
0001a0 8d 54 c7 3d c8 b5 9b 3d 22 25 cc 3a 8d e4 d5 3c
       0.09732924 0.076030314 0.0015575031 0.026109958
0001b0 bf 46 76 3d a5 85 1c 3b 09 9e 1c bd f3 79 2e bc
       0.060126062 0.002388337 -0.03823665 -0.010649192
0001c0 0e 00 c7 3d b9 1c 64 3d c6 2a b6 3c ef df 91 3c
       0.09716807 0.055691455 0.022237193 0.017806975
0001d0 d1 32 92 bb 6f b6 46 bd c1 ae 7d 3d 18 15 83 bc
       -0.004461624 -0.048513826 0.061934236 -0.01600127
0001e0 83 de 4b bd 8d e2 5b bd 2f 16 cf bd 1f b6 6e bd
       -0.04977275 -0.053682853 -0.10111653 -0.058279153
0001f0 fe 50 7e bd 49 74 24 bd 9a f7 29 bd d5 fc 97 3d
       -0.06208896 -0.04014996 -0.041495897 0.07421271

mlp_1/MLP_0_1/hidden_1_1/Cast/ReadVariableOp:0 f4 [512, 256]
000000 66 02 86 3d dc 9c 08 bd c9 38 2d 3c 36 01 40 bd
       0.06543426 -0.033352718 0.010572621 -0.046876155
000010 8c 67 1a 3b 95 37 ad bd 0c b5 77 bc 07 df 0a 3c
       0.0023560254 -0.08457867 -0.0151188485 0.008476025
000020 11 5b d9 bc cb 0e 4b 3d a6 e1 08 3b b1 55 6f 3d
       -0.026532682 0.049574655 0.002088645 0.05843133
000030 ba bd 1a be e5 85 43 be 59 88 cf 3c 60 b1 ac bd
       -0.15111437 -0.19094045 0.02533357 -0.08432269
000040 d3 3a 55 3d e5 0d 90 3c 04 3b 16 bd 2c 7f 92 3d
       0.052058052 0.01758475 -0.036677375 0.07153162
000050 26 8b 31 bc f5 f9 26 3e 93 55 96 bd 96 66 b0 3a
       -0.010836398 0.16306289 -0.07340541 0.0013458307
000060 6c c5 16 3d 3a 2f a7 3d 97 8c b8 bc 19 14 bd bd
       0.03680937 0.081633046 -0.022527976 -0.09232349
000070 3f 7e ba bd ab 12 5c 3d 85 40 02 bd 30 e8 b3 3c
       -0.09106111 0.05372874 -0.031799812 0.021961302
000080 2b 92 c7 bd ac db 85 bd 1f b4 db bc c3 44 1a be
       -0.09744676 -0.0653604 -0.026819287 -0.15065293
000090 9e 16 5c 3d c6 ad c4 bd a5 6b 85 3d 05 5f ec bd
       0.053732507 -0.09603457 0.06514672 -0.11541561
0000a0 9d ac 8a bc 41 2f d0 3d bb 84 2f 3d 6a f5 ed 3c
       -0.016928012 0.10165263 0.04285119 0.029047687
0000b0 69 2a 7a bd 3c 72 e1 bd 1d f8 aa bd 5c f2 38 bd
       -0.0610756 -0.110081166 -0.08348105 -0.045153007
0000c0 be c1 7c 3d 9c 75 08 bc d1 21 d9 bd 81 c3 f8 3d
       0.061708204 -0.0083288215 -0.10602153 0.121466644
0000d0 67 fd 93 bd 73 54 95 bd d0 a6 9f 3d 33 c9 76 3d
       -0.07226067 -0.07291498 0.07795489 0.060250472
0000e0 99 aa 15 3e f9 b9 ef 3b b9 9e 1f bd e2 a9 b2 3c
       0.14615859 0.007315871 -0.03896973 0.021809522
0000f0 cc 63 d2 3d 6f ae 96 3d 19 a4 bc bd 7c fa 9a bd
       0.10272941 0.07357489 -0.09210987 -0.07567307
000100 8e 7d c9 bc a6 b6 3c 3d ea a9 a8 3d c8 f2 f1 bd
       -0.024596002 0.046072625 0.082355335 -0.11813885
000110 1c fb 01 bd 6a c0 b6 bd 72 e4 b1 3d e3 3e 14 3d
       -0.031733617 -0.08923419 0.086861506 0.036192786
000120 89 bd 7f 3d ba 19 ed 3d 9b f6 85 bd 7e b3 e5 3c
       0.062436614 0.115771726 -0.06541177 0.02803969
000130 a7 2b 2e bc b1 5e 90 3d 6f 19 e0 bd 20 a4 d1 bb
       -0.010630525 0.07049311 -0.10942351 -0.006397739
000140 29 e0 91 bd 27 15 e7 3c f4 f3 d8 3d fe 99 a5 3d
       -0.07122833 0.028208328 0.10593405 0.08086012
000150 a9 77 96 3d 73 83 10 be 21 49 0f 3d 95 6c 0b 3d
       0.07347042 -0.14112644 0.03498185 0.0340391
000160 ef 55 80 bc 57 a4 a1 3c d6 18 a6 bd e3 12 0c be
       -0.015665976 0.019731684 -0.08110206 -0.1367908
000170 cc e3 f9 3d 1f d0 86 3d c8 c0 e0 3c 68 8a 01 bc
       0.12201652 0.06582665 0.027435675 -0.007906534
000180 77 f3 4a 3d b9 5b a6 be 33 3b 90 bd 77 c9 41 3d
       0.049548592 -0.32491854 -0.07042541 0.047311272
000190 11 5b 07 bd 91 88 0a be dc db e4 bd 3e dd 07 bd
       -0.033045832 -0.13528658 -0.11174747 -0.033169977
0001a0 7d dc 6d 3a c2 57 11 be 56 60 34 bd 14 9e 39 bd
       0.0009073688 -0.14193633 -0.044037186 -0.04531677
0001b0 00 08 63 3d 60 e2 4b 3d f9 bf 42 3c 83 e5 07 be
       0.05542755 0.049776435 0.01188659 -0.13271146
0001c0 97 90 94 bd 3f 9c f2 bd b5 07 ff 3c 22 9b a1 3c
       -0.07254141 -0.11846208 0.031131605 0.019727293
0001d0 aa 4f 33 bd 61 86 0d 3d c7 54 84 3d 7e d5 77 3d
       -0.043777145 0.03455198 0.064614825 0.060506336
0001e0 d5 35 c5 bd 75 77 09 3e f3 c3 c5 3d c0 2e 6c 3c
       -0.09629408 0.13424475 0.09656515 0.014415443
0001f0 5b 57 b6 bb 71 78 08 bd a4 06 b4 3d ec 7d ef bd
       -0.005564613 -0.033317987 0.08790329 -0.116939396
000200 1c 54 77 bc 72 26 05 3e 01 15 4b 3e 9e 37 8b bd
       -0.015095737 0.13002947 0.19832231 -0.067977175
000210 cc a0 7e 3d 08 a0 37 3c 3e 99 a0 bd 38 11 34 3d
       0.062165067 0.011207588 -0.07841729 0.043961734
000220 81 5a f6 bd d6 8c e3 bd 33 5c c4 bd 9a 62 95 3d
       -0.12028981 -0.11110847 -0.09587898 0.072941974
000230 27 2c 07 3c aa 44 1f be 6d bf 40 be a6 1f 08 3d
       0.008250273 -0.15553537 -0.18823023 0.033233307
000240 4d f1 54 bd c6 9c c2 bc b9 88 1d 3c d6 f7 27 3d
       -0.051987935 -0.023756396 0.009615117 0.04100784
000250 cd 58 da 3c 54 92 05 be 3b de 30 bd c7 f8 10 3d
       0.026653672 -0.13044101 -0.043180685 0.035393503
000260 83 8b f1 3d a2 a8 10 bd e9 a2 02 3d 3a e9 bc bd
       0.11794188 -0.03531707 0.031893644 -0.09224172
000270 7b ba 83 3d bc 1c 06 bd af 8d db 3d 87 cd 07 bc
       0.06432053 -0.032742247 0.107203834 -0.008288748
000280 70 a3 8d bc fb 9b d1 3d ff 74 91 38 b8 9b 12 3e
       -0.017289847 0.10234829 6.935931e-05 0.14317214
000290 81 d8 34 3e 52 c4 05 3c 61 29 43 bd af 43 e2 bd
       0.17660715 0.008164482 -0.047646884 -0.11048066
0002a0 2b f0 b5 3d e4 e0 96 3d a1 40 34 bd f1 88 e4 3c
       0.08883699 0.07367113 -0.044006947 0.02789733
0002b0 b8 c9 b3 3c 9b 89 ed bc d6 7e 16 bd 80 b3 d3 bc
       0.021946773 -0.02899628 -0.036742054 -0.025842428
0002c0 c2 35 4a bd dd 45 aa 3a 06 2d 6c bb 4f 0a 8d bd
       -0.049367674 0.0012990792 -0.0036037578 -0.06886732
0002d0 16 a3 27 3d 6a 6e c8 3b 5f cc 44 3d f3 c2 2c bd
       0.040927015 0.006116678 0.048046466 -0.042178106
0002e0 54 46 c2 3b 3c cf b4 bd 2a e8 df bc 9a 0f 98 3c
       0.005928794 -0.08828589 -0.027332384 0.018562127
0002f0 f1 79 d0 3b 8b e1 55 bd 24 f0 0e 3e 5d 45 23 bd
       0.006362193 -0.052217048 0.13958794 -0.03986107
000300 e8 cb a4 3a b6 d5 34 bd 8f 2c d6 3b 06 88 90 bd
       0.0012572976 -0.044149123 0.0065360735 -0.070571944
000310 0a ab eb bd a7 f2 b0 39 b4 d7 e9 bb 56 28 ae bd
       -0.115072325 0.00033750126 -0.0071363095 -0.08503787
000320 71 3b cc 3d d8 50 0e 3e a6 aa ce bd 8d b6 33 bd
       0.09972275 0.13898027 -0.10091142 -0.043875266
000330 c4 df f1 3d 24 15 30 3c 12 9e 39 3b 22 15 55 3d
       0.11810258 0.010747228 0.0028322977 0.052022107
000340 39 22 bc bc 48 37 0a 3d 49 f1 29 3e 62 fc a5 3d
       -0.022965537 0.033744127 0.16595949 0.08104779
000350 29 a4 17 be 45 c0 88 3d eb b7 0a 3d 37 b7 ac bd
       -0.14808716 0.066772975 0.033866804 -0.08433383
000360 cd 72 14 be 4f 8e 31 be 74 86 0d 3c d2 6c 26 bc
       -0.14496918 -0.17339443 0.008638013 -0.010157781
000370 0b b4 8d bd fb 0c cf bd f9 d1 f6 3b 2b 55 bb 3d
       -0.06919106 -0.10109898 0.007532355 0.09147104
000380 0d b8 88 3d a6 d7 91 bd 5c a7 04 3c d8 e4 7d 3d
       0.0667573 -0.0712121 0.008096542 0.06198582
000390 33 b4 94 bc 08 04 04 3d b0 63 c7 bd 31 86 0b bb
       -0.018152332 0.032230407 -0.09735811 -0.00212897
0003a0 69 08 f0 bc 8d 17 b0 3c 33 cf 9e bd af 80 28 bd
       -0.029300885 0.021495605 -0.07754364 -0.041138347
0003b0 4e 7c 01 be 4f 6c e0 b8 f8 e1 5f bc 54 12 48 bd
       -0.12645075 -0.000107013264 -0.013664715 -0.048845604
0003c0 16 67 b8 3b 84 b5 7b bd ef a4 38 be 56 ab 69 3d
       0.005627523 -0.061452404 -0.18031667 0.057048164
0003d0 44 59 67 3c f0 80 fb 3d e8 6b 95 bd d5 5b 9e bd
       0.014120404 0.12280452 -0.07295972 -0.07732359
0003e0 18 c8 99 bc c5 33 e9 3c f1 5d da bb be 65 e4 3b
       -0.01877217 0.028467068 -0.0066640307 0.0069701364
0003f0 a4 f3 cd 3d 21 e5 9e 3d e7 49 01 be 1d 4f b7 bc
       0.100562364 0.077585466 -0.12625848 -0.022376591

mlp_1/MLP_0_1/hidden_1_1/BiasAdd/ReadVariableOp:0 f4 [256]
000000 0a f3 8b 3c be 40 11 bc b8 fb 83 bc 7d d1 97 bd
       0.017083663 -0.008865533 -0.01611124 -0.074130036
000010 4b cf 48 3b e3 9c f8 ba f3 11 cf bb 0b cb ba bc
       0.0030641134 -0.0018967654 -0.0063192784 -0.022801897
000020 26 e7 4a 3d 9a e7 3c bd eb 9c 23 bd 33 43 85 bc
       0.049536847 -0.04611931 -0.03994457 -0.016267395
000030 95 ae 96 bd 77 6d c0 bc f7 44 62 3c cd f5 36 bd
       -0.07357518 -0.023489697 0.013810388 -0.044668008
000040 47 00 a4 3c 1a ae d2 bd 71 0b 36 ba dd c9 43 bd
       0.020019663 -0.102871135 -0.0006944454 -0.047799934
000050 d8 fa 4e 3c 8f 92 0c bc 3e 17 3c 3c 19 82 58 3d
       0.012633048 -0.008579864 0.011480151 0.052858446
000060 af 6c 9d 3c 17 86 6a 3d 9f d3 9a bc ff c7 c5 3b
       0.019216863 0.057256784 -0.018899737 0.0060358043
000070 a6 40 ea bb 41 cf 36 bd 42 7b 0e bc 64 d7 b6 3c
       -0.00714882 -0.044631246 -0.008696379 0.022319503
000080 0b 6f 9f bd 6e d5 16 bd f5 b1 1f bb 22 d5 81 bd
       -0.07784852 -0.036824636 -0.0024367545 -0.0633948
000090 e0 55 02 bd 85 76 1d 3d 2c 65 9f 3c da 65 00 3b
       -0.031820178 0.038443107 0.019457422 0.0019591958
0000a0 06 dd df bd 3e 70 26 3c 2e 89 84 bd e4 84 bc 3c
       -0.10930829 0.010158597 -0.064714774 0.023012586
0000b0 94 80 04 bc b6 5c a8 3c f4 cc 3a bd 14 03 06 bd
       -0.008087296 0.02055202 -0.045605615 -0.03271778
0000c0 07 9f 69 bd df f7 3d 3d 66 72 93 3c 3c ec da bb
       -0.057036426 0.046378966 0.017998885 -0.0066809934
0000d0 c3 62 8c bb 49 f3 52 bd 66 a5 64 bd f8 ce 59 3c
       -0.0042842343 -0.051501546 -0.0558218 0.013293974
0000e0 7f 36 4b 3d 43 e2 13 bc 44 a2 f4 3c 72 92 8f bc
       0.04961252 -0.009026113 0.02986253 -0.017525885
0000f0 f9 bb a2 bd ac e3 b9 bc 51 0f ad bc 6e 54 f7 3c
       -0.07946009 -0.02269157 -0.021125467 0.030191626
000100 1d 87 91 bc a0 0f c7 bd 42 af f5 3c 18 e9 93 bd
       -0.017764622 -0.09719777 0.029990796 -0.072221935
000110 28 a9 af bd c8 34 94 bc ba c1 51 bd 59 3f 75 bd
       -0.08577186 -0.018091574 -0.051210143 -0.059874866
000120 28 84 d7 bb d7 52 c5 3b fb 8a 11 bc 84 5d c1 3c
       -0.0065770335 0.006021838 -0.008883233 0.023604162
000130 d3 61 09 3d 9a 5a 53 bd d8 68 01 bd 37 c8 43 bd
       0.033540558 -0.051600076 -0.031594127 -0.04779836
000140 47 3c 55 bc a3 0b 70 bc b4 2f 19 bd a5 ee 28 bc
       -0.0130148595 -0.014651212 -0.03739901 -0.010310804
000150 40 b7 7b 3d 74 4d c7 bc 64 28 c9 3b d0 de 16 bc
       0.061454058 -0.024328925 0.006138848 -0.009208396
000160 44 9d 74 bc 55 33 99 3c 3c a3 e0 3b 61 c6 d8 3c
       -0.014930073 0.018701235 0.0068553966 0.026461782
000170 8f b7 0a be c8 fd 5c bd de 67 60 3a 42 39 3d 3a
       -0.13546585 -0.053952962 0.00085603993 0.000721831
000180 38 1f 6d 3c 0e c7 fe bc f0 1b b4 3b cc e7 51 bd
       0.014472775 -0.031100776 0.0054964945 -0.05124645
000190 c8 20 76 bd a8 09 a5 bd 29 54 27 bd 97 12 b8 bd
       -0.060089856 -0.080584824 -0.040851746 -0.08987921
0001a0 61 59 b1 3b 24 bc 74 bd c9 19 4b 3c 71 20 d3 bc
       0.005412266 -0.059749737 0.012396284 -0.025772305
0001b0 17 c3 46 bd de 57 55 ba 54 07 c4 bc 57 7e c9 bc
       -0.048525896 -0.00081383984 -0.023929276 -0.024596376
0001c0 82 5e d5 bc 1e bb 3e 3d 94 a0 88 ba 57 4e 26 bd
       -0.026046041 0.046565168 -0.0010423833 -0.040602054
0001d0 db 81 a9 bc 78 2c ea bc a7 b7 89 bd f5 00 0f bd
       -0.020691803 -0.028585657 -0.06724482 -0.034913022
0001e0 03 ed 3f bd 79 f9 eb bb 29 63 27 3c b3 61 9c bc
       -0.04685689 -0.0072013703 0.010216513 -0.019089555
0001f0 d7 fc 8c bc 51 eb 99 bd 56 45 f3 3c 1f 9e 6b bd
       -0.017210407 -0.07515586 0.029696148 -0.057523843
000200 03 64 e4 bc 64 9d 33 bd 19 16 55 bd 43 05 5f bc
       -0.02787972 -0.04385127 -0.052023027 -0.013612094
000210 08 93 71 3c df a7 96 bd 43 c5 d9 bd 54 ee 39 bd
       0.014744528 -0.073562376 -0.10633328 -0.045393303
000220 fd 89 de bb 5a cc 86 bc f5 a6 69 bd c6 24 01 3c
       -0.006791352 -0.016454864 -0.05704399 0.007882303
000230 dd d3 1f bc b7 c1 20 bd f9 b9 8a 3c 15 34 ae 3c
       -0.009755102 -0.03924724 0.016934382 0.021265069
000240 57 55 d1 bd c0 fd 3b 3d da 2f 0b 3d f6 3a 6a 3d
       -0.102213554 0.04589629 0.03398118 0.057185136
000250 08 c4 30 3d 9f 81 b2 3d c6 32 8d 3b 27 9f 1f 3d
       0.0431557 0.087161295 0.004309031 0.03897014
000260 6b 8c 06 3d 8d 7c 18 bd e2 ba 55 bd 41 a0 88 3d
       0.032848757 -0.037228156 -0.05218018 0.06671191
000270 8d 8a 04 3d 9a 8b a3 3c 87 bd 42 bd 96 d4 03 bd
       0.032358695 0.019964028 -0.04754403 -0.03218516
000280 a6 8b 70 3c 56 44 7d bc 43 f6 61 bd 14 c1 7b bd
       0.014681732 -0.015458187 -0.055166494 -0.06146343
000290 c5 80 62 3d 14 8d a9 bc a7 ee 6e bd cb b8 0d 3d
       0.055298585 -0.020697154 -0.058333065 0.03460006
0002a0 0a 50 be bc b3 0a 01 bc d4 b2 60 bc ba 75 da bc
       -0.023231525 -0.007876086 -0.013714511 -0.026667465
0002b0 d9 a0 e9 bc 36 8b f0 bc a4 98 61 3c 50 48 86 bd
       -0.028519081 -0.029363256 0.0137693025 -0.06556761
0002c0 9d d5 57 bd f4 3f 59 3d e2 e2 86 bd 73 fd 92 3c
       -0.052693952 0.053039506 -0.06586243 0.01794312
0002d0 fc c0 95 3b 9b c4 d0 bb dd 2a 46 bd f8 25 87 bd
       0.0045701247 -0.0063710934 -0.04838072 -0.06599039
0002e0 c3 49 2f ba eb 0d 82 bd 39 61 90 bd b4 a5 69 3d
       -0.00066867116 -0.06350311 -0.07049794 0.057042792
0002f0 e2 6c ae bc 43 81 4d bd a1 fb ee 3c ca a2 10 3d
       -0.021292154 -0.0501721 0.02917272 0.035311498
000300 74 1d 0e 3d 8f b9 cd bd 22 9e df 3b 10 74 17 3d
       0.034696057 -0.10045158 0.006824271 0.03697592
000310 ad 31 15 3d 83 0a 89 3d ec 00 af bd e2 5a 39 bd
       0.036424328 0.06691458 -0.08545098 -0.04525269
000320 cf 47 36 bc ce 12 a4 bb ed e7 b2 bb e5 5f 3e 3d
       -0.011125519 -0.0050071245 -0.0054597766 0.04647817
000330 f1 53 fb 3c 77 15 0c bd f7 6f 3a 3d 65 f9 7d 3d
       0.030679675 -0.034200158 0.045516934 0.06200542
000340 70 7c 49 bd 65 32 37 bd dd ea 20 3c cc dd 90 bd
       -0.04919094 -0.044725794 0.009821621 -0.070735544
000350 9c 67 f0 bd de 12 09 bd c1 dd 2f bc 31 9d 84 bc
       -0.11738512 -0.03346526 -0.010734023 -0.016188236
000360 e1 16 26 3d 50 f0 41 bd 54 0e f4 3c d3 6a 91 bd
       0.040549163 -0.04734832 0.029791988 -0.07100453
000370 01 df a6 bd fd 0e 44 bd 40 2b 1b bd a1 df c0 3c
       -0.08148003 -0.047865856 -0.037883043 0.023544135
000380 b6 79 4e bd a6 43 a3 3d dd 9a 5a bd 62 42 e6 bc
       -0.05040904 0.07971887 -0.053370345 -0.028107826
000390 81 59 3c bd 55 5f 96 bd 3c 6a 35 3b 80 56 05 bd
       -0.045983795 -0.07342402 0.0027681729 -0.032553196
0003a0 4d de 67 bc e2 34 62 3b 06 6d 0a 3d 61 6b 7a 3c
       -0.014152122 0.0034516384 0.03379538 0.01528439
0003b0 85 be 17 bd fb 03 2b 3d 89 ee de bc 28 cc d8 bc
       -0.037046928 0.041751843 -0.027213352 -0.026464537
0003c0 4f cc 2e bd 81 2c 4d bd 87 90 7a bd 92 7a 97 3c
       -0.042675313 -0.05009127 -0.06117299 0.018491063
0003d0 b1 cd 29 bd 87 5b 8d bc 02 e2 89 bb df 7b 3e 3b
       -0.04145593 -0.017255558 -0.0042078504 0.0029065532
0003e0 8f 2e 21 bd 1f 16 14 bd 11 32 22 bd a3 b1 c1 3c
       -0.039351042 -0.03615391 -0.03959853 0.023644274
0003f0 79 cf 03 bc c5 a7 91 3d 4d a5 83 bd 62 51 87 bd
       -0.008045071 0.071120776 -0.06428013 -0.066073194

mlp_1/MLP_0_1/hidden_0_1/Cast/ReadVariableOp:0 f4 [64, 512]
000000 38 c5 78 3e 24 51 be 3d b7 48 96 bd 4f a8 30 3e
       0.24293983 0.0929282 -0.07338088 0.17251705
000010 6c cc f5 3d b1 5e c8 bc c0 8b 75 be ac 04 1a be
       0.12001881 -0.024459215 -0.23979092 -0.15040845
000020 f1 29 32 3e 11 46 13 3e a2 38 8b bd c8 5a a6 bd
       0.17398812 0.14382197 -0.06797911 -0.08122784
000030 ca 5e 08 be dd 9c 94 3d e7 d3 85 be 7e fc 71 3d
       -0.13317409 0.07256482 -0.2613823 0.059078686
000040 05 03 8c be 85 f7 ec 3d 30 2c e5 3d f1 f4 3b be
       -0.27346054 0.11570648 0.11190069 -0.18355156
000050 15 86 04 bf 04 9c 9e be 4d 19 89 3d 90 a9 02 be
       -0.5176709 -0.30978405 0.06694279 -0.12759995
000060 da ad ee be 15 4c 22 3e 36 32 91 be 8c f9 08 bf
       -0.46617013 0.15849335 -0.2835862 -0.5350578
000070 92 be d2 3e 08 54 7e be 20 0c de 3d 3d de 36 be
       0.4116102 -0.24836743 0.108421564 -0.17858215
000080 9d 7e 6a 3e b6 81 12 be 50 9a 57 3e aa 5e 16 be
       0.22899862 -0.14307293 0.2105496 -0.14684549
000090 3a 31 01 3e 3a f7 88 3e 6e 59 cd bc ed 23 8c 3e
       0.12616435 0.2675112 -0.025067057 0.2737116
0000a0 57 3e 20 3e e4 1f 77 bc 34 3b 9d bd 5b 12 d7 bd
       0.15648781 -0.015083287 -0.07677308 -0.10501548
0000b0 f2 df ce 3e 41 0b 6e 3e 73 19 2d be 6d 03 cd 3e
       0.40405232 0.2324648 -0.1690424 0.40041676
0000c0 26 07 05 3e bd 5e 12 3e 0f 1a 5f 3b 8c 0c ac bd
       0.12991008 0.14293952 0.0034042632 -0.084008306
0000d0 50 a2 99 3c 77 b8 54 3e 6e f2 59 3e 29 1d c8 3e
       0.018754154 0.20773493 0.21283886 0.39084747
0000e0 bb f7 11 3d 64 8a d5 be 9e 6c 0a 3e 04 54 df 3d
       0.035636645 -0.41707146 0.13517997 0.109046966
0000f0 46 04 9e 3e 6b eb ad bc ff fe 86 be 99 59 97 bd
       0.30862635 -0.02123042 -0.26366422 -0.07390136
000100 d6 06 66 3e 7f a0 5d 3e 2e ec ad 3d a4 1c 90 3e
       0.22463545 0.21643256 0.08492313 0.2814685
000110 e9 c0 c1 be 97 17 9f bc 8b 82 85 be b8 20 5d 3e
       -0.3784249 -0.019420428 -0.2607616 0.21594512
000120 bb 05 a9 be 3f dc 16 be 30 ca b3 be dc 6e 55 be
       -0.33012185 -0.14732455 -0.35115194 -0.20843071
000130 60 2e 5f 3e 46 b3 99 3d 1d ea 14 3f cd b7 59 3e
       0.21795034 0.07504897 0.5816973 0.2126152
000140 c4 b7 12 be a6 13 af 3e 6e 32 91 be 52 4b c9 3d
       -0.14327914 0.34194678 -0.28358787 0.09828819
000150 ba 52 e1 3d fe ac 91 3d 54 e4 c7 be 2e ba f6 3d
       0.11002107 0.07113074 -0.39041388 0.1204723
000160 a0 53 a6 3d 20 36 84 be fa 17 58 3e b2 89 a0 3e
       0.08121419 -0.25822544 0.21102896 0.31355053
000170 16 57 ae bd 59 7b e2 bd 4c ab 68 bd ea 37 95 3e
       -0.08512704 -0.11058683 -0.056803986 0.29144222
000180 5b 71 51 3e 0d 6e 0c be b4 c0 3a 3e 98 5c 9c 3e
       0.20453398 -0.13713856 0.18237573 0.30539393
000190 94 f8 62 be 40 f6 0f 3e f7 3a 9f bd 22 63 a7 3c
       -0.22165138 0.1405878 -0.077749185 0.020433012
0001a0 a8 36 80 be ee 15 ab 3d 4f 74 80 3e 7b a7 23 be
       -0.250417 0.08353792 0.25088736 -0.15981857
0001b0 2e b5 c2 3c e6 4a ff 3e 2a fe 8b 3c 44 4c d2 3e
       0.023768034 0.4986183 0.017088968 0.4107381
0001c0 63 32 0a be 8d dd 64 3e d8 d9 fb bc cc 6f 82 3d
       -0.13495784 0.2235014 -0.030743524 0.0636898
0001d0 cd 2b e6 3c a2 e6 5a be 74 24 1d 3e 1d 6a 23 3e
       0.028097058 -0.21377042 0.15345937 0.15958448
0001e0 03 53 a4 bd ca d9 9f bd 00 aa 5c 3e a9 20 23 3e
       -0.08023646 -0.07805212 0.21549225 0.15930428
0001f0 e4 78 91 bd 95 12 52 be 2e dc 9e 3c aa d9 a6 be
       -0.07103136 -0.20514901 0.0193921 -0.3258794
000200 d6 7f 05 be 94 5e 03 3e ca b8 a7 be 4a 55 45 be
       -0.13037047 0.12829047 -0.3275817 -0.19270816
000210 a5 8d 8b be 63 08 d6 be d6 08 27 3e 52 a4 2d 3d
       -0.27256504 -0.41803274 0.16311964 0.042393036
000220 44 41 3e bc 84 64 e9 3d 81 a6 81 3e 3c 5e 9d be
       -0.01161224 0.11396125 0.25322345 -0.30735958
000230 04 b3 99 bd 60 d6 1b 3e b7 96 88 3d bc 1c f0 3d
       -0.07504848 0.15218496 0.066693716 0.11724231
000240 e7 59 52 3e 59 22 d9 bc 4c 2c 7c be 88 d1 ba 3d
       0.20542108 -0.026505636 -0.24626273 0.09121996
000250 9a a3 f3 3c a7 82 a4 be fb 89 05 3e 89 a8 40 bd
       0.029741097 -0.3213093 0.13040917 -0.047035728
000260 95 0a d0 3b 32 46 8f 3e 3c f2 05 3e fc c0 ed 3d
       0.0063489177 0.27983242 0.13080686 0.116090745
000270 55 0b e8 3e 60 f0 e0 bd ee 5c 47 be 01 e2 55 3e
       0.45321146 -0.10983348 -0.19469044 0.20886995
000280 bb c9 e7 3c 31 de 1a bd 08 cc d1 3e e2 97 54 3e
       0.028294435 -0.037809554 0.40975976 0.20761064
000290 91 8f 8a bd 9c 1d 47 be 7b d1 40 3e fc 22 b6 3e
       -0.06765664 -0.19444889 0.1882991 0.35573566
0002a0 33 3e d3 3e 7e 1a 85 be f5 10 ca 3c 2a 54 2f be
       0.41258392 -0.25996774 0.024666289 -0.1712195
0002b0 44 0f bb 3e 2d e0 85 be 2f 86 06 3d 7a 48 4f 3e
       0.36535084 -0.26147595 0.03284281 0.20242491
0002c0 4f 75 ee 3e ba 48 39 be 3c 2b 81 3d 73 cb b2 bd
       0.46573874 -0.18094149 0.063070744 -0.08730211
0002d0 56 d4 2a 3e c6 f2 16 3d 6a bf b9 3e b6 e5 7f bc
       0.16682562 0.03685262 0.3627885 -0.015618732
0002e0 4c 6d 93 bd 15 ce 1d 3d f6 a0 03 3f 8f ca af be
       -0.07198581 0.038526613 0.5141748 -0.34334227
0002f0 6b 21 28 bc 88 ab 80 3e 9d 81 02 3e e7 7e cc be
       -0.010261874 0.25130868 0.12744756 -0.3994057
000300 c0 2d 9a 3e 26 f6 18 bc 47 e6 96 be ba 0a 5a 3e
       0.3011303 -0.00933603 -0.29472563 0.21293154
000310 fe 6a 98 bd 07 29 49 3e ea fb db 3d 88 65 39 be
       -0.07442282 0.19644557 0.10741408 -0.18105137
000320 45 57 4b 3e bd cf 21 bc bd 99 0d be e1 21 74 3e
       0.1985751 -0.009876189 -0.13828178 0.23841049
000330 b8 ba dc bd a0 47 51 be 25 5a b5 3e 5a 90 96 3e
       -0.10777801 -0.20437479 0.35420337 0.29407007
000340 28 c6 33 3e 3c 5a f0 bd 6a b7 ae bd c1 9a 6e 3d
       0.1755606 -0.11735961 -0.08531077 0.058253054
000350 f4 ce 59 3d 9e 8f a8 3e 83 28 47 be a0 fe 32 be
       0.05317588 0.3292207 -0.19449048 -0.17479944
000360 27 86 ad 3d ec 7a 2c be 50 7b 51 3d 73 e1 a3 be
       0.08472853 -0.16843766 0.05114299 -0.32007942
000370 1b 80 c5 3e 57 92 b9 3d 79 21 c8 bd ef 68 14 3e
       0.385743 0.09061115 -0.097720094 0.14493154
000380 1c 8a 03 3e 6c e5 6d 3e 93 7d 4c 3b ac 55 c1 bd
       0.12845653 0.23232049 0.0031202778 -0.09440169
000390 90 23 ac 3e a3 b5 49 3c 6e 5a 13 3d 13 f8 1b be
       0.33620882 0.012311372 0.035974912 -0.15231352
0003a0 2d 48 f8 3c 85 f9 0e 3d cb dc 96 3d 9f e7 94 3e
       0.030307854 0.03490593 0.07366332 0.29082963
0003b0 b3 71 6c be 14 87 92 bd b1 10 07 3d 9b d9 e4 bc
       -0.23090248 -0.0715467 0.032974903 -0.027935794
0003c0 4f c8 f7 3d 0f 25 1b 3e f4 d2 4c 3e 84 92 5c 3e
       0.12098753 0.15150855 0.20002347 0.21540266
0003d0 bb 6b fb bd 7b 3b b7 3e 4e 97 36 be d9 33 f0 3d
       -0.12276407 0.35787567 -0.17831156 0.11728639
0003e0 0e 16 bb bd c8 28 c2 3c 5f aa 97 be 7f b5 3d be
       -0.09135066 0.023701087 -0.2962217 -0.18526267
0003f0 10 a5 df 3d 3b 7d 5b be 48 ac a4 be 1d fc 9f be
       0.10920155 -0.2143449 -0.3216269 -0.31247035

mlp_1/MLP_0_1/hidden_0_1/BiasAdd/ReadVariableOp:0 f4 [512]
000000 32 73 01 be 35 ab fa bd 02 cc 64 be 92 96 00 be
       -0.126416 -0.122396864 -0.22343448 -0.12557438
000010 0c 7b 30 be 83 e7 08 be e7 f6 e1 bd 9a 87 2a be
       -0.17234439 -0.13369565 -0.11033421 -0.1665329
000020 43 61 e6 bd e6 af 17 be 32 d0 eb bd 2a 3f 3e be
       -0.1124902 -0.14813194 -0.115143195 -0.18578783
000030 06 9b 35 be ee bd 3a be b4 47 35 be 8e 6c 86 be
       -0.17734918 -0.18236515 -0.17703134 -0.26254696
000040 c0 44 bd bd f1 b6 09 be 78 38 0c be 42 a1 3d be
       -0.09241629 -0.13448693 -0.13693416 -0.18518546
000050 38 f3 05 be a5 ce 6f be 30 68 19 be 28 d2 2b be
       -0.13081062 -0.23418672 -0.1498115 -0.16779387
000060 08 11 54 be 5a 4e 42 be 7e 5c 29 be 5d 7a 14 be
       -0.20709622 -0.18975201 -0.16539189 -0.14499803
000070 7d 40 46 be 6a d7 e8 bd 22 37 15 be 03 c9 58 be
       -0.19360538 -0.11369212 -0.14571813 -0.2117043
000080 0b 25 cb bd 0a 15 45 be 1a 8b 25 be c4 46 ba bd
       -0.09919175 -0.19246307 -0.16166344 -0.09095529
000090 7b 18 0c be 3f 60 f0 bd 1a 61 b4 bd c9 65 17 be
       -0.13681214 -0.117371075 -0.08807583 -0.14784922
0000a0 79 17 3d be fe 9d 0d be 49 5f ec bd 1f 80 1b be
       -0.18465985 -0.138298 -0.11541612 -0.15185593
0000b0 94 fa 5e be 68 1c 00 be bb 87 1a be 29 6e 12 be
       -0.21775275 -0.12510836 -0.1509084 -0.14299835
0000c0 1f 4a 51 be 29 0c 0b be 8e 8b 4c be 7a c9 07 be
       -0.20438431 -0.13578857 -0.19975111 -0.13260451
0000d0 96 9c 15 be 34 e8 68 be 99 a6 cc bd 68 37 0b be
       -0.14610514 -0.22744828 -0.099927135 -0.13595355
0000e0 21 08 e8 bd c1 f0 2c be ac 2f 3a be 91 5e 36 be
       -0.113296755 -0.16888715 -0.18182248 -0.17809512
0000f0 32 90 ca bd dd a4 01 be dd 62 88 bd dc d2 3b be
       -0.09890784 -0.12660547 -0.06659482 -0.18342155
000100 f1 f8 1b be c2 f0 0d be 08 be 32 be 46 0a 29 be
       -0.15231682 -0.13861373 -0.17455304 -0.16507825
000110 71 c8 38 be 43 3c fc bd 37 98 d8 bd be c0 3a be
       -0.18045212 -0.123161815 -0.10575908 -0.18237588
000120 71 33 38 be 7d 35 4f be a3 34 35 be d6 ba 95 bd
       -0.17988373 -0.20235248 -0.1769586 -0.07311027
000130 ee 44 4a be be df 33 be 54 88 97 bd 81 92 26 be
       -0.19752857 -0.1756582 -0.073990494 -0.16266824
000140 e4 b5 20 be f0 33 f0 bd 95 7a 00 be 7f b9 79 bd
       -0.15694386 -0.11728656 -0.12546761 -0.06096792
000150 17 97 0d be 2c 6f 96 bd ca af 38 be 95 23 99 bd
       -0.13827167 -0.07345423 -0.18035808 -0.0747749
000160 1d 5a c7 bd 89 65 2e be 73 4a a4 bd 2a 7e ef bd
       -0.097339846 -0.1703092 -0.080220126 -0.11693986
000170 87 58 e0 bd d4 ae 19 be d0 ed 0c be af bf 29 be
       -0.10954385 -0.15008098 -0.13762593 -0.16577028
000180 e6 4d 6b be 46 17 45 be b9 79 de bd 5f 13 fe bd
       -0.22978935 -0.1924716 -0.108630605 -0.124060385
000190 47 67 17 be 81 34 0f be 05 2d 32 be 87 1f 0a be
       -0.14785491 -0.13984872 -0.17399986 -0.13488589
0001a0 10 15 11 be 5e a7 34 be cb 6d a1 bd bf 3c 32 be
       -0.14168191 -0.1764197 -0.078822695 -0.17405985
0001b0 a8 ef db bd 3c 11 5f bd 2b 66 41 be fb 9d f8 bd
       -0.1073907 -0.054459795 -0.1888663 -0.121395074
0001c0 ea 62 31 be 39 a9 2a be 47 a0 f3 bd 07 b9 3b be
       -0.17322889 -0.16666116 -0.11895805 -0.18332301
0001d0 8c 04 5c be 19 c0 f8 bd 91 97 ab bd 25 52 90 bd
       -0.2148611 -0.12146015 -0.083785184 -0.07046918
0001e0 c8 f0 b1 bd 3d 67 e8 bd cf 74 45 be c5 49 27 be
       -0.086885035 -0.11347816 -0.1928284 -0.16336735
0001f0 a2 eb 64 be b1 87 54 be 64 27 0a be 2a 0a 3b be
       -0.22355512 -0.20754887 -0.13491589 -0.18265596
000200 e1 97 54 be 03 6e 1b be 0d 0d 15 be d7 e7 2e be
       -0.20761062 -0.15178685 -0.1455576 -0.17080627
000210 87 a1 ce bc d6 c4 19 be 79 2e 25 be 98 dc 13 be
       -0.025223507 -0.15016493 -0.16131009 -0.14439619
000220 e9 84 23 be bd bf 01 be 6e 40 3f be ab 5a 69 be
       -0.1596867 -0.12670799 -0.18676922 -0.22788493
000230 4a e2 27 be 67 9c 04 be e5 db 97 bd 53 1e 99 bd
       -0.16394916 -0.12950288 -0.074149884 -0.07476487
000240 c7 9f 18 be 5b 7e 20 be e7 25 0b be e0 08 7a bd
       -0.149047 -0.15673201 -0.13588677 -0.06104362
000250 d2 1c 8e bd 9e 44 44 be e6 b9 22 be d9 b0 3b be
       -0.06939091 -0.191668 -0.15891227 -0.18329181
000260 76 2e 4b be 2e e8 d4 bd 8d c8 f1 bd 2e b4 38 be
       -0.19841942 -0.10395847 -0.1180583 -0.18037483
000270 1e 4c d3 bd 92 6b 4f be 1c 74 30 be 6e 31 72 be
       -0.103172526 -0.20255879 -0.17231792 -0.23651668
000280 54 12 05 be 4c a8 56 be 7d 6b e7 bd 05 02 4c bd
       -0.12995273 -0.20962638 -0.11299799 -0.049806613
000290 ee 6d cd bd 1e c5 1e be c8 44 1b be 64 9f 14 be
       -0.10030733 -0.15504882 -0.15162957 -0.14513928
0002a0 10 8f 79 bd 5a 3e 82 be ee 80 5a bd 08 6e 0a be
       -0.06092745 -0.25438195 -0.053345613 -0.13518536
0002b0 29 32 08 be f3 cf 90 bd 5e a5 31 be 1d e8 d1 bd
       -0.13300385 -0.07070913 -0.17348239 -0.1024935
0002c0 d9 ae 06 be 22 8a 1c be 5c 1b 41 be f5 3b 63 be
       -0.13152637 -0.15287068 -0.18858093 -0.2219084
0002d0 36 71 b7 bd e9 92 32 be 8c bb b6 bd 68 3a 1a be
       -0.0895714 -0.17438854 -0.089224905 -0.15061343
0002e0 6a 01 12 be c9 5b 17 be 93 76 23 be e4 27 13 be
       -0.14258352 -0.14781107 -0.15963201 -0.14370686
0002f0 90 3a 18 be 0d d5 02 be 14 c0 08 be 7d 53 4b be
       -0.1486609 -0.12776585 -0.13354522 -0.19856067
000300 9f ca 0c be e5 83 06 be 3e 73 d4 bd dd da 4c be
       -0.13749169 -0.13136251 -0.10373543 -0.20005365
000310 7b 7b 81 be 69 6c 42 be ec 5e 26 be 0c 26 06 be
       -0.2528952 -0.18986668 -0.16247147 -0.13100451
000320 a9 ea c1 bd bd ba 4e be d0 4d f9 bd c6 2c 19 be
       -0.09468586 -0.20188423 -0.12173045 -0.14958486
000330 24 c1 1b be e7 96 28 be bc 83 42 be 2f fa 1f be
       -0.15210396 -0.16463815 -0.18995565 -0.15622781
000340 26 1a 32 be 59 80 1f be a7 a8 c3 bd 54 71 ef bd
       -0.17392787 -0.15576304 -0.09553652 -0.116915375
000350 e5 2a a5 bd 01 01 39 be eb f4 d5 bd cb c3 03 be
       -0.08064822 -0.18066789 -0.10447105 -0.12867658
000360 fa fe 52 bd ad b5 66 be 98 c7 45 be a9 80 29 be
       -0.051512696 -0.22530241 -0.1931442 -0.16552986
000370 34 11 d0 bd a4 4c 1b be 5f 1a f9 bd c5 53 13 be
       -0.10159531 -0.15165955 -0.12163233 -0.14387424
000380 cb 70 4b be a5 33 07 be b2 f7 6d be 67 35 f1 bd
       -0.19867246 -0.13203295 -0.2323902 -0.11777764
000390 96 42 1b be 1c a4 37 be b9 4f 37 be 42 5c 25 be
       -0.1516212 -0.17933697 -0.17901506 -0.16148475
0003a0 48 e6 b4 bd 80 8b 33 be 81 2f 13 be df 6d 23 be
       -0.08832985 -0.17533684 -0.1437359 -0.15959881
0003b0 1b 83 f0 bd 07 5c 1a be 66 7f 38 be 59 30 5c be
       -0.117437564 -0.15074168 -0.18017349 -0.21502818
0003c0 04 94 87 bc b9 1b 1e be 55 b0 47 be 0f 1b 8b be
       -0.016550072 -0.15440263 -0.19500859 -0.27169082
0003d0 dd 6b 12 be c2 52 01 be 87 ae ab bd f9 78 51 be
       -0.14298959 -0.12629226 -0.08382898 -0.20456304
0003e0 ab 0f 0d be e5 c7 cb bd 62 33 00 be 05 ad 60 be
       -0.13775508 -0.09950236 -0.12519601 -0.21941002
0003f0 ac ba 21 be 18 e6 0d be ba 58 1c be 15 fd 46 be
       -0.15793866 -0.13857305 -0.15268221 -0.1943248
